RLSnake/model/bez_przeszkód.pth (torch, 26384 bytes, 4 tensors)

weight f4 [256, 18]
0	0x3e341b63	0.17588572
1	0x3d75192c	0.05983846
2	0x3bebbdc6	0.0071942536
3	0xbee22c20	-0.4417429
4	0x3dc6eec6	0.09713511
5	0xbebb8f63	-0.36632833
6	0xbdd8cedd	-0.10586331
7	0xbe33d57b	-0.17561905
8	0x3ed22b0a	0.4104846
9	0x3b97dd70	0.0046345517
10	0xbca9a720	-0.020709574
11	0x3e1aed1a	0.1512951
12	0x3e6abc19	0.22923316
13	0xbe6a6369	-0.22889484
14	0x3ec89c22	0.3918162
15	0xbd2892d0	-0.041155636
16	0xbe602d68	-0.21892321
17	0xbd6cda05	-0.057825107
18	0xbcac9a1e	-0.021069583
19	0xbe106048	-0.14099228
20	0xbdd3d410	-0.10343182
21	0xbe31fc81	-0.17381479
22	0xbe4304ce	-0.19044802
23	0xbe406445	-0.1878825
24	0xbe44b993	-0.19211416
25	0xbdb4fc6c	-0.08837208
26	0x3d8a4c45	0.067528285
27	0xbd759cb0	-0.059963882
28	0xbe4fe622	-0.20302632
29	0x3e30299e	0.17203376
30	0x3d0498ec	0.0323724
31	0xbdae5186	-0.08511643
32	0xbd44baf0	-0.04802984
33	0xbe18e839	-0.14932336
34	0xbcd42472	-0.025896285
35	0x3ea4d176	0.32191056
36	0x3c95124c	0.018197201
37	0xbea0a66f	-0.3137698
38	0x3b4cf4bc	0.0031273803
39	0x3ddf2f31	0.10897673
40	0x3e16fff0	0.1474607
41	0x3e4b8d42	0.19878104
42	0xbd823082	-0.063569084
43	0xbe9d4457	-0.30716202
44	0xbeb41f5e	-0.3518018
45	0xbe504363	-0.20338206
46	0xbe360679	-0.17775907
47	0xbd154a95	-0.03644808
48	0xbe1fcebf	-0.15606211
49	0x3e099aaf	0.13437913
50	0x3e037350	0.12836957
51	0x3da5b6bf	0.08091497
52	0xbd6fbb93	-0.058528494
53	0x3e3a94d1	0.18220831
54	0x3db2228d	0.08697996
55	0x3ceff851	0.029293211
56	0xbd89e557	-0.06733196
57	0xbe9ee19a	-0.31031495
58	0x3d99fb9e	0.07518695
59	0xbed7b0ca	-0.42127067
60	0x3d7779d1	0.060418908
61	0xbe8965be	-0.26835436
62	0x3cddf3a9	0.027093725
63	0xbe49a94e	-0.19693491
64	0xbc6a7a9f	-0.014311462
65	0x3e7749c5	0.24149235
66	0xb9ecb800	-0.00045150518
67	0xbdbd8dfc	-0.09255597
68	0xbe00f35e	-0.12592837
69	0x3d88794e	0.06663762
70	0xbe61040c	-0.219742
71	0x3e5b208c	0.21399134
72	0x3d55f22e	0.052232914
73	0x3d2af80b	0.04174046
74	0xbd9e3192	-0.077242985
75	0xbe231758	-0.15926874
76	0xbe4e393b	-0.20139019
77	0xbe9efd4a	-0.3105262
78	0x3d21b56d	0.03947966
79	0x3ceab2e7	0.02864976
80	0xbd957177	-0.07297032
81	0xbe710c29	-0.23539795
82	0x3d913d03	0.07091715
83	0x3dd3fa4c	0.10350475
84	0x3e31fbc7	0.17381202
85	0x3e12a4d9	0.14320697
86	0xbe000e5b	-0.12505476
87	0xbdebb4a9	-0.115090676
88	0x3e332578	0.17494762
89	0x3eb2ec74	0.34946024
90	0xbbd9b7c0	-0.006644219
91	0x3a855b99	0.0010174393
92	0xbd7ffd30	-0.062497318
93	0xbde3edff	-0.111293785
94	0x3e0e5de3	0.13903002
95	0x3cfc3420	0.030786574
96	0xbd915695	-0.07096592
97	0xbde69b6a	-0.11260112
98	0xbdadc56d	-0.084849216
99	0xbe10dfab	-0.14147823
100	0x3df9c380	0.12195492
101	0xbd9d74dc	-0.07688305
102	0xbe3aa022	-0.18225148
103	0x3e3e6ea5	0.18596895
104	0x3e2116e4	0.15731388
105	0x3df7525e	0.12076257
106	0xbd1ab8ac	-0.037773773
107	0x3dd015eb	0.101604305
108	0xbdf855ca	-0.12125738
109	0xbe74d703	-0.23910145
110	0xbe2f021b	-0.17090647
111	0xbe1ce4fe	-0.15321729
112	0xbe6faa42	-0.23404792
113	0xbe2315db	-0.15926306
114	0x3e2d2d9e	0.16911933
115	0xbcbbc4b8	-0.022920951
116	0x3e1c571e	0.15267608
117	0x3e6693d2	0.22517326
118	0x3e32a233	0.17444687
119	0xbe18199a	-0.14853516
120	0x3dd8df6e	0.10589491
121	0x3e3ac85b	0.18240492
122	0xbe633628	-0.22188628
123	0x3d922a32	0.07136954
124	0x3c144690	0.009050027
125	0xbdd090cc	-0.10183868
126	0xbe759a64	-0.23984677
127	0xbe2aea05	-0.16690834
128	0xbdbb055a	-0.0913188
129	0xbe05d088	-0.1306783
130	0x3c5d05f2	0.013490187
131	0x3ddcb198	0.10776061
132	0x3e17c0f8	0.14819705
133	0xbdf21d7a	-0.118220285
134	0x3df002b2	0.11719264
135	0x3cc6a4be	0.024248477
136	0x3dcba99d	0.099444605
137	0xbe8b689a	-0.27228242
138	0x3d860542	0.065439716
139	0xbd6ef660	-0.05834043
140	0x3dbdd6bb	0.09269472
141	0xbb2c0780	-0.0026249588
142	0x3e7dc168	0.2478081
143	0x3e4ed42e	0.20198128
144	0xbd4f41d0	-0.050599873
145	0xbd19c0d4	-0.03753741
146	0xbd435c42	-0.047695406
147	0xbe841679	-0.25798395
148	0xbdd5b760	-0.10435367
149	0xbe68a81a	-0.22720376
150	0xbcef8c19	-0.029241608
151	0x3d84beab	0.064816795
152	0x3e2aef01	0.16692735
153	0xbe6db5ec	-0.23213929
154	0xbda3b200	-0.07992935
155	0x3d309d8e	0.043119006
156	0xbdbd849e	-0.0925381
157	0xbe317530	-0.1732986
158	0xbe39d621	-0.1814809
159	0x3ea37272	0.31923252
160	0xbd9fde9e	-0.07806133
161	0x3e2c1b51	0.16807295
162	0xbd79d8f8	-0.060997933
163	0xbe1153ec	-0.1419217
164	0xbde00f76	-0.10940449
165	0xbe15b65a	-0.14620343
166	0x3e2a54c5	0.166339
167	0xbda2da66	-0.079518124
168	0xbcfae9a1	-0.030628981
169	0x3b6b7c9b	0.0035932425
170	0xbe238756	-0.15969595
171	0x3d098ffa	0.033584572
172	0xbe1807d8	-0.14846742
173	0x3e0e9661	0.13924553
174	0x3e03819f	0.12842415
175	0x3d4a0304	0.049319282
176	0xbcd69458	-0.026193783
177	0x3d478134	0.048707202
178	0xbdac6336	-0.084173605
179	0x3dfd4d16	0.123682186
180	0xbdfa30b1	-0.122163184
181	0xbd66b9da	-0.056329586
182	0x3de40795	0.11134259
183	0xbedb89dd	-0.4287862
184	0x3e279b5f	0.16367863
185	0xbe6214cb	-0.22078244
186	0x3c81b29c	0.015832238
187	0xbde7daf4	-0.11321059
188	0x3ec6f1c8	0.3885634
189	0xbeb39fbe	-0.3508281
190	0x3e407497	0.18794475
191	0xbdccf058	-0.100067794
192	0x3df48d6e	0.11941038
193	0xbd44c51c	-0.04803954
194	0xbe012552	-0.12611893
195	0xbe0f02b8	-0.13965881
196	0x3be7c8ae	0.0070734834
197	0x3ece3028	0.40271115
198	0xbe974cdf	-0.29550835
199	0xbe666db8	-0.22502792
200	0xbe6c1136	-0.2305344
201	0x3eb41eb1	0.35179666
202	0x3e933b97	0.287564
203	0xbe78e043	-0.24304299
204	0xbf095b7c	-0.5365522
205	0xbf14a615	-0.5806592
206	0x3e7e3b99	0.24827422
207	0xbf0d7497	-0.55256027
208	0x3edcdfec	0.4313959
209	0xbe984592	-0.29740578
210	0xbd15c0cc	-0.03656082
211	0xbb490ec0	-0.0030678958
212	0x3cb02ae7	0.021504832
213	0xbe8c6caf	-0.2742667
214	0xbe755cad	-0.23961134
215	0xbd5b7064	-0.05357398
216	0x3be911ba	0.007112709
217	0xbc8335d6	-0.016016882
218	0x3ead188c	0.3380779
219	0xbdc98f92	-0.09841837
220	0xbdc82c17	-0.097740345
221	0xbe92da04	-0.28681958
222	0x3e6a13cf	0.22859119
223	0x3e73eb2c	0.2382018
224	0x3e7e090f	0.24808143
225	0xbef73e1d	-0.48289576
226	0xbe5888fe	-0.21146008
227	0xbf058be3	-0.52166575
228	0x3df5feae	0.12011467
229	0xbe47731d	-0.19477506
230	0xbde0500f	-0.1095277
231	0xbcec5cb4	-0.028852798
232	0xbdc118e8	-0.094285786
233	0x3e9165a2	0.28397852
234	0x3e451956	0.19247946
235	0x3caf253f	0.021380065
236	0x3c9f6613	0.019457852
237	0xbde5515d	-0.111971594
238	0x3d7e4fb4	0.06208773
239	0xbee216f5	-0.4415814
240	0x3e1b2cd0	0.15153813
241	0x3e64c9e2	0.22342637
242	0xbcb8a563	-0.0225398
243	0xbe45950f	-0.19295143
244	0x3d905c66	0.070488736
245	0x3e4cda8d	0.20005246
246	0x3d5a402c	0.053283855
247	0xbd0a2be4	-0.033733264
248	0x3e369a64	0.17832333
249	0xbdd573aa	-0.10422452
250	0x3e4b6db2	0.19866064
251	0x3eadb968	0.33930516
252	0x3d410514	0.047123984
253	0x3d311b9c	0.04323922
254	0xbdbdc835	-0.09266702
255	0xbd38e229	-0.045137558

bias f4 [256]
0	0xbe886c49	-0.26645115
1	0x3d4d2764	0.050086394
2	0xbea18900	-0.31549835
3	0xbed8455d	-0.4224042
4	0xbe3206f9	-0.17385472
5	0xbe864731	-0.2622619
6	0xbe07dedd	-0.1326861
7	0xbea5c437	-0.32376263
8	0xbe518c56	-0.2046369
9	0xbe36220f	-0.1778643
10	0xbe11a9a9	-0.14224876
11	0x3db56442	0.08857013
12	0xbe1aebeb	-0.15129058
13	0xbe9bc012	-0.30419976
14	0xbdde22e1	-0.108464964
15	0xbdd76b37	-0.105184965
16	0xbe8c3766	-0.27386016
17	0xbec27c32	-0.37985379
18	0x3d0b4a43	0.03400637
19	0x3df73b0f	0.120718114
20	0xbe37fea2	-0.17968228
21	0xbdd653b9	-0.104651876
22	0xbdb84456	-0.08997409
23	0xbd993578	-0.074809015
24	0xbf0b7277	-0.54471534
25	0xbd19086b	-0.037361544
26	0xbd94f1e5	-0.072727
27	0xbe91524a	-0.28383094
28	0xbe942971	-0.28937867
29	0x3d15056f	0.036382135
30	0xbe5279f3	-0.20554332
31	0xbeb062dc	-0.34450424
32	0x3e8bd93c	0.27314174
33	0xbe4431b1	-0.19159581
34	0xbd33b2cc	-0.043871686
35	0xbe802df4	-0.2503506
36	0xbdfa2f5b	-0.122160636
37	0x3cda3a44	0.026639111
38	0xbd8b6822	-0.06806971
39	0xbe692f86	-0.22772035
40	0xbe650b40	-0.22367573
41	0xbe543415	-0.20722993
42	0xbe01a60a	-0.12660995
43	0xbda341e0	-0.07971549
44	0xbe404f7b	-0.1878032
45	0xbd706e15	-0.058698732
46	0xbe898f71	-0.2686725
47	0xbe5f04d5	-0.21779187
48	0xbd47bfc4	-0.048766866
49	0xbe2ce0ab	-0.16882579
50	0xbe42889b	-0.18997423
51	0xbceba8a6	-0.028766941
52	0xbddca97c	-0.10774514
53	0xbd67b052	-0.056564637
54	0xbe1fd723	-0.15609412
55	0xbf052432	-0.52008355
56	0x3d2036fa	0.03911493
57	0x3dcb3342	0.09921886
58	0xbdcb6cd0	-0.09932864
59	0xbeb0fcc6	-0.3456785
60	0xbcdae283	-0.026719337
61	0xbef36cf9	-0.47544077
62	0xbd246709	-0.040137324
63	0xbe10af7f	-0.14129446
64	0x3d5315b8	0.051534384
65	0xbe0cf3c6	-0.13764867
66	0xbe92722e	-0.28602737
67	0xbe5ad049	-0.21368517
68	0xbec62356	-0.38698834
69	0x3c9d265c	0.01918333
70	0xbe3fae4c	-0.18718833
71	0x3ced241b	0.02894788
72	0xbd1f5e30	-0.038908184
73	0xbe3921e4	-0.18079334
74	0xbe959dd8	-0.29221988
75	0xbda214f8	-0.07914156
76	0xbdcdba17	-0.100452594
77	0xbdc10f81	-0.09426785
78	0xbe8500df	-0.25977227
79	0xbc21efbe	-0.009883819
80	0xbe8eaa56	-0.2786433
81	0xbe7ed8ee	-0.2488744
82	0xbe0d339f	-0.13789223
83	0xbe9dfc86	-0.30856723
84	0xbc80667a	-0.015673865
85	0xbe106c2a	-0.14103761
86	0xbe98e389	-0.29861096
87	0xbe126b83	-0.14298825
88	0xbcbdf4e6	-0.023188066
89	0xbe4520b8	-0.19250762
90	0xbe5bc5e6	-0.21462211
91	0xbe9e892f	-0.30964038
92	0xbe5f0c5d	-0.2178206
93	0xbe32beed	-0.17455645
94	0xbe734665	-0.23757322
95	0x3d0183fb	0.031620007
96	0xbe1b0353	-0.15137987
97	0xbea019fa	-0.3126982
98	0xbda69878	-0.0813455
99	0xbea33162	-0.31873614
100	0x3e2b4a77	0.16727625
101	0xbeb4a2bb	-0.35280403
102	0xbe7b8124	-0.24560982
103	0x3cc9af55	0.024619738
104	0x3c1a4b7b	0.00941741
105	0xbde0a76f	-0.109694354
106	0xbd6bdf9a	-0.05758629
107	0xbe06c20b	-0.13159959
108	0xbe4dfaef	-0.20115255
109	0xbe542960	-0.20718908
110	0xbe560d05	-0.20903404
111	0xbdfec3d3	-0.12439694
112	0xbeb81ddf	-0.3596029
113	0x3b1a263f	0.0023521332
114	0xbe59a136	-0.21252903
115	0x3da07aad	0.078358985
116	0xbe293940	-0.16525745
117	0xbdbf5c7b	-0.09343811
118	0xbeda16f8	-0.4259565
119	0xbeb4c432	-0.35305935
120	0xbe7f99a3	-0.24960952
121	0xbdc5a551	-0.09650672
122	0xbe85cd20	-0.2613306
123	0xbe932935	-0.28742376
124	0xbed92fb4	-0.42419207
125	0x3ce1ce80	0.027564287
126	0xbe2d671a	-0.16933861
127	0xbe58fef8	-0.21191013
128	0xbe4a96aa	-0.19784036
129	0xbe417ad4	-0.18894511
130	0xbe888c3d	-0.26669493
131	0xbdd7b97e	-0.10533427
132	0xbeb5916d	-0.35462514
133	0xbe8c2cad	-0.27377835
134	0xbe2ea1b2	-0.1705387
135	0xbebacbec	-0.36483705
136	0xbe792f05	-0.24334343
137	0xbe81da31	-0.2536178
138	0xbdbfbc2b	-0.09362062
139	0xbe5a5290	-0.21320558
140	0xbe0f5966	-0.13998947
141	0xbe831d9c	-0.25608528
142	0xbed528c8	-0.41632676
143	0xbe7e0281	-0.24805643
144	0x3cf47fcb	0.029846093
145	0xbe9838c5	-0.29730812
146	0xbe718f56	-0.23589835
147	0xbe2c6c85	-0.16838272
148	0xbe0fb5dc	-0.14034218
149	0xbda43f19	-0.080198474
150	0xbeccbf02	-0.39989477
151	0xbd61d876	-0.055138074
152	0x3dbfb3dc	0.09360477
153	0x3be5041a	0.0069890143
154	0xbe8a9bad	-0.27071896
155	0xbebc19a5	-0.36738315
156	0x3dd45232	0.1036724
157	0xbe73ba52	-0.23801544
158	0xbe2fe59d	-0.17177434
159	0x3d99f76f	0.07517897
160	0xbdd80408	-0.10547644
161	0x3dab855e	0.08375047
162	0xbe4bbd11	-0.19896342
163	0xbe5e9a6e	-0.21738598
164	0xbe2930fd	-0.16522594
165	0xbe8aa150	-0.27076197
166	0x3deed3e9	0.116615124
167	0xbe99393f	-0.29926488
168	0xbdc272d0	-0.09494555
169	0xbba3619a	-0.0049860002
170	0xbe55103f	-0.20806979
171	0xbd8fc938	-0.07020801
172	0x3e28e94d	0.16495247
173	0xbe448e34	-0.19194871
174	0xbe01d2cd	-0.1267807
175	0xbea98abb	-0.33113655
176	0xbe79cae2	-0.243938
177	0xbc54eb30	-0.012995526
178	0xbe3c68e3	-0.18399386
179	0xbeccb827	-0.39984247
180	0xbdf2080e	-0.118179426
181	0x3c3c0a1a	0.011477018
182	0xbce19d06	-0.027540695
183	0x3d9d8324	0.07691029
184	0xbe7b55cd	-0.24544449
185	0xbe8ac8dc	-0.2710637
186	0xbe0557ba	-0.13021746
187	0xbe8dfa2b	-0.27729926
188	0xbe7d8214	-0.24756652
189	0xbe537292	-0.20649174
190	0xbe140e76	-0.14458641
191	0xbd976207	-0.07391744
192	0x3d6566ac	0.05600612
193	0xbe98410c	-0.29737127
194	0xbe537ef1	-0.20653893
195	0xbd93d69b	-0.07218667
196	0xbe9650a8	-0.2935841
197	0xbe3f618a	-0.18689552
198	0x3de67f34	0.11254731
199	0xbce07692	-0.027400289
200	0xbe3abeb0	-0.18236804
201	0xbe45f0ce	-0.19330141
202	0xbed505d0	-0.41605997
203	0xbe9f21ca	-0.31080467
204	0xbeabce8e	-0.33556026
205	0xbe3fae3a	-0.18718806
206	0xbe222ce3	-0.15837435
207	0xbd3711e4	-0.044694796
208	0x3caf8a75	0.021428326
209	0xbe3a1461	-0.18171836
210	0xbe4d08bc	-0.20022863
211	0xbcaccf86	-0.021095049
212	0xbf2c8094	-0.67383695
213	0xbe80a6b5	-0.25127187
214	0xbec40da7	-0.38291666
215	0x3d88877c	0.066664666
216	0xbe7ff23c	-0.24994749
217	0xbcdedc53	-0.027204668
218	0xbe5ee66a	-0.21767583
219	0xbede46e8	-0.43413472
220	0xbdd9e561	-0.10639454
221	0xbda82f11	-0.08212102
222	0xbeaebb8f	-0.3412747
223	0xbe83db5b	-0.25753292
224	0xbeda5ef7	-0.42650577
225	0xbe423bf4	-0.18968183
226	0xbda8a754	-0.0823504
227	0x3daa96f2	0.08329572
228	0xbe112a97	-0.14176403
229	0xbe2db6d4	-0.16964275
230	0xbcb5bd3f	-0.022184966
231	0xbed02d2f	-0.40659472
232	0xbe8c3e79	-0.27391413
233	0xbe90912e	-0.28235763
234	0xbea7eb1e	-0.32796568
235	0xbd9cccc2	-0.07656242
236	0xbe518927	-0.20462476
237	0x3e939e85	0.28831878
238	0xbe474728	-0.19460738
239	0xbd6cc3f0	-0.057804048
240	0xbe0ad639	-0.13558282
241	0x3e6a1337	0.22858892
242	0xbea1fca8	-0.31638074
243	0xbe5f3586	-0.21797761
244	0xbdd393b3	-0.10330906
245	0xbe9c71aa	-0.3055547
246	0x392414a0	0.00015647942
247	0xbdec00a0	-0.11523557
248	0x3da5a683	0.080884
249	0x3eb62b33	0.35579833
250	0x3d07e5dc	0.033178195
251	0xbe6ef9cc	-0.23337477
252	0xbe51b972	-0.20480898
253	0xbe7670ed	-0.24066515
254	0xbea656cf	-0.32488105
255	0xbe17bdae	-0.14818451

weight f4 [4, 256]
0	0xbe0666d5	-0.13125165
1	0xbc8b8996	-0.01703338
2	0xbc01f636	-0.007932236
3	0x3e9f3f0f	0.31102797
4	0x3e83e38b	0.2575954
5	0xbd2f1b04	-0.042750373
6	0xbe0ae60b	-0.13564317
7	0xbddaff37	-0.106932096
8	0x3d76ba41	0.06023622
9	0x3d9da0a8	0.076966584
10	0xbd18a42c	-0.03726594
11	0xbc8aad63	-0.01692838
12	0x3e800ef6	0.25011414
13	0xbde62141	-0.112368114
14	0xb8021646	-3.101516e-05
15	0x3c8471ab	0.016167482
16	0x3bff1f56	0.007785718
17	0xbdccb5e9	-0.09995634
18	0xbd86bc9a	-0.06578942
19	0xbefb7e9a	-0.49120027
20	0x3cb0d314	0.021585025
21	0xbd9cd3c0	-0.076575756
22	0xbb7d5111	-0.0038653056
23	0x3c839a00	0.016064644
24	0x3d222049	0.03958157
25	0xbbdebd4d	-0.0067974688
26	0x3e3ad592	0.18245533
27	0x3cc267b1	0.023731085
28	0x3d175bef	0.03695291
29	0xbd47e700	-0.048804283
30	0x3d23dfd3	0.040008377
31	0xbd141833	-0.03615589
32	0x3eadd6cf	0.33952948
33	0x3e7e5f9f	0.24841164
34	0xbda90ab6	-0.08253996
35	0x3e66da60	0.22544241
36	0x3d4af091	0.04954583
37	0xbea7efc4	-0.32800114
38	0xbd3fba4e	-0.046808533
39	0x3d546c97	0.05186137
40	0x3cb2ed74	0.021841742
41	0xbc69f128	-0.014278688
42	0xbcdaa3ca	-0.026689429
43	0x3cc58348	0.024110451
44	0xbcb14cdb	-0.021643093
45	0xbcab7a24	-0.020932265
46	0x3e63f3e3	0.22261004
47	0xb6f05adf	-7.163136e-06
48	0xbe043866	-0.1291214
49	0xbc48ba58	-0.012251459
50	0x3e2b495f	0.16727208
51	0xbd1da3cc	-0.038486287
52	0xb83c82f9	-4.494467e-05
53	0x3d14b8a0	0.036308885
54	0xbcf1a99c	-0.029499821
55	0xbbccb4e1	-0.0062471484
56	0x3dfadde7	0.12249356
57	0x3e079700	0.13241196
58	0xbcc2f058	-0.023796245
59	0xb901eb7f	-0.00012390128
60	0x3d95c153	0.07312264
61	0x3f8730f2	1.0561812
62	0xbcc55ff5	-0.024093607
63	0xbe120a6f	-0.14261793
64	0xbe0a682e	-0.13516304
65	0x3da224be	0.07917164
66	0x3beff736	0.007323171
67	0xbd072dfb	-0.033002835
68	0xbe920611	-0.28520253
69	0xbef7845c	-0.4834317
70	0x3c3c54bd	0.011494813
71	0x3ceeda9d	0.029156977
72	0x3e8efdf2	0.2792812
73	0xbdf45ec5	-0.11932138
74	0xbaa565be	-0.0012618823
75	0xbca3a11d	-0.019974286
76	0xbe048676	-0.12941918
77	0xbd4402f0	-0.047854364
78	0x3e26c62d	0.16286536
79	0x3d11804b	0.03552274
80	0xbd51d5eb	-0.0512294
81	0xbd756a7b	-0.059916
82	0xbd81242c	-0.06305727
83	0x3ec3a0cb	0.38208613
84	0xbd686f02	-0.05674649
85	0x3e8c4c25	0.27401844
86	0xbd23e1fa	-0.04001043
87	0x3ec090bf	0.37610433
88	0x3caf6a77	0.021413071
89	0x3eae39db	0.34028515
90	0xbdcf2797	-0.10114973
91	0x3dabacc3	0.08382561
92	0xbd8d6e8d	-0.069058515
93	0xbe554ddd	-0.20830484
94	0x3e596d51	0.21233107
95	0xbc202762	-0.009775015
96	0xbd9a66bc	-0.07539126
97	0x38cd591c	9.79176e-05
98	0xbd0c59fb	-0.0342655
99	0xbcae7a66	-0.021298598
100	0xbc1d2899	-0.009592199
101	0xbd31e9e0	-0.04343593
102	0x3e2d46a9	0.16921486
103	0xbb246b31	-0.0025088305
104	0xbd14cc3f	-0.036327597
105	0xbd4435b4	-0.047902778
106	0x3d3c3ff5	0.04595943
107	0xbd8693d7	-0.06571167
108	0xbd82fee1	-0.063962705
109	0x3e8ed500	0.2789688
110	0x3c8c2e3b	0.017111888
111	0xbd3fb9ad	-0.046807934
112	0xbec22287	-0.37916967
113	0xbc8bd845	-0.017070899
114	0x3ea05b55	0.3131968
115	0x3e10613a	0.14099589
116	0x3e023e15	0.12718995
117	0x3dcbbab8	0.09947723
118	0x3ea38dc7	0.31944105
119	0x3e01bc45	0.12669475
120	0x3c78d188	0.015186675
121	0xbd3ee2da	-0.04660306
122	0x3afbb379	0.0019203267
123	0xbe10eda1	-0.14153148
124	0x3ccee989	0.025257843
125	0xbe0dc3a6	-0.13844165
126	0x3d847a7e	0.06468676
127	0xbb882d6d	-0.004155806
128	0x3d3bdfe1	0.045867804
129	0x3c2b70bb	0.010463889
130	0xbd88316f	-0.06650054
131	0xbd938b55	-0.0720431
132	0x3d427240	0.04747224
133	0x3beab1b1	0.0071622957
134	0xbe05f98c	-0.13083476
135	0xbd971cfd	-0.07378576
136	0x39c8db3f	0.00038310324
137	0xbc896087	-0.01676966
138	0xbd30a26a	-0.04312364
139	0xbd5b6a90	-0.053568423
140	0x3dbf7c2b	0.09349855
141	0xbc8da97e	-0.017292734
142	0x3ba86b87	0.0051397714
143	0x3ce9f4ba	0.028559078
144	0x3e46cfef	0.19415258
145	0xbda0efd2	-0.07858242
146	0xbd42a222	-0.047517903
147	0xbe8f92d0	-0.28041697
148	0x3c906d35	0.017630199
149	0x3ed8f145	0.42371574
150	0xbd418281	-0.0472436
151	0x3d065939	0.032799933
152	0xbbfbbfae	-0.007682762
153	0xbc40c23b	-0.011765058
154	0xbd63a56c	-0.05557768
155	0x3d344a0d	0.044015933
156	0x3b9d4d83	0.0048005
157	0x3cd86197	0.026413722
158	0x3c0124d8	0.007882319
159	0x3bd51a52	0.0065033818
160	0xbd592567	-0.053014185
161	0x3e01d302	0.1267815
162	0x3bc5ebfe	0.0060400954
163	0xbd6e1651	-0.05812675
164	0xbd43260b	-0.047643702
165	0xbd55acc9	-0.052166734
166	0xbca1d513	-0.019754922
167	0x3cc084c8	0.023500815
168	0x3ca83d77	0.020537121
169	0xbdd583c1	-0.10425521
170	0xbe07a640	-0.13247013
171	0xba88ee64	-0.0010447023
172	0xbd92efa5	-0.07174615
173	0xbd1e28cc	-0.038613126
174	0xbe08aed9	-0.13347949
175	0x3d8a68a9	0.067582436
176	0xbd337788	-0.043815166
177	0x3a0a019d	0.00052645226
178	0x3cbd6f9b	0.023124507
179	0xbdb3db0c	-0.08782014
180	0xbca8cfb7	-0.020606859
181	0x3e0528bc	0.1300382
182	0xbd094947	-0.03351715
183	0xbd18120e	-0.037126593
184	0x3d298b80	0.041392803
185	0xbde7c74d	-0.113173105
186	0xbd986d33	-0.07442703
187	0x3e1c4478	0.15260494
188	0x3d033881	0.03203631
189	0xbca95e3f	-0.020674823
190	0xbb5ed599	-0.0034001826
191	0xbd8504f4	-0.06495085
192	0xbd16ed59	-0.036847446
193	0x3e2b98e0	0.16757536
194	0x3cdba3d1	0.026811512
195	0xbce1c87d	-0.02756142
196	0x3d85ab3c	0.06526801
197	0xbe974655	-0.29545847
198	0xbe82861b	-0.2549294
199	0xbd28fdf3	-0.04125781
200	0x3b9bcb53	0.0047544627
201	0xbd5a0d68	-0.05323544
202	0x3c9151b3	0.017739153
203	0x3d5f3de6	0.05450239
204	0x3f361d75	0.711387
205	0x3dba2aa6	0.09090166
206	0xbe123540	-0.14278126
207	0x3d5d9b15	0.054102976
208	0xbe25d255	-0.16193517
209	0xbcafab82	-0.021444086
210	0xbd00acac	-0.031414673
211	0x3f15b8f9	0.5848537
212	0x3df4de40	0.11956453
213	0x3c325dcd	0.010886622
214	0x3e02fffd	0.12792964
215	0x3d195061	0.03743017
216	0xbe8f29d7	-0.2796161
217	0xbd9d7dee	-0.07690035
218	0x3e08c6f7	0.13357149
219	0x3e610ac8	0.21976769
220	0x3e90a4df	0.28250787
221	0xbd81de90	-0.063412786
222	0x3c3f9771	0.011693821
223	0x3d76e53e	0.060277216
224	0x3fbdc12f	1.482458
225	0xbdc1ebe5	-0.094688214
226	0x3d406ed0	0.04698068
227	0xbe9ff6d0	-0.3124299
228	0xbc029093	-0.0079690395
229	0xbe9f7915	-0.31147066
230	0x3d4d8bce	0.050182156
231	0x3c45affb	0.012065883
232	0xbcee4428	-0.029085234
233	0xbdd531f3	-0.10409918
234	0xbcc077d9	-0.023494648
235	0x3c1a43cf	0.009415581
236	0xbe1d754f	-0.15376781
237	0xbcba0680	-0.022708178
238	0x3bf11d5d	0.0073582367
239	0xbc6d4daa	-0.014483849
240	0xbe9a84d4	-0.30179465
241	0xbde056c2	-0.10954048
242	0xbdec6846	-0.11543326
243	0x3b1abb62	0.0023610224
244	0xbe27db7d	-0.16392322
245	0x3cf96205	0.030442247
246	0xbe40ec34	-0.18840104
247	0xbd367c94	-0.0445524
248	0xbe8c5dbd	-0.27415267
249	0xbe9971a8	-0.29969525
250	0xbea69563	-0.32535848
251	0x3c302f08	0.010753401
252	0x3d00a5f4	0.031408265
253	0x3cf1b8a3	0.029506987
254	0x3d5a1188	0.053239375
255	0xbc4529f8	-0.012033932

bias f4 [4]
0	0xbe30f5d4	-0.17281276
1	0xbe837254	-0.25673163
2	0xbe0b8179	-0.13623609
3	0xbe738299	-0.23780288
