RLSnake/model/bez_mapowania.pth (torch, 84612 bytes, 6 tensors)

weight f4 [128, 24]
000000 40 e8 63 be c3 8a 08 bc 2f 16 71 be 6f b1 df be
       -0.22256565 -0.008333865 -0.23543619 -0.4369006
000010 d6 46 d8 be e4 d1 47 bf 3e 49 60 3d eb b7 5b 3e
       -0.42241544 -0.7805464 0.05475735 0.21456878
000020 b5 98 23 3e c2 a6 99 be 70 ae 5c be 5b cc 7c 3e
       0.15976222 -0.3001004 -0.21550918 0.2468733
000030 43 65 fa bd ae 13 2f 3e 97 d0 31 3d f3 32 d3 3d
       -0.122263454 0.17097351 0.043411817 0.10312452
000040 10 77 59 3d f6 31 36 3e 55 82 de bd 0f 95 17 be
       0.053092062 0.17792496 -0.108647026 -0.14802955
000050 42 dc 53 3e cf 77 c4 be e9 8f 60 3e 4d 08 d9 bd
       0.2068949 -0.38372657 0.21929897 -0.105972864
000060 3a ed c9 bd 1e 50 a2 bd 32 ec 3d be 2c 18 bc be
       -0.098597005 -0.079254374 -0.18547133 -0.36737192
000070 80 f8 94 3c a8 6c ad bd 3f e0 b9 bd ac 57 22 be
       0.0181849 -0.0846799 -0.09075975 -0.15853757
000080 a1 38 6d 3d 9d 7f 62 bd 1c 58 32 be 4a 10 12 3e
       0.057915334 -0.055297483 -0.17416424 0.14264026
000090 b0 49 b2 3d 23 ba 0f be a2 33 a9 3e 19 ba 8e 3e
       0.08705461 -0.1403585 0.33047205 0.27876356
0000a0 9f 1a 1d be 7a 11 a6 bd 42 0c 42 be c0 d1 06 bd
       -0.15342186 -0.08108802 -0.18949988 -0.032914877
0000b0 34 f8 a0 bd 95 52 1b 3e ce 90 d9 bd 1c 4c fd 3c
       -0.07859841 0.15168221 -0.106233224 0.03092008
0000c0 88 41 3e 3e 97 71 d9 be c0 8e 94 bf cc 69 21 3f
       0.18579686 -0.42469475 -1.1606064 0.6305206
0000d0 32 aa 5c be 87 b4 34 be 7a 8b 22 3d ab 29 36 3f
       -0.215493 -0.1764699 0.039683796 0.7115733
0000e0 6d f6 45 be 7f da 5a 3f 4d b6 57 bf 1d 99 20 be
       -0.19332285 0.8548965 -0.84262544 -0.15683408
0000f0 70 62 b8 3c 28 de f2 3d 7d f1 f7 3e 6c b5 b0 3e
       0.022507876 0.11858779 0.48426428 0.34513414
000100 5b 33 47 be b7 37 31 3e 53 3f 09 be e3 44 00 be
       -0.19453184 0.1730641 -0.13403063 -0.12526278
000110 43 d2 4c 3d 6e cc 91 bd 5c 3f 43 3d 1a c6 21 3b
       0.05000521 -0.0711907 0.047667846 0.0024684728
000120 d0 e1 90 be 9d 03 90 be 86 d1 d1 3d 4c 76 ae 3c
       -0.2829728 -0.28127757 0.102450415 0.021296643
000130 65 8f a3 be 8a b7 40 bf c6 bd a6 3e 62 b3 80 3e
       -0.3194534 -0.7528006 0.3256666 0.25136858
000140 8a a4 e5 3c b4 84 ca bc f0 bf 1b 3f 55 46 98 be
       0.02803256 -0.02472148 0.6083975 -0.2974116
000150 90 de 40 3d 78 83 2c 3e 79 6d 32 3e de 88 0d be
       0.047087252 0.16847026 0.17424573 -0.13821742
000160 11 bf ac 3e 49 f0 de bd bb ea 9d 38 c0 86 17 bd
       0.33739522 -0.108856745 7.530065e-05 -0.036993742
000170 a0 f5 72 bd 7d f0 07 bf 0f dd 52 3e 9a 9d d6 be
       -0.059316278 -0.5310133 0.2059214 -0.41917115
000180 90 ae f3 3c ad 13 f1 3c 15 b6 31 bf 37 77 f0 be
       0.029746324 0.029428327 -0.6941846 -0.46965954
000190 aa b0 78 be 86 32 ce 3d e8 3a b8 be fc 5d 08 bf
       -0.24286142 0.1006823 -0.35982442 -0.5326841
0001a0 3f 2f b1 be 9d 56 49 3f c9 c0 4f be 39 6f 69 be
       -0.34606358 0.78647786 -0.20288385 -0.22796334
0001b0 86 05 a9 bd 70 8c b2 bc 26 61 27 3f cd 4b ae 3d
       -0.08253007 -0.021795481 0.6538261 0.085105516
0001c0 b4 a8 c1 3e 6f 41 4f 3e 5a 49 37 3e 3a 3d 4b be
       0.37824023 0.20239805 0.17899075 -0.19847575
0001d0 53 ff 73 be 03 9c 5b bf f0 ed 6c 3e 53 7a 48 be
       -0.23827867 -0.8578493 0.23137641 -0.19577913
0001e0 e3 59 1a be 70 a0 92 be 5a 4e 84 3f c9 86 c6 be
       -0.15073352 -0.2863803 1.0336411 -0.38774708
0001f0 e9 73 a8 3d 0a 5e 20 bf 05 07 ef 3d 19 7e 37 bd
       0.08225233 -0.6264349 0.11671261 -0.04479799
000200 17 aa d7 bf 71 53 49 3e d1 ce 07 3f 89 94 59 3f
       -1.6848782 0.19660737 0.5304995 0.8499227
000210 e8 e5 bd 3c a8 5b 15 3e bc 70 f4 bd da ab c2 be
       0.023180917 0.14585745 -0.11935565 -0.38021737
000220 41 06 dd be b5 cb a8 bf 08 2b 63 3e 26 2b 67 3c
       -0.43168834 -1.3187166 0.22184384 0.0141094085
000230 f0 cc e3 3e 81 49 40 3d 02 74 b1 bf c6 55 7b 3f
       0.44492292 0.0469451 -1.3863528 0.98177755
000240 51 83 72 be 5a ea fb bd b4 5a 25 bf 22 37 19 bf
       -0.23682906 -0.123005584 -0.64591527 -0.5984975
000250 4e d2 c3 bd 5c 4c 49 bd 3c 9c 91 be 5c 31 93 be
       -0.09561597 -0.049145088 -0.2843951 -0.28748596
000260 78 4d 38 3d 9a 37 fd bd 40 6c 88 be fe 71 2b bd
       0.044995755 -0.12364121 -0.26645088 -0.04185676
000270 fc e7 fc 3d 00 75 b5 ba 22 5b 31 3f 96 43 28 3e
       0.12348935 -0.0013844073 0.6927968 0.16432032
000280 61 b7 de 3e 8e 2b 73 3e 6f b2 74 be 41 cb 97 bd
       0.43499282 0.23747084 -0.23896192 -0.074118145
000290 66 94 9a bd bb e0 c8 bd 38 9a 74 bd fc 2a 0f 3e
       -0.07547836 -0.09808489 -0.059717387 0.13981241
0002a0 f3 c1 d6 bd 27 d9 3f be 15 7a 2e bf d9 a2 59 3d
       -0.10486212 -0.18735181 -0.6815503 0.05313382
0002b0 5f ec e9 3d 5d 4e be 3f 94 51 15 bf 3f d7 0c bf
       0.11422037 1.4867665 -0.58327603 -0.5501594
0002c0 0c 2c 46 bf c6 5b 44 bf 5a 8e c6 3e 4a 4e ab 3e
       -0.7741096 -0.76702535 0.3878048 0.33458167
0002d0 88 8c da 3c c9 9b c8 bd 5f 96 82 bf e9 43 29 be
       0.026678339 -0.09795339 -1.020214 -0.16529812
0002e0 b1 11 01 bf 27 52 a7 be 17 54 a2 b9 88 b8 42 3e
       -0.5041762 -0.32679865 -0.000309617 0.19015706
0002f0 ec 79 d6 bd e6 b2 d3 be df 76 6c 3d fb 62 fa bf
       -0.104724735 -0.41347426 0.05773055 -1.9561456
000300 d4 cc 38 be 77 7c 5e be 5f 40 32 be 0e 16 3f 3c
       -0.18046886 -0.21727167 -0.17407368 0.011662973
000310 77 b6 6f 3d 5b 99 53 bc 99 e0 9d be a7 4d 89 be
       0.05852362 -0.012914981 -0.30835417 -0.26817057
000320 32 c4 c6 bd 01 cb da 3d 93 9e 96 bd ae bb 8a bd
       -0.0970539 0.10683251 -0.073544644 -0.06774078
000330 19 85 dc bd dc 8b 4d 3e ce 87 a0 3c 26 ba 8f bd
       -0.10767574 0.20072883 0.019596007 -0.07017927
000340 c8 93 1a bd 19 a1 d0 3d 7d e2 26 3d 3b 82 88 be
       -0.03773859 0.10186977 0.04074334 -0.26661858
000350 3f cb 6c be 51 4a af be 39 01 17 3e c2 15 29 3d
       -0.23124407 -0.34236386 0.1474656 0.041280515
000360 6a 6a 47 bd d1 34 25 bd 0a 2f 6b be 81 b1 38 3f
       -0.04868547 -0.040333573 -0.22967163 0.7214585
000370 80 c9 23 be 0f 07 ae 3d 0e cb 87 bf 41 0d 48 bf
       -0.15994835 0.0849744 -1.0608842 -0.78145224
000380 bb 2e 67 3e aa 05 1d bf 1f 52 39 3e 93 87 53 be
       0.2257642 -0.6133677 0.18097733 -0.20657186
000390 f4 af 8b 3d ba 8a d2 bd 17 4a 81 be 0c d1 65 bd
       0.0682067 -0.10280366 -0.2525184 -0.056107566
0003a0 f4 4b 14 be ae 10 54 3e 49 34 07 3e f9 4e 6b bd
       -0.14482099 0.20709488 0.13203539 -0.05744836
0003b0 d8 72 9a be 0e 70 cc bf c1 d0 88 3e 04 61 81 bf
       -0.30165744 -1.5971696 0.26721767 -1.0107732
0003c0 77 11 f6 bd 4f 44 1b be 27 1a 9d be 73 22 85 bd
       -0.1201505 -0.15162776 -0.30684015 -0.06500711
0003d0 a5 96 88 3e bc 27 af bd 18 9c b0 be 9b 05 54 be
       0.26677433 -0.085525006 -0.3449409 -0.20705263
0003e0 59 12 84 be 50 9d 28 3e 41 90 87 3e 5c 90 84 bd
       -0.25795248 0.1646626 0.26477244 -0.06472847
0003f0 40 7d d8 3d 2c d0 d8 3d 1f f3 38 be 07 85 84 3d
       0.105707645 0.10586581 -0.18061493 0.064706855

bias f4 [128]
000000 d0 94 eb be e6 ff 59 be 93 88 16 be 98 46 06 bf
       -0.46011972 -0.21289024 -0.14700536 -0.5245147
000010 c2 66 60 3d 59 4d 89 3e f4 a9 93 bd d2 3f 4e 3f
       0.054785497 0.26816824 -0.0721015 0.8056613
000020 41 c6 7b be 5d 1e 89 3e b3 28 27 be 1a 87 4f be
       -0.24587347 0.26780978 -0.1632412 -0.20266381
000030 be e1 09 bf 8f b0 1b bf 48 85 91 be 81 57 da be
       -0.5386008 -0.6081628 -0.28421998 -0.42644885
000040 71 df 05 bf 22 61 d8 bd bc 02 c6 be 50 11 8f be
       -0.5229407 -0.105654016 -0.3867396 -0.27942896
000050 f0 79 84 be d7 3b c6 be 22 d2 16 3f 5a 37 1a be
       -0.2587428 -0.3871753 0.5891439 -0.15060177
000060 cf cc e3 bd b5 48 1d bf 44 4e a1 be b8 3c 62 be
       -0.111230485 -0.6143907 -0.31505024 -0.22093475
000070 52 8e 8f be e5 ee 68 be c2 c8 4c be 4a 73 95 be
       -0.2803827 -0.22747381 -0.19998458 -0.2918952
000080 77 48 fd be 8d 68 ab be 05 e0 96 be 41 46 16 3e
       -0.4946935 -0.33478203 -0.29467788 0.14675237
000090 b3 78 a2 be ab 1e e1 be d9 12 02 bf 63 bb 76 3d
       -0.3173271 -0.4396871 -0.5081001 0.0602373
0000a0 08 1b b2 be 0b c6 ba bd 4a 97 d7 be 7c d9 30 bf
       -0.34786248 -0.09119805 -0.42107612 -0.69081855
0000b0 8b 94 45 be b0 eb 1d be c8 2f a7 be 37 c7 35 be
       -0.19294946 -0.15421939 -0.32653642 -0.17751776
0000c0 79 03 c9 be 6e 65 a0 be ad 5f 26 be 1e 04 3b be
       -0.39260462 -0.31327385 -0.16247435 -0.1826329
0000d0 58 83 f4 be ab fb 63 bd ab 4a 92 be c6 a6 a1 bd
       -0.47756457 -0.05565993 -0.28572592 -0.07893138
0000e0 d9 b1 a7 be a3 e9 8c be b9 16 49 be a8 c3 af be
       -0.32752874 -0.27522 -0.19637574 -0.3432896
0000f0 7d 51 c0 be a9 04 79 be 6e be 2b bf 7d f9 0b be
       -0.3756217 -0.24318184 -0.6708745 -0.13669391
000100 7f bf 52 be ba b9 32 bd 4d cb e6 be e4 fd 1c bf
       -0.20580862 -0.043634154 -0.4507698 -0.61324906
000110 04 ff 21 bd 54 a4 65 be c5 1b 98 be 49 07 d9 be
       -0.039549842 -0.22425967 -0.29708686 -0.4238837
000120 a9 91 97 bd 64 12 ce be 92 d9 08 bf a8 a4 00 3f
       -0.07400829 -0.40248406 -0.53456986 0.50251245
000130 d0 db f5 bc 34 b1 93 be e9 a7 39 be e2 2b 30 be
       -0.030012041 -0.28846133 -0.18130459 -0.1720424
000140 1f 96 c6 bd e5 3a 81 be ee 2f 8e be 89 91 80 bd
       -0.09696602 -0.25240245 -0.27770942 -0.06277759
000150 8b 70 14 be e2 93 d6 be 68 03 e6 be e2 b6 0d be
       -0.14496057 -0.419097 -0.44924474 -0.13839296
000160 d8 e7 47 be 1d a4 ee be ad 97 86 be b6 b3 68 3c
       -0.19522035 -0.46609583 -0.26287594 0.014203003
000170 8b f8 ae be 49 73 15 be 81 e8 92 3e 15 5c c7 be
       -0.34173998 -0.14594759 0.2869301 -0.3893744
000180 7b f8 d7 be 66 de 97 be e7 ab ef bc 12 bb 90 be
       -0.42181763 -0.29661864 -0.029256774 -0.28267723
000190 e2 41 c5 bd d3 fe 07 be c2 91 81 3d ee ed ff be
       -0.09631707 -0.13280801 0.06326629 -0.49986213
0001a0 41 d1 94 be c3 49 bd be 98 06 f7 be 71 9c 38 bd
       -0.29065898 -0.36970338 -0.48247218 -0.04507107
0001b0 72 00 d9 be 7d 7b 0a be 7b e8 b7 be d7 02 de be
       -0.42383152 -0.1352367 -0.35919556 -0.43361542
0001c0 f8 4c 09 be d8 93 ce be 4d bf c8 bd d9 d5 67 be
       -0.13408267 -0.4034717 -0.09802113 -0.2264017
0001d0 b0 05 9a be ed 41 81 be 6b f4 87 be a4 c9 66 be
       -0.30082464 -0.2524561 -0.26553664 -0.22537857
0001e0 05 48 14 bf 5c 13 00 bf 07 7a 4a be 0f 0b 81 bd
       -0.57922393 -0.5002954 -0.19773112 -0.063009374
0001f0 0f b7 1c bf 20 29 0e be 76 e0 75 3e b6 04 b0 be
       -0.61216825 -0.13882875 0.24011406 -0.34378594

weight f4 [128, 128]
000000 92 cd e7 bc 94 59 ac bc 7a d5 9e bd 68 37 36 be
       -0.028296266 -0.021038808 -0.07755561 -0.17794573
000010 b7 3b bc 3c 6a 7c 39 bd 2c 6d 5f bc 1f 5a a5 bd
       0.022977693 -0.045284666 -0.013636868 -0.0807383
000020 ab f4 ae bd 76 61 16 bc 43 ab 10 bc e6 84 4f bd
       -0.085427605 -0.00917851 -0.0088298945 -0.05066385
000030 55 3d 96 3d 78 65 c1 3a 63 2c e2 bc b9 36 c5 b9
       0.07335917 0.0014754971 -0.027609056 -0.0003761554
000040 40 56 97 bc 5c 7b d9 bd 8e 92 63 3d 1d 84 a1 bd
       -0.018473744 -0.10619232 0.055559687 -0.07886527
000050 52 37 f5 bd f4 00 0a 3d 90 d5 9f bd ca 50 e9 3c
       -0.11973442 0.033692315 -0.07804406 0.028480906
000060 48 6d 99 3d d5 be 22 3d 09 40 3f be ad c9 66 bd
       0.07491547 0.039732773 -0.18676771 -0.056344677
000070 59 65 68 3b d5 55 bd bd 32 76 bb 3d 93 77 0c bd
       0.0035460799 -0.09244887 0.09153403 -0.034293722
000080 d1 80 8d bd 1d c1 9d bd 60 b1 ab 3c f2 57 03 be
       -0.069093354 -0.07702849 0.020958602 -0.12826517
000090 4f c2 7f bd 84 46 78 bd e5 dc 92 bd d3 e9 2f 3d
       -0.062441166 -0.060614124 -0.071710385 0.0429476
0000a0 15 a8 d4 3c 0e 81 a6 bc b2 ff 39 be 96 fd 54 bd
       0.025959054 -0.02032521 -0.18163946 -0.05199965
0000b0 8c 72 1b bd 3b 9b 6d 3c 66 eb 95 bd 33 fd 7a 3d
       -0.037951037 0.014502342 -0.07320289 0.061276626
0000c0 3c 7b 59 bd e0 18 53 bd 20 29 15 3c 23 57 64 be
       -0.05309604 -0.051537395 0.009104043 -0.22298865
0000d0 59 17 f0 bd 31 48 75 bd 5f aa bb bd 14 d9 d7 bd
       -0.11723203 -0.0598833 -0.09163355 -0.10539451
0000e0 19 8b 0e be f5 5e 7d be 70 cf 89 bd 0c 9e 2f bd
       -0.13920249 -0.24743254 -0.06729019 -0.042875335
0000f0 15 87 0d be ba de 1c bd 9e f3 6f be 36 e5 97 bd
       -0.13821061 -0.038298346 -0.23432776 -0.074167654
000100 de 3c f8 3d a9 92 b7 3d d2 0d 01 be 65 6b 55 3d
       0.121209845 0.0896352 -0.12602928 0.052104373
000110 b5 8a a3 bd 0a 4d 18 be 10 e1 ca 3c 4b 68 f3 bd
       -0.07985441 -0.14873138 0.024765521 -0.11885127
000120 28 83 20 3d 21 d4 76 bd 66 9b 97 3d b1 9b fa bd
       0.03918758 -0.060260896 0.07402687 -0.12236727
000130 0a dc 21 3d 9b 28 5a be 4c 07 a1 bc 80 31 a7 3c
       0.039516486 -0.21304552 -0.0196568 0.020409346
000140 10 2b 90 3b 66 b4 03 bd b2 e5 bf bc 9a 69 1d bc
       0.0043996647 -0.032154463 -0.023424957 -0.009607697
000150 c2 0d a1 bd 0e cb 00 bd 9e 95 cd bd c5 5b 12 be
       -0.07863952 -0.031443648 -0.10038303 -0.1429282
000160 98 6e e5 3d cc 1a 64 bc f1 31 ea bd 8f ae bf bb
       0.11202735 -0.0139224045 -0.11435307 -0.0058496664
000170 93 d7 cf bd 77 82 81 3a 4a 65 8d 3c 82 a7 ac bd
       -0.101485394 0.00098808 0.017260212 -0.08430387
000180 e2 a8 0b 3e 0d 02 d4 bc d8 d0 d9 3c 8a e7 32 3d
       0.13638642 -0.025879884 0.026588842 0.043677844
000190 c4 0f 4f bd 6d 76 85 be 95 7e f7 bd d6 84 cc bd
       -0.050552145 -0.26066914 -0.120846905 -0.09986274
0001a0 99 ac af bd 7c 3a 63 bd 23 9a be 3d 3b dd d3 bd
       -0.08577842 -0.055475697 0.09306743 -0.10344931
0001b0 81 22 e4 bd a0 02 8b be 12 4f c2 3d 9f dc 18 bd
       -0.111393936 -0.2715044 0.09487738 -0.037319776
0001c0 0a ad 93 bd 3f 5b 60 be b8 7d b9 3c 79 02 af bd
       -0.07210739 -0.21909808 0.022642955 -0.085453935
0001d0 00 32 c9 3c bc 0a 9c bc 5a c7 f4 bd 31 2c 50 bd
       0.024559975 -0.019048087 -0.11952086 -0.050823394
0001e0 2e ea 2f bd 79 31 b0 3b 12 8c db bd 35 94 f0 bd
       -0.04294794 0.0053769914 -0.10720076 -0.11747018
0001f0 d0 eb 68 be a8 b5 9f bd 4d 75 b5 bd e5 36 e2 3c
       -0.22746205 -0.0779832 -0.08860264 0.027614066
000200 25 9a 7b bd 5d fb a3 3d 04 7d de bc 41 fe 98 bd
       -0.0614263 0.08006928 -0.027159221 -0.0747037
000210 77 43 e8 3a 04 35 b8 bd 40 f6 5d 3c 82 41 97 bd
       0.0017720301 -0.08994487 0.01354748 -0.073855415
000220 b3 65 bd bd 46 c4 03 3d 1b 51 8d 3d d3 ed 56 bd
       -0.09247913 0.032169603 0.06900235 -0.0524729
000230 19 0f b4 bd 19 2f 56 3d 60 71 39 3b 4f 7b 2b bc
       -0.08791942 0.05229101 0.0028296337 -0.010466411
000240 7c 52 9a bd 28 40 cd bc 05 0f 10 bd 0f ee 74 3d
       -0.07535264 -0.025055006 -0.035170574 0.059797343
000250 4d 7d 10 3d 46 70 7a 3d ec f6 6f 3d e8 1f 2c bc
       0.035275746 0.06114223 0.058585092 -0.010505654
000260 d6 dd 99 bd cd d1 25 3d a6 15 70 bc d3 e7 60 3c
       -0.07513015 0.040483285 -0.014653599 0.013727146
000270 60 80 91 bd 81 3f 4d bd 8d 9f 98 3d 29 34 86 3d
       -0.07104564 -0.05010939 0.07452307 0.065529175
000280 80 4c e0 3c 1a 48 90 bd a0 de 07 bb 9e 93 f4 bc
       0.027380228 -0.07045002 -0.002073206 -0.029855546
000290 7d b3 4f bd d4 21 5f 3d e4 e9 d2 bd 39 99 9b 3c
       -0.050708283 0.05447562 -0.10298517 0.01899396
0002a0 b0 28 ae bd 42 f8 84 bd 8a c8 c2 bd 27 36 c6 bd
       -0.08503854 -0.06492664 -0.09510906 -0.096782975
0002b0 e5 89 20 3d e2 bf 34 bd 97 f6 a9 3d 13 81 a9 3d
       0.039194006 -0.044128306 0.082989864 0.08276572
0002c0 62 54 5d bc c7 00 af bd 60 ba 3d bc 0b cc b2 ba
       -0.013508888 -0.0854507 -0.01158008 -0.0013641132
0002d0 16 9a af bd ad ba c8 bc 63 23 ad bd 70 46 2b bd
       -0.085743114 -0.024503076 -0.08454015 -0.04181522
0002e0 db 72 2f 3d e6 6c 5e bd 08 84 59 bc b2 1f fb bc
       0.042834144 -0.054303072 -0.013276108 -0.030654762
0002f0 1d f1 42 bd 79 5f 4e bd c0 49 11 bd 43 db 41 bd
       -0.047593225 -0.05038402 -0.035470724 -0.047328245
000300 80 5f 9b 3c 10 13 6f bd bf 4e 8e bd 64 4c 3f 3d
       0.018966436 -0.05836779 -0.069486134 0.04670371
000310 8c 05 05 3d 4d 61 3d bd 44 a2 b9 bd 6d f9 b1 3d
       0.032475993 -0.04623537 -0.09064153 0.08690152
000320 f8 cc a9 bc b4 f0 db bc 28 2a 64 bd d7 c8 23 bc
       -0.02072762 -0.026848175 -0.055704266 -0.009996614
000330 99 da 5e bd b4 fe 94 3b 5c 79 92 bc f4 37 aa bd
       -0.05440769 0.0045469645 -0.017880134 -0.083114535
000340 55 ad 39 3d 71 85 46 3c 3a eb 3a 3d 69 80 9e 3c
       0.045331318 0.012116776 0.045634486 0.01934834
000350 46 c2 62 3d e4 21 93 bd 28 79 4a bd 21 13 b6 bd
       0.055361055 -0.071841985 -0.04943195 -0.08890367
000360 96 7d 49 3d bc fa b5 bd 15 df 56 3d af fa 7e bd
       0.049192034 -0.088857144 0.05245884 -0.06225079
000370 1b c0 0c 3d 80 86 83 3c f4 b6 6e bc f1 06 a0 bd
       0.034362894 0.016055346 -0.014569987 -0.07813824
000380 55 6a a5 bd 28 c4 16 bb cc 96 80 3d 7b 61 37 3d
       -0.08076922 -0.0023005102 0.06278762 0.0447707
000390 ad 28 54 bd 00 83 08 bd 48 ab 89 bd aa 72 a8 bd
       -0.051796604 -0.033328056 -0.067221224 -0.082249954
0003a0 05 48 c4 3c 50 22 2f bc db da 30 3d f8 76 e8 3c
       0.023960123 -0.010689333 0.043177467 0.028377041
0003b0 cf 75 8c bd 64 20 87 bd a7 2f 4b bd ee 5a 27 bd
       -0.06858408 -0.06597975 -0.04960599 -0.0408582
0003c0 f4 1c 8f 3c dd 33 a3 bd 9a 6a 77 3b b4 26 13 3c
       0.01746986 -0.079688765 0.0037752748 0.0089813955
0003d0 98 f7 d3 bd 2a ad aa bd 35 00 4e 3c ab e5 bd bd
       -0.10349959 -0.0833381 0.012573292 -0.09272321
0003e0 e8 85 9e 3d 5b 9a 92 bd e5 18 22 bc 46 62 1a bd
       0.07740384 -0.07158347 -0.009893631 -0.037691377
0003f0 ca 80 27 3b 36 0a 8f bd 6a 7c 03 bd 2c d4 d2 bc
       0.0025558942 -0.069843695 -0.032101072 -0.025735937

bias f4 [128]
000000 3e 56 cd bd 61 98 97 bd 58 e8 3b be 19 69 0a be
       -0.10026215 -0.07402111 -0.18350351 -0.13516654
000010 57 a8 8c be 76 32 11 3d 52 0d f2 bd 2b 2e d0 bc
       -0.27472183 0.035448514 -0.11818947 -0.02541264
000020 47 41 bd bd ce 5d 60 be 01 28 b3 3d cf 98 87 be
       -0.09240966 -0.21910784 0.087478645 -0.2648377
000030 ab 80 fd bd bc 98 eb bd be 69 61 be 19 8f 5e be
       -0.12378057 -0.11503741 -0.22012994 -0.21734275
000040 d3 26 20 be 37 33 1f be 17 6d 09 be a9 0c 52 be
       -0.1563981 -0.1554688 -0.1342052 -0.20512642
000050 bb f2 9d bd bf c6 c8 bd 99 1d 91 be 0b 25 69 be
       -0.07712313 -0.09803533 -0.28342894 -0.22768037
000060 12 a1 19 bd d9 c8 6e bd f0 ba f5 be 1b 57 5e bd
       -0.037507124 -0.058297012 -0.47994184 -0.05428229
000070 82 4f e1 bd b8 f7 16 be 11 41 12 be 0c 75 3a be
       -0.11001493 -0.14742935 -0.14282633 -0.18208712
000080 8f ba 6a bd f0 37 05 be 6b cb a2 be 90 8e a3 bc
       -0.057306822 -0.1300962 -0.3179582 -0.01996544
000090 4d c9 9a bd 74 c6 85 be 34 98 38 be 92 6d 12 be
       -0.07557926 -0.2612797 -0.18026811 -0.1429961
0000a0 06 95 39 be 1f 5b 1f be 21 04 29 be c7 e4 d3 bd
       -0.18123254 -0.15562104 -0.16505481 -0.1034637
0000b0 17 d8 3d bd 4a 40 d6 bd 04 4f 44 bd 7d 88 b5 bd
       -0.046348657 -0.10461481 -0.047926918 -0.08863924
0000c0 08 27 3e be f6 d8 ec bd 33 44 ff bd a7 e5 16 be
       -0.18569577 -0.115648195 -0.1246418 -0.14736043
0000d0 e8 79 d4 bd bb fd b6 bd 34 79 91 be b7 df 09 bf
       -0.10374814 -0.08935114 -0.28412783 -0.53856987
0000e0 18 1d e3 bd ae a5 26 be d7 71 c4 bd 7d 06 d8 be
       -0.110895336 -0.1627414 -0.09592026 -0.4219245
0000f0 7c ae f3 bc 4e b9 79 bd dd 05 e7 bd 27 95 fa bd
       -0.029746287 -0.060967736 -0.11280415 -0.1223548
000100 17 d2 00 be 46 3e 25 be 18 d4 69 bd c9 ec d6 bd
       -0.12580143 -0.16137037 -0.057087034 -0.10494382
000110 9a 77 76 be 02 19 7c bd 9d 46 0c bf 91 df 38 be
       -0.24069062 -0.061547287 -0.5479525 -0.18054034
000120 44 f1 25 be 92 e5 28 be 2e b1 9d bd fa 76 ac bd
       -0.16205317 -0.16493824 -0.0769981 -0.084211305
000130 bf fa c3 be 74 ef 27 be 3c 3c 4d 3d 4e eb a6 bd
       -0.38277242 -0.16399938 0.050106272 -0.081503496
000140 e4 cf 89 be d8 29 96 3f 3e b3 9b 3e 8a 22 17 be
       -0.2691642 1.173152 0.30410188 -0.1475927
000150 1b 21 6a bd 83 06 82 bd 41 35 fd bd 09 c7 3e be
       -0.057160478 -0.06348898 -0.12363673 -0.18630613
000160 b5 f1 de bd dd 7b b2 bd f5 37 d8 bd 5c 73 23 be
       -0.10885946 -0.08715031 -0.10557548 -0.15961975
000170 65 94 87 be a8 9e c1 bd 4f 11 88 bd 69 99 da bd
       -0.26480404 -0.094540894 -0.06643926 -0.10673792
000180 9a 86 2a be 61 77 a7 bd c1 56 03 be ea c6 29 bd
       -0.16652909 -0.081770666 -0.12826063 -0.041449465
000190 9b 79 ca bd e1 3c 5c be e8 18 b1 bd d1 b4 7f bd
       -0.09886476 -0.21507598 -0.086473286 -0.0624283
0001a0 a6 78 aa bd f0 f7 b3 bd b1 23 36 be d9 b3 df bd
       -0.08323793 -0.08787525 -0.17787053 -0.10922975
0001b0 23 aa 47 be b1 e2 d7 bd 2d 4e 90 bd 73 59 a9 be
       -0.19498496 -0.10541285 -0.07046161 -0.33076057
0001c0 35 93 f7 bd 55 cb a4 be 73 7a e6 be 06 1f 1b be
       -0.120886244 -0.3218638 -0.45015296 -0.15148553
0001d0 8d 74 41 bf 95 eb 85 bc c0 67 37 be 67 36 08 be
       -0.7556847 -0.016347686 -0.17910671 -0.13302003
0001e0 b0 44 ac bd ea 12 9f be e0 7c 49 be 95 ef c6 bd
       -0.084115386 -0.31069118 -0.19676542 -0.097136654
0001f0 cf 9a a1 bd 4f 35 ea bd 71 db 4d be 71 1d e7 be
       -0.078908555 -0.11435949 -0.20103242 -0.4513965

weight f4 [4, 128]
000000 42 d2 c3 3a f3 43 f7 3a b4 08 12 3e ab cb f7 bc
       0.0014939981 0.0018864855 0.14261132 -0.030248484
000010 02 8a 4f 3e 78 72 7f 3d d0 0e 3b 3d ac ad 17 bd
       0.2026749 0.062365025 0.045668423 -0.03703086
000020 e7 f3 8f bc c2 c2 0b bc 8a ea a1 3e df 37 89 3e
       -0.017572356 -0.008530321 0.31624252 0.2680044
000030 f6 da 46 bc 75 c4 cb 3c d3 a4 68 3f 78 4b 32 3e
       -0.012137165 0.024873951 0.908765 0.17411602
000040 57 b9 bf 3c 97 9b c9 3d ee a7 88 3c 89 d6 1b 3c
       0.023403807 0.098441295 0.016681638 0.009511598
000050 7b d1 10 3c 96 4f 1a bd 2c a0 dd 3b 42 08 ef 3c
       0.008839007 -0.037673555 0.0067634787 0.029178742
000060 4b 69 75 3d 8d 50 f5 3c f6 3d 1e 3e 00 ab 94 be
       0.05991487 0.029945636 0.15453324 -0.29036713
000070 60 78 0d 3b 9f ca c3 bc 1a db 39 be 27 a4 c3 3c
       0.0021586642 -0.023900328 -0.18149987 0.023881985
000080 87 0a 00 3d ed 0d ea bc a9 54 ad 3e a0 7d 74 3a
       0.03126004 -0.028571093 0.33853653 0.0009326581
000090 36 fd 71 bc fe dc cc 3e 94 43 f6 bd 43 0c 89 bd
       -0.014769843 0.40012354 -0.12024608 -0.06691792
0000a0 51 42 63 bc da 50 76 3b 25 28 74 bd 9f 6f a1 3d
       -0.0138707915 0.0037584812 -0.059608597 0.07882618
0000b0 1d ad 9a 3c 87 ea b4 3e d8 a8 fb bc 6f 72 7e 3c
       0.018881375 0.3533518 -0.03072016 0.015530213
0000c0 7e 6c 0d bc d2 1f b8 bc e1 b2 47 be 24 39 88 3c
       -0.008631824 -0.02247611 -0.1950183 0.01662881
0000d0 a0 00 0e 3e 4d 92 8b bc 31 93 b1 3c 9a 21 f6 3d
       0.13867426 -0.017037535 0.021676632 0.12018128
0000e0 42 9b 58 bc fd 86 87 3c 83 c7 56 bd 70 ff 0e be
       -0.01322061 0.01654386 -0.052436363 -0.13964629
0000f0 3c f9 00 3c 39 da be 3e f2 d0 fb 3c 3e 24 e0 3c
       0.007871922 0.37275866 0.030739281 0.027361032
000100 0f 4b 12 bd 8a 45 04 3d 46 99 06 3d 2e cd 83 3d
       -0.035716113 0.03229288 0.032861017 0.06435619
000110 e1 d8 21 3d d9 6a b9 3c 1f 51 23 3e ce 2c ea 3e
       0.039513472 0.022633957 0.15948914 0.45737308
000120 e6 cc 02 bc 31 86 65 be 72 7f 37 bd 82 1b 3b bd
       -0.007983422 -0.22414471 -0.044799276 -0.04568053
000130 71 77 b7 3e 1f cf ac bc f6 d9 86 be 27 ff a9 bc
       0.35833314 -0.021094857 -0.26338166 -0.020751549
000140 f0 33 08 bd 15 bb 88 3e 59 c0 bf be 28 f8 1f bd
       -0.033252656 0.26705232 -0.37451437 -0.03905502
000150 14 93 54 3d 5c aa 8c 3c 10 36 08 bd 6a 60 c1 3e
       0.051898077 0.017171077 -0.033254683 0.3776887
000160 60 a6 48 3b 6f 37 08 bc 54 c6 ba 3b 31 fd c1 3b
       0.0030616745 -0.008313998 0.005699912 0.0059200753
000170 f4 53 16 3e e1 06 5a bc 48 cb 87 bd dd f3 65 ba
       0.14680463 -0.013307304 -0.0663057 -0.0008771995
000180 2a 1c 6a bd a0 95 6c 3c 55 2a 24 bc 47 9d c1 bc
       -0.057155766 0.01443997 -0.010019858 -0.023634566
000190 44 75 84 bd 18 a3 07 3d 59 4c 6b bd 10 ca 6c bd
       -0.06467679 0.033114523 -0.057445858 -0.05780989
0001a0 f1 f3 23 bc 4b 66 c1 bc 79 42 68 be c7 61 7a 3d
       -0.010006891 -0.023608347 -0.22681607 0.061128404
0001b0 4f 55 ba 3b 9e eb 34 bc 1d c8 a6 bc 88 b1 8b 3d
       0.005686439 -0.011042504 -0.020359093 0.06820971
0001c0 95 84 e8 bc d6 e6 d5 bd 0f b4 da 3d 37 b5 64 be
       -0.028383533 -0.10444419 0.10678875 -0.22334753
0001d0 a8 eb f2 3d f8 6e 91 3d 3e 66 76 bc fc b4 f6 3c
       0.11861354 0.07101244 -0.015039025 0.030115597
0001e0 2c 28 85 3c 5f 05 23 3e 26 a1 e9 3b 17 0f 78 3b
       0.016254507 0.15920018 0.007129806 0.003785079
0001f0 46 a3 06 3d e5 c6 1d 3c be f8 9c 3e 39 3f c0 3e
       0.032870553 0.00962994 0.30658525 0.37548235
000200 e2 39 b7 bd f4 41 ed bc 8f 8e c3 3c b4 d9 49 3d
       -0.08946587 -0.028962113 0.023871688 0.049279884
000210 b3 80 ea bc 1f c8 23 be 76 74 51 3d a7 b3 f8 3e
       -0.028625822 -0.15994309 0.051136456 0.48574564
000220 66 a1 c7 3c 84 10 b9 3c 26 bb 32 3d e0 0e 74 3b
       0.024368953 0.022590883 0.04363551 0.0037240312
000230 b9 46 2b bd 7d 6d bf 3c af 4a 75 3e ab a7 d5 3b
       -0.041815493 0.023367638 0.23954271 0.0065202317
000240 27 31 ef bd 24 45 62 bd 03 73 2c 3d 89 fb 97 bc
       -0.11679297 -0.05524172 0.04210187 -0.018552558
000250 8d 32 13 ba 10 37 9c bd c2 47 37 3d f6 58 5f 3b
       -0.00056151376 -0.0762769 0.044746168 0.0034080124
000260 1b ad 57 bd 91 73 ac bd 45 c3 3e be bb dc 9b 3d
       -0.05265532 -0.0842048 -0.18629177 0.0761046
000270 dd dc b5 bd b6 24 09 be 75 33 51 3e da 6a 82 bc
       -0.08880017 -0.1339291 0.20429786 -0.015920091
000280 78 cb 7d 3c bb 2f 03 bd 11 4f 19 3e cf 8d d3 bd
       0.015490405 -0.03202794 0.14971568 -0.10329782
000290 9d 4f 63 3c da ac 8a 3e a0 d4 5a 3c 4d b5 0f bc
       0.013873962 0.27085 0.013356358 -0.008771253
0002a0 31 a9 84 be 5a 98 40 3d c4 0f bc bc 1f 6b 82 3d
       -0.25910333 0.047020294 -0.022956736 0.06368088
0002b0 2d ff 4f 3b f5 60 14 be cf 85 95 3c f6 68 6b 3c
       0.003173779 -0.14490111 0.018252281 0.014368286
0002c0 32 63 19 bd 23 13 96 bc 12 40 af bc 35 ea 50 3e
       -0.037448116 -0.018319672 -0.021392856 0.20401843
0002d0 86 4f c9 bb 1f 96 d1 38 f8 2f 5f bd 28 73 1b 3f
       -0.006143513 9.993859e-05 -0.054489106 0.6072259
0002e0 00 17 53 bb 1f c3 a4 bc 22 49 6b bc e4 ad db bc
       -0.0032209754 -0.020112572 -0.014360698 -0.026816316
0002f0 83 7e b5 bd c4 f8 84 be c2 34 cf bc c1 57 9d 3d
       -0.08862021 -0.25971043 -0.025293712 0.07682753
000300 88 50 43 bd e6 5d 9c bc 18 07 f7 3b 2a a7 b7 3a
       -0.047684222 -0.019087743 0.0075386874 0.0014011611
000310 3a 2a 14 bd a7 b9 96 3d 1b 4a c7 bd 0b c4 4c 3e
       -0.036173083 0.07359629 -0.09730931 0.1999666
000320 b8 d2 a4 bd 01 69 38 bb a1 d2 36 bb 04 51 2e bc
       -0.08048004 -0.002813876 -0.002789654 -0.010639433
000330 e6 18 03 be fa 64 d2 bc de 0d 70 be 78 4f 7f bd
       -0.12802467 -0.025682915 -0.2344279 -0.062331647
000340 cb f1 82 bc 72 b2 a9 be e6 68 41 3c ec 2c 9e 3a
       -0.015984436 -0.33143955 0.011804795 0.0012067831
000350 6b 5d 3d 3d df 45 44 3b a2 0a 03 bc 3a c1 53 3e
       0.04623167 0.0029948873 -0.0079981405 0.20679179
000360 90 ed 86 3c 12 38 ca 3c 66 a1 97 3b fe 60 ac 3a
       0.0164707 0.02468494 0.0046273945 0.0013151465
000370 f2 f8 0e 3e bb e3 2d bd 85 2b 45 3d 6e da 3b bd
       0.13962153 -0.04245351 0.048137207 -0.045862608
000380 c7 a0 80 3c 8e 43 2d 3c 4d 76 70 bc 42 89 c5 3c
       0.015701665 0.010575188 -0.014676643 0.024113301
000390 f5 ca 69 3c 68 35 14 bb de 0e d0 bb 2f 2c 4c 3d
       0.01426958 -0.002261484 -0.0063494286 0.049846824
0003a0 c4 77 9f 3b 81 13 14 3c f0 b1 21 bd a2 22 c2 3e
       0.004866572 0.009037853 -0.039476335 0.37917048
0003b0 04 b3 f8 bc 27 ca 2a be 94 ab 33 bc b9 31 d5 3c
       -0.030358799 -0.16678677 -0.0109662 0.026024686
0003c0 2a 38 56 bd 4f 58 03 3d 6a c0 6d 3c 86 f1 87 be
       -0.052299656 0.03206664 0.014511207 -0.26551455
0003d0 d4 e8 fc 3e 2e be 37 3c f3 aa 81 3c 5d 6e d1 3d
       0.49396384 0.011214776 0.015828585 0.10226128
0003e0 17 55 3d bd 09 bc 33 3e f0 75 ba be 70 ad 86 3d
       -0.046223726 0.17552198 -0.36418104 0.06576049
0003f0 91 9d 04 3d c8 1e 48 bd 79 0c fe 3d 65 1b ef 3d
       0.03237683 -0.04885748 0.12404723 0.11675147

bias f4 [4]
000000 36 93 fb 3d 23 af 60 be 0f db 1a 3f 6e c1 85 be
       0.12283938 -0.2194181 0.60490507 -0.26124138
