RLSnake/model/bez_mapy_wiecej_przeszkod_i_neuronow.pth (torch, 296938 bytes, 6 tensors)

weight f4 [256, 24]
0	0x3db50615	0.08839051
1	0xbcf2e20e	-0.029648807
2	0xbe079811	-0.13241602
3	0xbdd348c9	-0.10316617
4	0xbcdb7218	-0.026787803
5	0xbe161a22	-0.14658406
6	0xbe257e3b	-0.16161434
7	0xbdfffa05	-0.12498859
8	0xbd680991	-0.05664975
9	0xbe3b27c9	-0.18276896
10	0x3cfb94f0	0.030710667
11	0x3bf6a3d5	0.0075268545
12	0x3d587578	0.052846402
13	0xbc400f60	-0.011722416
14	0xbdecacb8	-0.11556381
15	0xbe021b94	-0.12705833
16	0xbe2ae001	-0.16687013
17	0x3e11ea6c	0.14249581
18	0x3de12520	0.10993409
19	0xbdd5b0d9	-0.10434122
20	0xbe0aa192	-0.13538197
21	0xbcb49ad4	-0.022046484
22	0xbe4eeb97	-0.20207058
23	0x3c94e66d	0.018176282
24	0xbe88bfa6	-0.26708716
25	0xbe95f402	-0.29287726
26	0x3d96ae7c	0.07357499
27	0xbe7905fb	-0.24318688
28	0xbe7ae2e6	-0.24500617
29	0xbe9d545f	-0.30728433
30	0xbe5e3254	-0.21698886
31	0xbe3de69b	-0.18545
32	0xbee884a0	-0.45413685
33	0xbe63df02	-0.2225304
34	0x3ee6efb8	0.45104766
35	0xbe3e0ce8	-0.18559611
36	0xbdc0d3ba	-0.09415384
37	0xbe3c0ef3	-0.18365078
38	0xbd908d26	-0.07058172
39	0xbcf716f8	-0.03016232
40	0xbe61c107	-0.2204629
41	0xbe350e59	-0.17681254
42	0xbe0eaf65	-0.13934095
43	0xbe93ee82	-0.28892905
44	0x3db0a857	0.08625858
45	0xbe486fbe	-0.19573876
46	0xbead77e2	-0.33880526
47	0xbd5ca108	-0.05386451
48	0x3d9423ef	0.07233416
49	0x3c8db47a	0.017297972
50	0x3cb6a459	0.022295164
51	0xbd4370a7	-0.047714856
52	0x3dc3cc08	0.095604
53	0xbd2feea9	-0.042952213
54	0xbdd5f138	-0.104463995
55	0xbdf5377f	-0.11973476
56	0x3d0ef1bc	0.034898505
57	0xbe1916ef	-0.14950155
58	0xbe4d24ab	-0.20033519
59	0xbe1d662a	-0.15371004
60	0x3e30c7d0	0.17263722
61	0xbdff3f24	-0.12463215
62	0xbd3a2790	-0.045447886
63	0x3d4b4788	0.049628764
64	0xbd301078	-0.042984456
65	0x3db4166c	0.08793339
66	0xbe8513e6	-0.25991744
67	0xbd28e9ac	-0.041238472
68	0xbdd807b7	-0.105483465
69	0xbe836139	-0.25660113
70	0xbe154911	-0.14578654
71	0x3dd22ef0	0.10262859
72	0xbca55f06	-0.020186912
73	0xbc204ffd	-0.009784696
74	0xbdab9fac	-0.08380064
75	0x3bb2adde	0.0054528555
76	0x3d3ec97e	0.046578877
77	0xbe549c0e	-0.20762655
78	0x3d17bd45	0.037045736
79	0xbc5ebd0f	-0.01359488
80	0x3d2af28f	0.04173523
81	0x3c9b92ae	0.01899084
82	0x3e6a85b6	0.22902569
83	0xbd5ccf49	-0.05390862
84	0xbe3d64d5	-0.18495496
85	0x3e4976a0	0.19674158
86	0x3e0f60de	0.14001796
87	0xbd37c1f8	-0.044862717
88	0xbe2f940c	-0.17146319
89	0x3da7685c	0.08174202
90	0x3db0ed7d	0.08639047
91	0xbe1e5c6f	-0.15464948
92	0xbd9f585d	-0.07780526
93	0xbe9c71b7	-0.30555508
94	0x3c7abdcf	0.015304043
95	0xbe10e2e5	-0.14149053
96	0xbe562183	-0.20911221
97	0xbe9d8912	-0.3076864
98	0xbe663a8d	-0.22483273
99	0x3c46d804	0.012136463
100	0xbccbbdf8	-0.024870858
101	0xbdef496d	-0.11683927
102	0xbe3d499c	-0.18485111
103	0xbdc9b776	-0.098494455
104	0xbee87ae0	-0.45406246
105	0xbcf16689	-0.029467838
106	0x3ea43463	0.32071218
107	0x3d022e6e	0.03178256
108	0x3e2b7a70	0.16745925
109	0xbdeaa426	-0.1145709
110	0x3e078b55	0.13236745
111	0xbe1a7748	-0.15084565
112	0xbde9dbc0	-0.11418867
113	0x3e243690	0.16036439
114	0xbe15d9ce	-0.14633867
115	0xbdd78b41	-0.105246074
116	0xbe254fac	-0.16143674
117	0xbea02e52	-0.3128534
118	0xbeaab827	-0.33343622
119	0xbe3d97f8	-0.18515003
120	0xbe27edb7	-0.16399275
121	0xbe4304f1	-0.19044854
122	0xbe215c1a	-0.1575779
123	0x3d6025b9	0.054723475
124	0x3d374d17	0.044751253
125	0xbd0b5e60	-0.03402555
126	0x3da11760	0.078657866
127	0xbe35cacd	-0.17753144
128	0xbe95cb24	-0.29256546
129	0x3cf54feb	0.029945334
130	0x3e6723f2	0.22572306
131	0xbe90de1a	-0.2829445
132	0x3dd2ec38	0.102989614
133	0x3e228032	0.15869215
134	0x3d72d931	0.05928916
135	0x3e074fe5	0.13214071
136	0x3dc43cd8	0.095819175
137	0xbdfef2cd	-0.12448654
138	0xbe426cad	-0.18986769
139	0xbe0f311c	-0.13983577
140	0xbe73e4dc	-0.23817772
141	0xbe6697a9	-0.22518791
142	0xbe28f3cf	-0.16499256
143	0xbe5a9135	-0.21344455
144	0xbe0244da	-0.12721577
145	0x3d25aa1a	0.040445425
146	0x3dc0515b	0.09390517
147	0x3dd9d19a	0.106356815
148	0x3cea8e19	0.02863221
149	0x3d82d674	0.0638856
150	0xbd7f8515	-0.062382776
151	0xbd46d9a1	-0.04854739
152	0xbe1e5d70	-0.15465331
153	0xbe08caec	-0.13358659
154	0x3d7117ca	0.058860578
155	0x3d835133	0.06411972
156	0x3e38bf10	0.18041635
157	0x3d76dc60	0.06026876
158	0xbdfb14bb	-0.122598134
159	0xbe0881dc	-0.13330787
160	0x3be97b00	0.0071252584
161	0xbdc36dbf	-0.09542417
162	0x3d158730	0.036505878
163	0xbd172423	-0.036899697
164	0xbd1ef178	-0.0388045
165	0xbcfe3adc	-0.031033926
166	0xbd25e4f4	-0.04050155
167	0xbe48b27f	-0.19599341
168	0xbdcfd0ff	-0.10147285
169	0xbc333757	-0.010938487
170	0xbdac47e1	-0.08412147
171	0xbcfcc187	-0.030854
172	0xbe03511f	-0.12823914
173	0x3d418dbf	0.04725432
174	0xbddfffe0	-0.10937476
175	0xbd8f236d	-0.06989179
176	0xbdc08f17	-0.09402292
177	0xbe6c44a7	-0.23073064
178	0x3e5783be	0.2104635
179	0xbe798bb1	-0.24369694
180	0x3e32742a	0.17427126
181	0x3de958d4	0.11393896
182	0xbe3754b1	-0.17903401
183	0xbbf76ac0	-0.0075505674
184	0x3e26b2bc	0.16279119
185	0xbe3e18f4	-0.18564206
186	0xbebc6ed3	-0.36803302
187	0xbc69640d	-0.014245045
188	0xbe6e89e8	-0.23294795
189	0xbeb1cf37	-0.34728405
190	0x3b82bc84	0.003989758
191	0xbe025bce	-0.12730333
192	0xbcccabe6	-0.024984311
193	0xbacbb999	-0.0015542983
194	0xbd27c3af	-0.040958103
195	0xbe43e43d	-0.19130035
196	0x3d3a6897	0.0455099
197	0xbe29b754	-0.1657384
198	0xbc414e5f	-0.01179847
199	0xbcb82be6	-0.02248187
200	0xbe295189	-0.1653501
201	0xbd9b0907	-0.07570081
202	0x3dd077a6	0.10179071
203	0xbd942120	-0.072328806
204	0xbdda0066	-0.10644607
205	0x3df1c9d4	0.11806074
206	0xbd75e484	-0.060032383
207	0x3e04d74e	0.12972757
208	0x3d236104	0.039887443
209	0xbe1f2bd2	-0.1554406
210	0xbd54ade7	-0.05192366
211	0xbd9d5dcf	-0.07683908
212	0x3ded0856	0.115738556
213	0xbeae67ed	-0.34063664
214	0xbd82444e	-0.06360684
215	0xbcab12ca	-0.020882983
216	0xbe1298af	-0.14316057
217	0xbe844135	-0.25831
218	0xb963748a	-0.00021691821
219	0xbd197909	-0.037468944
220	0xbd04717e	-0.032334797
221	0x3e01c0e4	0.12671238
222	0xbc942cdd	-0.018087799
223	0x3d82f3e8	0.06394178
224	0x3e0f7c9a	0.14012375
225	0xbe0c20a8	-0.13684332
226	0x3e5d595e	0.21616122
227	0x3a632f71	0.0008666432
228	0x3e4b4f22	0.19854406
229	0x3dc1f7c4	0.09471086
230	0xbd285ba4	-0.04110302
231	0x3d350d40	0.04420209
232	0xbb220180	-0.0024720132
233	0x3e0ee49e	0.13954398
234	0xbca55404	-0.020181663
235	0x3e06b93c	0.13156599
236	0xba1945de	-0.0005846898
237	0xbe7a2bb9	-0.24430741
238	0x3bbbdeac	0.0057333317
239	0xbdb01d7f	-0.08599376
240	0xbb13740e	-0.0022499594
241	0xbe31bb29	-0.17356552
242	0x3ca4e0f7	0.020126803
243	0xbd59f981	-0.05321646
244	0xbdf3f8a3	-0.11912658
245	0xbcdf5c39	-0.027265655
246	0xbe060425	-0.13087519
247	0xbd741496	-0.059589945
248	0x3d4c3de0	0.049863696
249	0x3bee9fe2	0.007282243
250	0x3e129496	0.14314494
251	0xbe7e7583	-0.24849515
252	0x3dc32948	0.09529358
253	0xbdce99e2	-0.100879446
254	0xbd9e22c2	-0.07721473
255	0x3dcd6700	0.10029411

bias f4 [256]
0	0xbe2d84b1	-0.16945149
1	0xbdcd38a7	-0.10020571
2	0xbe8643aa	-0.262235
3	0xbeaaf045	-0.33386436
4	0xbe2404fa	-0.16017523
5	0xbec1d9f7	-0.37861606
6	0xbe91774d	-0.28411332
7	0xbe350706	-0.1767846
8	0xbe41599b	-0.18881838
9	0xbe8ecaa2	-0.27888972
10	0xbe6f2d57	-0.2335714
11	0xbd88d956	-0.066820785
12	0xbe9c6202	-0.30543524
13	0xbe48ee56	-0.19622168
14	0x3c1b70c6	0.0094873365
15	0xbe800435	-0.2500321
16	0xbe1a3fb5	-0.15063365
17	0xbe40162e	-0.18758461
18	0xbe20910a	-0.15680328
19	0xbea65ad8	-0.32491183
20	0xbec530e3	-0.3851386
21	0xbe817840	-0.25287056
22	0xbeb6d60e	-0.35710186
23	0xbd8a57ee	-0.067550525
24	0xbe43bc6a	-0.19114843
25	0xbe6d48e6	-0.2317234
26	0xbe3ffbcf	-0.18748401
27	0xbe20bd4e	-0.15697214
28	0xbe1a17b1	-0.150481
29	0xbe1e07bd	-0.1543264
30	0xbdc52633	-0.096264265
31	0x3c5439f1	0.012953267
32	0xbe52894d	-0.20560189
33	0xbe549a12	-0.20761898
34	0xbe2d15e4	-0.16902882
35	0xbe6c7c73	-0.23094349
36	0xbea8318d	-0.32850304
37	0xbe455676	-0.19271263
38	0xbd6e807c	-0.058228
39	0xbe0cf6cb	-0.13766019
40	0xbe0d2279	-0.13782682
41	0xbe20f2aa	-0.15717569
42	0xbcb44018	-0.022003219
43	0xbcf3740a	-0.029718418
44	0xbe86706a	-0.2625764
45	0xbe7f4346	-0.24928007
46	0xbe0dbce2	-0.13841584
47	0xbe719f23	-0.23595862
48	0xbe53cb79	-0.20683087
49	0xbef662ff	-0.48122403
50	0xbe7f73d6	-0.24946532
51	0xbdaf77d6	-0.08567779
52	0xbe10a6c3	-0.14126115
53	0xbe795436	-0.2434853
54	0xbe21dbf1	-0.15806557
55	0xbe54263d	-0.20717712
56	0xbdb968ca	-0.0905319
57	0xbecd5640	-0.40104866
58	0xbe4dc277	-0.20093714
59	0xbe37ca54	-0.17948276
60	0xbe62af30	-0.22137141
61	0xbd224a93	-0.0396219
62	0x3e79ab5f	0.24381779
63	0xbe854d8d	-0.2603573
64	0xbec78031	-0.3896499
65	0x3d1a2d10	0.03764063
66	0xbe402ae1	-0.18766357
67	0x3eed9efa	0.46410352
68	0xbddb28e3	-0.10701158
69	0xbf070af2	-0.52751076
70	0xbe6e3171	-0.23261048
71	0xbe8c8fa7	-0.27453348
72	0xbe49c559	-0.19704188
73	0xbe817605	-0.25285354
74	0xbdd36b1b	-0.10323163
75	0x3cd3a1c8	0.02583398
76	0xbe31a24f	-0.17347072
77	0xbdcdec63	-0.10054853
78	0xbe12ff6b	-0.14355247
79	0xbe8e4b86	-0.27791995
80	0xbf2def64	-0.67943406
81	0xbe4b2e82	-0.1984196
82	0xbe9a4eb7	-0.3013818
83	0xbe1265a7	-0.1429659
84	0xbe3c87ef	-0.1841123
85	0xbe0f2253	-0.13977937
86	0xbe9103a4	-0.2832309
87	0xbe9f2f01	-0.3109055
88	0xbef02435	-0.46902624
89	0xbeeae3f8	-0.4587705
90	0xbe96a342	-0.2942143
91	0xbe87618e	-0.26441616
92	0xbe256787	-0.16152774
93	0xbe8fec89	-0.2811015
94	0xbeb87169	-0.36024025
95	0xbdb0a1ea	-0.08624633
96	0xbecdaf52	-0.4017282
97	0xbe969cc9	-0.29416493
98	0xbe45018d	-0.19238873
99	0xbd2ddcaf	-0.04244679
100	0xbe92f057	-0.2869899
101	0xbe74be29	-0.23900665
102	0xbe6695ec	-0.22518128
103	0xbdc8d623	-0.09806468
104	0xbe410e6f	-0.18853162
105	0xbe630cc0	-0.22172832
106	0xbdc04c25	-0.093895234
107	0xbd08ea83	-0.033426773
108	0xbe30872f	-0.17239068
109	0xbe7768a0	-0.24161005
110	0xbef90236	-0.486345
111	0xbf26a563	-0.6509611
112	0xbf04e558	-0.5191245
113	0xbef43ddb	-0.47703442
114	0x3b08c83d	0.0020871304
115	0xbe8e148b	-0.27750048
116	0xbe6c3e82	-0.2307072
117	0xbd924c1b	-0.07143422
118	0xbdfd0c22	-0.1235583
119	0xbecba5c6	-0.39774913
120	0xbe9f1012	-0.31066948
121	0xbd1b7e73	-0.03796239
122	0xbd643958	-0.05571875
123	0xbd8cee50	-0.06881392
124	0xbe495561	-0.19661476
125	0xbe6db802	-0.23214725
126	0xbc9cdfdb	-0.019149711
127	0xbe18e099	-0.14929427
128	0xbd04ab06	-0.032389663
129	0xbd69b647	-0.0570586
130	0xbd7a3932	-0.061089702
131	0x3dd43935	0.10362474
132	0xbea08f5c	-0.31359375
133	0xbe9298af	-0.28632113
134	0xbd0eaad7	-0.034830894
135	0xbf0f2095	-0.5590909
136	0xbda05fc3	-0.07830765
137	0xbe59bf5b	-0.21264403
138	0xbef97c89	-0.48727825
139	0xbedf7260	-0.4364195
140	0xbe557f7a	-0.2084941
141	0x3e307f0a	0.17235962
142	0x3cf05c9f	0.02934104
143	0xbedac21d	-0.42726222
144	0xbdf14a4d	-0.1178175
145	0xbeee8e0e	-0.46592754
146	0xbe22c64b	-0.15895955
147	0xbe0666b1	-0.13125111
148	0xbe5efbd5	-0.21775754
149	0xbdd18506	-0.1023045
150	0xbe5f56e4	-0.2181049
151	0xbe2003a7	-0.15626393
152	0xbde93bcd	-0.11388359
153	0xbd23e1e9	-0.040010367
154	0xbe9e258e	-0.30888027
155	0xbdf6cc2d	-0.12050662
156	0xbe42b22a	-0.19013277
157	0x3cb726f9	0.02235745
158	0xbdbe9be9	-0.09307081
159	0xbe546e3b	-0.20745175
160	0x3f31cef2	0.694564
161	0xbe84f742	-0.25969893
162	0xbe4d6757	-0.20058952
163	0xbe6bbc99	-0.23021163
164	0xbe71beda	-0.2360796
165	0xbe3f832c	-0.18702382
166	0xbeca7e54	-0.39549506
167	0xbe99916d	-0.29993764
168	0xbe90a48c	-0.2825054
169	0xbea4ecda	-0.32211953
170	0xbea0482d	-0.31305066
171	0xbe6607df	-0.2246394
172	0xbd8adaf1	-0.06780041
173	0x3dcd7b1e	0.10033248
174	0xbe66299e	-0.22476813
175	0xbcffb7ea	-0.031215627
176	0xbe479451	-0.19490172
177	0xbdc531ce	-0.0962864
178	0xbeeb7c28	-0.4599316
179	0xbde0d165	-0.10977439
180	0xbec6db43	-0.38839158
181	0xbe4f7e09	-0.20262922
182	0xbda6afa0	-0.081389666
183	0xbea87762	-0.32903582
184	0xbdccf613	-0.100078724
185	0xbe2973ca	-0.16548076
186	0xbe9e4fed	-0.30920354
187	0xbec86782	-0.3914147
188	0xbdd96684	-0.106152564
189	0x3ebc6e97	0.36803123
190	0xbee39aa5	-0.44453922
191	0xbe7926bd	-0.24331184
192	0x3d40b728	0.04704967
193	0xbc9f3609	-0.019434946
194	0xbe437ae5	-0.1908985
195	0xbea31564	-0.31852257
196	0xbe91445f	-0.28372476
197	0x3e9d9aa1	0.30782035
198	0x3e730271	0.237314
199	0xbe3bee67	-0.18352662
200	0xbe357ecc	-0.1772415
201	0xbeac9b3c	-0.33712184
202	0xbebbc56c	-0.36674058
203	0xbe5b6a7f	-0.21427344
204	0xbe97a6a0	-0.29619312
205	0xbe886f99	-0.26647642
206	0xbec34c3c	-0.381441
207	0xbda21224	-0.07913616
208	0xbd870db4	-0.065944105
209	0xbe343053	-0.17596559
210	0xbdef306c	-0.116791576
211	0xbe85258c	-0.26005208
212	0xbeaa6db7	-0.3328683
213	0xbebb1728	-0.36541104
214	0xbea7cc9d	-0.32773295
215	0xbe980f91	-0.29699376
216	0xbd8351f9	-0.064121194
217	0xbf02d2ee	-0.51103103
218	0xbeb49936	-0.3527314
219	0xbe75d0af	-0.24005388
220	0xbe90b6c2	-0.28264433
221	0xbe695d24	-0.22789437
222	0xbe55421f	-0.20826004
223	0xbe47a37e	-0.19495961
224	0xbe2f827c	-0.1713962
225	0xbdfa6ad1	-0.12227405
226	0xbe91bba2	-0.28463465
227	0xbefdf3f0	-0.49600172
228	0xbe85a717	-0.26104042
229	0x3ee50acf	0.4473481
230	0xbdaa320e	-0.083103284
231	0xbe919b3f	-0.28438756
232	0xbdf53172	-0.119723216
233	0xbe729930	-0.23691249
234	0xbe66b3a2	-0.22529462
235	0xbba956d9	-0.0051678238
236	0xbed2835f	-0.41115853
237	0x3ec53413	0.38516292
238	0xbe6db624	-0.23214012
239	0xbed73d1f	-0.4203882
240	0xbdae7023	-0.08517482
241	0xbe2334e1	-0.1593814
242	0xbdcc9f8e	-0.0999137
243	0xbe9f2a92	-0.31087166
244	0xbe8f2764	-0.2795974
245	0xbebd4286	-0.36964816
246	0xbe848cc1	-0.25888637
247	0xbea1c840	-0.3159809
248	0xbead9fb5	-0.3391091
249	0xbd0119d6	-0.03151878
250	0x3bc3b0c5	0.0059720003
251	0xbef8253a	-0.48465902
252	0xbe993714	-0.29924834
253	0xbe41a0cb	-0.18908994
254	0xbe5c9e92	-0.21544865
255	0xbe5dc9dc	-0.21659034

weight f4 [256, 256]
0	0xbca8dd3b	-0.020613303
1	0x3cf28243	0.02960313
2	0xbd1cc953	-0.038277935
3	0xbd87bbbe	-0.06627606
4	0x3c7fa980	0.015604377
5	0x3d864319	0.065557666
6	0xbd43f004	-0.04783632
7	0xbba2eb72	-0.004971915
8	0xbd2ce327	-0.042208817
9	0x3c639c9e	0.013892321
10	0xbba02a3d	-0.0048878477
11	0xbd22afa9	-0.039718304
12	0xbc5e1566	-0.0135549065
13	0xbd5a31cb	-0.053270143
14	0xbc929e7b	-0.017897835
15	0x3cb999bd	0.022656316
16	0x3c977d5b	0.018492391
17	0xbda925d0	-0.08259165
18	0xbd9fab4d	-0.07796345
19	0x3d6e7182	0.05821372
20	0xbd3aee10	-0.04563719
21	0x3ca28204	0.019837387
22	0xbd26ade2	-0.04069317
23	0x3d82c591	0.06385339
24	0x3c93d9f0	0.018048257
25	0x3d1034fe	0.035206787
26	0xbd12c523	-0.035832535
27	0xbbfb15bb	-0.0076625026
28	0xbc9be889	-0.01903178
29	0x3d254942	0.040353067
30	0x3d5b631f	0.053561326
31	0xbd2f4538	-0.04279062
32	0x3d2aba49	0.04168156
33	0xbca7aa96	-0.020467084
34	0xbc2b45b3	-0.010453629
35	0xbd2b4336	-0.041812144
36	0xb8a21716	-7.729062e-05
37	0xbc456137	-0.012047104
38	0xbcdf6256	-0.02726857
39	0xbc225e9f	-0.009910255
40	0xbd84627c	-0.06464097
41	0xbda2aa25	-0.07942609
42	0xbd784323	-0.0606109
43	0x3d23c4a2	0.039982446
44	0x3d2f9ff3	0.04287715
45	0x3b78d55d	0.0037968971
46	0x3c873ff0	0.01650998
47	0xbd659226	-0.05604758
48	0xbc91d95d	-0.017803842
49	0x3d47b02c	0.048751995
50	0x3ad2aa2f	0.0016072447
51	0xbd839889	-0.06425578
52	0xbd552ba0	-0.052043557
53	0x3d74d646	0.05977466
54	0xbd301b70	-0.042994916
55	0xbd24b23f	-0.04020905
56	0xbd4afcdc	-0.04955755
57	0xbca7eb34	-0.020497896
58	0xbd3bfe3a	-0.045896746
59	0xbd71a715	-0.058997232
60	0x3cc7daa1	0.024396243
61	0xbccf04dc	-0.025270872
62	0xbdf11bd6	-0.117728874
63	0x3ccce9b8	0.02501379
64	0xbcea8ca3	-0.028631514
65	0xbcf1777c	-0.02947592
66	0x3db74713	0.08949103
67	0x3c3eac2b	0.011637728
68	0xbcb6fc3e	-0.022337075
69	0xbd2bfd65	-0.041989703
70	0xbd0baffb	-0.034103375
71	0x3d4af168	0.04954663
72	0xbded0781	-0.11573697
73	0xbe56c4ec	-0.20973557
74	0x3ce9363d	0.028468246
75	0xbda27f4e	-0.07934438
76	0xbd603dcc	-0.054746434
77	0xbd6c2e11	-0.05766112
78	0xbd192580	-0.03738928
79	0x3c7ecdf7	0.0155520355
80	0x3b07043b	0.0020601887
81	0xbdaee9a0	-0.08540654
82	0xbdc312f5	-0.095251
83	0x3d4bc93b	0.049752455
84	0xbd3220af	-0.0434882
85	0xbca9f034	-0.02074442
86	0xbdbbebbe	-0.09175824
87	0xbe03aeee	-0.12859699
88	0xbd428292	-0.047487803
89	0x3d5e000f	0.054199275
90	0xbdf5993f	-0.1199212
91	0xbc1e0082	-0.009643676
92	0xbcdf0d2e	-0.027227964
93	0xbc9739dd	-0.018460209
94	0xbc312453	-0.010811883
95	0x3cc0953b	0.023508659
96	0x3d4549c7	0.048166063
97	0xbcca6b4d	-0.024709368
98	0x3d152fad	0.03642242
99	0xbc8b5cc5	-0.01701201
100	0x3d1f35fb	0.03886984
101	0xbe0ca611	-0.13735224
102	0xbd096a18	-0.033548445
103	0xbcc73abc	-0.024319999
104	0xbca07722	-0.019588057
105	0xbba43447	-0.0050111148
106	0xbde7fab4	-0.11327115
107	0x3d2af9bb	0.041742068
108	0xbd00a210	-0.031404555
109	0x3ca5e195	0.020249167
110	0xbb1301a4	-0.0022431398
111	0xbce40816	-0.027835887
112	0xbd38c82b	-0.04511277
113	0xbd3818af	-0.044945415
114	0x3d7501c4	0.059816137
115	0xbdb5b31a	-0.088720515
116	0xbd5a0e47	-0.053236272
117	0x3c2ec5e8	0.010667302
118	0xbd067724	-0.032828465
119	0xbde7f243	-0.11325505
120	0x3c9bae0b	0.019003889
121	0xbd135cd3	-0.035977196
122	0xbc201fea	-0.009773234
123	0xbdb7b630	-0.089702964
124	0xbd4740f6	-0.048645936
125	0xbcaf85fa	-0.02142619
126	0xbd004142	-0.031312235
127	0xbdb6cbad	-0.08925567
128	0x3dc2def0	0.09515178
129	0x3cb51d91	0.022108825
130	0x3c3e01ec	0.011597138
131	0x3c905d40	0.01762259
132	0xbd72cbff	-0.059276577
133	0x3cdc2fe2	0.026878301
134	0xbd39447a	-0.04523132
135	0xbd7c9de4	-0.061674014
136	0xbc87656d	-0.016527856
137	0xbd0bd020	-0.03413403
138	0x3ac90cf3	0.0015338942
139	0xbda168ce	-0.07881318
140	0x3af55211	0.0018716474
141	0xbd001389	-0.03126863
142	0x3d08b0be	0.03337168
143	0x3c50931f	0.012730389
144	0xbcfb2fc9	-0.030662434
145	0xbde2e31e	-0.110784754
146	0xbccc5ee3	-0.02494759
147	0x3d8219ee	0.06352602
148	0x3b35091c	0.0027623838
149	0x3d5e7667	0.054312136
150	0x3d3fc8bb	0.04682229
151	0xbc72a6d6	-0.014810285
152	0xbdf3e78a	-0.11909397
153	0xbd11b3c7	-0.03557184
154	0xbd90f1a8	-0.07077342
155	0xbd72c98f	-0.059274253
156	0x3cfd78a8	0.030941322
157	0xbda7f42c	-0.08200869
158	0xbc203e81	-0.009780527
159	0xbcdf096f	-0.027226178
160	0xbd9abd68	-0.075556576
161	0x3b9b08ba	0.004731265
162	0x3d023881	0.031792168
163	0xbc8e6ddf	-0.017386375
164	0xbd108b3e	-0.03528904
165	0xbbea0aef	-0.0071424167
166	0xbb712970	-0.003679838
167	0x3bbbecdd	0.0057350234
168	0xbcb031c2	-0.021508101
169	0xbcb636b2	-0.022242878
170	0xbd92bc7e	-0.07164858
171	0x3d408f03	0.047011387
172	0xbd2cddbb	-0.042203646
173	0xbdba6612	-0.091014996
174	0xbbc25bea	-0.005931367
175	0x3b3627ff	0.0027794836
176	0xbd29ed47	-0.04148605
177	0xbd6c5245	-0.057695646
178	0xbd5ecbb0	-0.05439347
179	0xbc6dcd75	-0.014514317
180	0x3d80b4fa	0.062845185
181	0xbc812f18	-0.015769526
182	0xbc17cb5f	-0.009264796
183	0xbd5a9aaf	-0.053370174
184	0x3ce7c2a8	0.028291062
185	0x3dcc8ed3	0.09988179
186	0xbcdd725c	-0.02703207
187	0xbdf2eef7	-0.11861985
188	0x3da08c19	0.078392215
189	0xbd1a217e	-0.037629597
190	0xbd0f9de7	-0.035062697
191	0x3984b2cd	0.0002531022
192	0x3c4227da	0.011850322
193	0xbd8abe83	-0.067746185
194	0x3c97ea3a	0.018544305
195	0xbc630bc3	-0.013857785
196	0xbd78c58c	-0.06073527
197	0xbbe893ff	-0.0070977206
198	0xbd9a96cb	-0.07548293
199	0x3be47be0	0.006972775
200	0xbd93615b	-0.071963035
201	0xbdbc86b9	-0.09205384
202	0xbc89ea0c	-0.016835235
203	0xbd86b732	-0.065779105
204	0xbd0dc91c	-0.03461562
205	0xbd153ac0	-0.03643298
206	0xbd189625	-0.037252564
207	0xbc607a7c	-0.013701078
208	0xbdd184ff	-0.10230445
209	0x3cc1cdb3	0.023657655
210	0xba788e8c	-0.00094816904
211	0x3c47a733	0.0121858595
212	0x3d643a80	0.055719852
213	0xbdb59e2c	-0.088680595
214	0xbd7fd0b1	-0.062454883
215	0x3da6479e	0.08119129
216	0x3d2490c9	0.04017714
217	0x3da669f2	0.08125676
218	0xbdd7fbaa	-0.10546048
219	0xbcf59ab8	-0.029981002
220	0x3d636cee	0.055523805
221	0x3d2679f9	0.040643666
222	0x3cb0501e	0.021522578
223	0x38f7bce7	0.000118130636
224	0xbd30ad92	-0.04313428
225	0x3c8f0811	0.017459901
226	0xbab625d6	-0.0013896774
227	0x3d945d58	0.072443664
228	0xbd403315	-0.046923716
229	0xbd3897c0	-0.045066595
230	0x3c3188fb	0.010835881
231	0xbe0fe34a	-0.14051548
232	0x3d0d41ef	0.034486707
233	0xbdc4424f	-0.0958296
234	0x3d0289b6	0.031869613
235	0x3da731c5	0.0816379
236	0xbcf8be05	-0.030364046
237	0xbe393dcf	-0.18089984
238	0x3de3af57	0.11117428
239	0xbb1acd0b	-0.002362075
240	0x3d0e7a50	0.034784615
241	0x3c92fe51	0.017943533
242	0x3c6ee92a	0.014581958
243	0xbd505d45	-0.0508702
244	0x3ca9484e	0.02066436
245	0x3db7206f	0.08941733
246	0xbd731f0d	-0.059355784
247	0xbd6957ca	-0.056968488
248	0xbd7eccae	-0.062206917
249	0xbe16c0c8	-0.14721978
250	0xbd885dcd	-0.06658516
251	0xbd35146e	-0.044208936
252	0xbce194c4	-0.027536757
253	0xbdf5f848	-0.120102465
254	0x3bf94173	0.007606679
255	0xbd9da575	-0.07697574

bias f4 [256]
0	0xbde2ee9f	-0.110806696
1	0xbd912ee3	-0.07089021
2	0xbcfabe17	-0.03060822
3	0xbe731534	-0.23738557
4	0xbdbeb628	-0.09312087
5	0xbed008fa	-0.4063185
6	0xbe391984	-0.1807614
7	0xbe656726	-0.2240263
8	0xbde83794	-0.11338726
9	0xbd0cec07	-0.03440478
10	0xbd87f05e	-0.06637643
11	0xbd78e8fe	-0.060769074
12	0xbd1c502a	-0.038162388
13	0xbd3160dd	-0.043305267
14	0xbe0421f5	-0.12903579
15	0xbe027798	-0.12740934
16	0xbd870acf	-0.065938585
17	0xbdfb7393	-0.122779034
18	0xbe172a59	-0.14762248
19	0xbda02f94	-0.07821575
20	0xbd9e603e	-0.077332005
21	0xbd5d611b	-0.054047685
22	0xbe100895	-0.14065774
23	0xbd32392b	-0.04351155
24	0xbda486b5	-0.08033506
25	0xbdb26bc3	-0.0871196
26	0xbe0172b3	-0.1264141
27	0xbd8bcbf4	-0.0682601
28	0xbdc5aedc	-0.096524924
29	0x3cce25c9	0.025164502
30	0xbdb5c357	-0.08875149
31	0xbe43cc61	-0.19120933
32	0xbe911514	-0.28336394
33	0xbe3ff72e	-0.18746635
34	0xbc2b2bb2	-0.0104474295
35	0xbe8292d0	-0.25502634
36	0xbdd49e53	-0.103817604
37	0xbdddd4db	-0.108316146
38	0xbe8f4214	-0.279801
39	0xbe037712	-0.1283839
40	0xbd963e8d	-0.07336149
41	0xbdcb78d3	-0.09935155
42	0xbdb26218	-0.08710116
43	0xbdc8ae35	-0.09798852
44	0x3eaf38f6	0.34223145
45	0xbe939fa8	-0.28832746
46	0xbdd263cf	-0.10272943
47	0xbe097a03	-0.1342545
48	0xbd5cf257	-0.05394205
49	0xbe5e7b47	-0.21726714
50	0xbda68814	-0.081314236
51	0xbe4ca55e	-0.19984958
52	0xbdd120f3	-0.10211363
53	0x3f29a20a	0.66262877
54	0xbe0c2993	-0.13687734
55	0xbd93fe70	-0.072262645
56	0xbcf652bb	-0.030068746
57	0xbd25fb82	-0.04052306
58	0xbe31b874	-0.1735552
59	0xbdb35b2d	-0.08757625
60	0xbdb577f1	-0.08860768
61	0xbe25aaf9	-0.16178502
62	0xbd8afa37	-0.06786006
63	0xbe608c80	-0.21928596
64	0xbd9b4522	-0.075815454
65	0xbd3c311c	-0.04594527
66	0xbec38b3f	-0.38192174
67	0xbeddc6e8	-0.43315816
68	0xbd4d14ff	-0.05006885
69	0xbe3925ea	-0.1808087
70	0xbda162e5	-0.07880191
71	0xbde6aeae	-0.11263786
72	0xbdc6cc46	-0.09706931
73	0xbdafe792	-0.085890904
74	0xbd399300	-0.045306206
75	0xbf01473c	-0.5049932
76	0xbf091d0c	-0.53559947
77	0xbeb61805	-0.355652
78	0xbd9e3ae0	-0.07726073
79	0xbe2d3219	-0.16913642
80	0xbdb4928f	-0.08817016
81	0xbd99d792	-0.0751182
82	0xbc8b873e	-0.017032262
83	0xbd9b03e6	-0.07569103
84	0xbd8410c1	-0.06448508
85	0xbd94d7b1	-0.07267702
86	0xbd5f2e70	-0.054487646
87	0xbe96fba7	-0.2948887
88	0xbe756584	-0.23964506
89	0xbd83e139	-0.06439442
90	0xbeb16a9a	-0.34651643
91	0xbebff30c	-0.37490118
92	0xbd1bf799	-0.038077924
93	0xbd5122f6	-0.051058732
94	0xbe5f57df	-0.21810864
95	0xbdb6283e	-0.08894394
96	0xbec103c5	-0.37698188
97	0xbd8edd39	-0.069757886
98	0xbdfaab1a	-0.12239666
99	0xbdbee94b	-0.09321841
100	0xbda22ba8	-0.07918483
101	0xbdd6c953	-0.10487618
102	0xbdb5c424	-0.088753015
103	0xbe6eb304	-0.23310477
104	0xbde10f04	-0.10989192
105	0x3e0b16bc	0.13582891
106	0xbe6c2a6f	-0.23063062
107	0xbec2757a	-0.37980253
108	0xbe0ea87b	-0.13931458
109	0xbe5a4a6a	-0.21317449
110	0xbdd1a0cc	-0.10235748
111	0xbd83e36a	-0.0643986
112	0xbf09d22f	-0.5383634
113	0xbe03f1da	-0.12885228
114	0xbd7ef0d7	-0.0622414
115	0xbdc57bb2	-0.09642734
116	0xbea85ba7	-0.32882425
117	0xbe0abf2c	-0.13549489
118	0xbdb00206	-0.08594136
119	0xbe649efb	-0.22326271
120	0xbe19ead0	-0.1503098
121	0xbda9802d	-0.08276401
122	0xbc7ad06c	-0.015308481
123	0xbe91c948	-0.28473878
124	0x3e80ba00	0.25141907
125	0xbea0f000	-0.31433105
126	0xbd8b9bb4	-0.068168074
127	0xbe5dfb9e	-0.21678016
128	0xbd7a6386	-0.06113007
129	0xbe08c5cd	-0.13356705
130	0xbe4ded60	-0.20110083
131	0xbe046843	-0.12930398
132	0xbedb7b1c	-0.42867362
133	0xbdd40b5a	-0.10353728
134	0xbe324860	-0.17410421
135	0xbec5380e	-0.3851933
136	0xbd974576	-0.073862955
137	0xbdb898ec	-0.090135425
138	0xbeb5da97	-0.35518333
139	0xbe003f3f	-0.12524126
140	0xbdc1a816	-0.09455888
141	0xbdf83e7f	-0.12121295
142	0xbd8d3dea	-0.06896575
143	0xbe94cf7d	-0.2906455
144	0xbdacebfa	-0.084434465
145	0xbd930702	-0.07179071
146	0xbdb34b85	-0.087546386
147	0xbdd94c9d	-0.10610316
148	0xbe2b30bb	-0.16717808
149	0x3bb564f2	0.0055357153
150	0xbd26fc63	-0.04076804
151	0xbdc40926	-0.095720574
152	0xbe386975	-0.18008979
153	0xbe0c4553	-0.1369832
154	0xbe04251f	-0.12904786
155	0xbdbf345a	-0.09336157
156	0xbd3fee57	-0.046858158
157	0xbd9a1b56	-0.07524745
158	0xbe92f9a3	-0.28706083
159	0xbdba24d9	-0.090890594
160	0xbd042741	-0.032263998
161	0xbda46233	-0.080265425
162	0xbd08ba6e	-0.03338092
163	0xbe0421c2	-0.12903503
164	0xbdbc9668	-0.09208375
165	0xbee7e418	-0.4529121
166	0xbd8c7741	-0.068586834
167	0x3daf9511	0.08573354
168	0xbe439491	-0.19099642
169	0xbdd397af	-0.10331666
170	0xbd905369	-0.07047159
171	0xbe0f7bf1	-0.14012124
172	0xbd8af0ae	-0.06784187
173	0xbe55ea9b	-0.20890276
174	0xbd78dbaf	-0.06075638
175	0xbe03e500	-0.12880325
176	0xbe7c4387	-0.24635135
177	0xbd8d21d9	-0.068912216
178	0xbd98c573	-0.074595354
179	0xbdd026ab	-0.10163625
180	0xbdb01ff6	-0.08599846
181	0xbd164fdd	-0.036697257
182	0xbddbea4e	-0.107380494
183	0x3f0592e1	0.52177244
184	0xbdcb6974	-0.09932223
185	0xbdb23b57	-0.087027244
186	0xbe080459	-0.13282908
187	0xbe782cba	-0.24235812
188	0xbdbd9d3d	-0.092585064
189	0xbe6d13ad	-0.23152037
190	0xbe31dd27	-0.17369519
191	0xbe23ad69	-0.1598412
192	0xbddb22ee	-0.10700022
193	0xbe1e5350	-0.15461469
194	0xbdd9b43e	-0.106300816
195	0xbe08ef0e	-0.13372442
196	0xbd8ec59e	-0.06971286
197	0xbd83d696	-0.064374134
198	0xbdd5cd9f	-0.1043961
199	0xbdcd3602	-0.10020067
200	0xbdbbe30e	-0.091741666
201	0xbedba918	-0.42902446
202	0xbe2d5c54	-0.16929752
203	0xbd45681f	-0.048195
204	0xbed2cf57	-0.41173813
205	0xbe926ac6	-0.28597087
206	0xbd90cefe	-0.070707306
207	0xbe1c437a	-0.15260115
208	0xbe247aab	-0.16062419
209	0xbd7ad70e	-0.06124025
210	0xbdb78b5b	-0.08962127
211	0xbde5ca90	-0.11220276
212	0xbe8f299b	-0.2796143
213	0xbdf7dfd6	-0.1210324
214	0xbd44913c	-0.04799007
215	0xbd197df6	-0.03747364
216	0xbd325ec6	-0.043547414
217	0xbe9bef40	-0.3045597
218	0xbe6a306e	-0.22870037
219	0xbddd3cb6	-0.10802595
220	0xbe0d1412	-0.13777187
221	0xbdb57751	-0.088606484
222	0xbdf27185	-0.118380584
223	0xbe373153	-0.1788991
224	0xbd979be9	-0.074027844
225	0x3f27fc0e	0.6561898
226	0xbd9fca40	-0.07802248
227	0xbddb6ae1	-0.10713745
228	0xbddb96a0	-0.10722089
229	0xbe861608	-0.26188684
230	0xbd7a0a32	-0.06104488
231	0xbd0760a8	-0.033051163
232	0xbdf3775b	-0.118879996
233	0xbdec88e0	-0.11549544
234	0xbd82262b	-0.06354936
235	0xbd9acc1c	-0.07558462
236	0xbdaf3a2f	-0.085560195
237	0xbd91dee7	-0.071225934
238	0xbd796445	-0.06088664
239	0xbe76a9ae	-0.24088165
240	0xbe353bb1	-0.17698552
241	0xbdc7fb39	-0.09764714
242	0xbe2cfde0	-0.1689372
243	0xbe89d727	-0.2692196
244	0xbd7046b1	-0.058661167
245	0xbe867a6e	-0.2626528
246	0xbc8ea36b	-0.017411908
247	0x3f8ef7d8	1.1169386
248	0xbe93de7e	-0.28880686
249	0xbd977079	-0.07394499
250	0xbde969b3	-0.11397114
251	0xbd6ad21a	-0.057329275
252	0xbe6ccfd0	-0.23126149
253	0xbd99f78e	-0.075179204
254	0xbdcd4437	-0.100227766
255	0xbd3f8904	-0.046761528

weight f4 [4, 256]
0	0x3deeb782	0.11656095
1	0xbb86aba1	-0.004109815
2	0x3da4e139	0.0805077
3	0x3ddccc95	0.107812084
4	0x3d1102ea	0.03540317
5	0xc006c445	-2.1057293
6	0xbe1e1bf8	-0.15440357
7	0xbd66a61a	-0.05631075
8	0x3dda7023	0.1066592
9	0x3d9dc820	0.077041864
10	0x3c90bd6e	0.017668452
11	0x3c7a8b0e	0.015291942
12	0xbd5660d3	-0.052338433
13	0xbcf485e9	-0.02984901
14	0xb9bb65d7	-0.00035743296
15	0x3d049106	0.032364868
16	0x3aeaaafc	0.001790374
17	0x3e8515ea	0.25993282
18	0xbd8d6c49	-0.069054194
19	0xbd832cc0	-0.0640502
20	0x3caa1f25	0.020766804
21	0xbabd624e	-0.0014448853
22	0x3e23abeb	0.1598355
23	0x3d48afe9	0.048995886
24	0xbcca2bf1	-0.024679156
25	0x3e050257	0.12989174
26	0x3c5244c9	0.0128337825
27	0xbd17164f	-0.03688651
28	0x3c22b796	0.009931466
29	0x3cbdad5d	0.023153955
30	0x3d2db238	0.04240629
31	0xbd7729b5	-0.06034251
32	0xbea39e1a	-0.3195656
33	0xbce1822b	-0.02752789
34	0x3dc65018	0.096832454
35	0xbc8c13ee	-0.017099347
36	0xbc6e1c96	-0.014533183
37	0x3d19d8e3	0.037560355
38	0x3e8f95d0	0.28043985
39	0xbeb75a9e	-0.35811323
40	0xbcbd87f3	-0.023136115
41	0xbc9767ff	-0.018482206
42	0x3cb217ef	0.021739928
43	0xbcc8ebe0	-0.024526536
44	0x3dc54f2b	0.09634241
45	0xbd0f5e41	-0.035001997
46	0x3e0c7fd5	0.13720639
47	0x3d90ca51	0.07069839
48	0x3c6a08f2	0.014284359
49	0x3bfd7277	0.0077345925
50	0x3d0c13ff	0.034198757
51	0x3dac02fe	0.08399008
52	0x3c13c590	0.009019271
53	0x3cd6a913	0.026203668
54	0x3c943902	0.01809359
55	0xbd59696f	-0.053079065
56	0xbd13e3a6	-0.036105774
57	0x3d3ab43f	0.045582052
58	0x3cd3ed04	0.025869854
59	0xc0069aa5	-2.1031888
60	0xbd70b6ae	-0.058767967
61	0x3cce4e34	0.025183775
62	0x3c899489	0.01679446
63	0x3e513d3a	0.20433512
64	0x3d134109	0.035950694
65	0xbb660bad	-0.0035102174
66	0x3f38551f	0.72004884
67	0x3e4d6da7	0.2006136
68	0xbcd1db0f	-0.02561715
69	0xbd579e68	-0.052641302
70	0x3c825bdc	0.015912943
71	0xbd120e30	-0.03565806
72	0xbc3999d5	-0.01132818
73	0xbccc6d1e	-0.024954375
74	0x3d0447eb	0.03229515
75	0xbf9729fb	-1.1809686
76	0x3eb2a0fb	0.34888443
77	0x3d8f2f86	0.06991486
78	0xbb96722c	-0.004591247
79	0xb9af7994	-0.00033469184
80	0x3d0c31b7	0.0342271
81	0x3ca419ef	0.020031897
82	0x3ebb57f5	0.36590543
83	0xbc800c19	-0.015630769
84	0xbc5f6d03	-0.01363683
85	0x3c7551f6	0.014973154
86	0x3cf9b5ea	0.030482251
87	0xbc512678	-0.012765519
88	0x3ea83645	0.32853904
89	0x3cb9ffa1	0.022704901
90	0x3cb5709c	0.022148423
91	0x3e785709	0.24251951
92	0xbc7e9031	-0.015537308
93	0x3c3425c5	0.010995333
94	0x3e2bee1e	0.16790053
95	0xbbd923cf	-0.006626583
96	0xbde63d58	-0.11242169
97	0xbc9807a5	-0.018558333
98	0xbd4d7ad7	-0.050165977
99	0xbc72f36e	-0.014828546
100	0x3d9ee796	0.07759015
101	0x3cf896a5	0.03034527
102	0x3ccc9ca8	0.024977043
103	0x3d61fee9	0.055174742
104	0xbc4a9d34	-0.012366582
105	0xbba46523	-0.0050169392
106	0x3e272729	0.16323532
107	0xbe916ce6	-0.28403395
108	0xbbe8ec6b	-0.0071082613
109	0x3d6562fa	0.056002595
110	0x3a93ec04	0.0011285548
111	0xbbefcf86	-0.00731844
112	0xbf71f62a	-0.9451624
113	0xbdf20870	-0.118180156
114	0x3cf26b02	0.02959204
115	0xbc23f86b	-0.010007958
116	0xbf29ac67	-0.6627869
117	0xbc862182	-0.0163734
118	0x3d487c06	0.048946403
119	0xbc89a39b	-0.016801646
120	0x3d2fd31a	0.04292593
121	0xbd046c73	-0.032329988
122	0x3d524435	0.05133458
123	0xbf209616	-0.6272901
124	0xbe1adf8e	-0.15124342
125	0x3e1d88b6	0.15384182
126	0x3d34c462	0.044132598
127	0x3ce43b88	0.027860418
128	0x3d6450ea	0.05574123
129	0x3d3d3ce6	0.046200655
130	0x3d96622a	0.07342942
131	0x3d823309	0.063573904
132	0xbec6cd2b	-0.38828406
133	0x3c6b7943	0.014372173
134	0x3da3fd18	0.08007258
135	0xbeea89ef	-0.4580836
136	0x3d3d54a4	0.046223298
137	0x3d89f5fe	0.067363724
138	0x3e3e5df4	0.18590528
139	0x3cbc650e	0.022997405
140	0x3c9dd8fe	0.019268509
141	0xbe5d9c49	-0.2164165
142	0xbb4d4ac3	-0.003132508
143	0xbc7a9f33	-0.015296745
144	0x3cc41a80	0.023938417
145	0x3e697155	0.22797139
146	0xbbeefb05	-0.0072931075
147	0xbbb258f2	-0.005442732
148	0x3dc05ed5	0.09393088
149	0x3c483580	0.012219787
150	0xbccd3ab7	-0.025052411
151	0x3d82b908	0.06382948
152	0x3dd0d006	0.10195927
153	0x3da90134	0.082521826
154	0x3c5c5288	0.013447411
155	0x3e0beedb	0.13665335
156	0x3d096fb9	0.033553813
157	0xbbfc90b2	-0.0077076787
158	0xbcc57b5d	-0.024106676
159	0xbc55970c	-0.013036501
160	0xbb19bce7	-0.0023458542
161	0xba9a9551	-0.0011793767
162	0x3db0ea71	0.08638466
163	0xbc34c90e	-0.011034263
164	0x3d38692c	0.045022175
165	0xbf08f5e9	-0.5350023
166	0xbc956be7	-0.018239928
167	0x3c87c8f7	0.01657532
168	0x3cc2eacc	0.0237936
169	0x3d1beade	0.038065784
170	0xbcd162e8	-0.025559857
171	0x3d9a93da	0.07547732
172	0xbcc08e4b	-0.02350535
173	0x3deefee7	0.116697125
174	0x3cf0cfbd	0.029395932
175	0x3e341dc7	0.17589484
176	0xbcbd1f47	-0.023086203
177	0xbce2f6df	-0.027705608
178	0xbcc39f72	-0.02387974
179	0xbc6cbc88	-0.014449246
180	0xbbbd55cf	-0.0057780514
181	0x3d0f778f	0.03502613
182	0xbc49edb3	-0.012324738
183	0x3ecf8faa	0.40539294
184	0x3d244594	0.040105417
185	0xbc4ef6d1	-0.012632088
186	0x3d3e72a4	0.04649605
187	0x3df0b75b	0.11753722
188	0x3c111195	0.00885429
189	0x3e2211ce	0.15827104
190	0x3c04e0c4	0.008110229
191	0xbd1fc25b	-0.03900371
192	0xbd3773ca	-0.04478816
193	0x3d2d55af	0.042318042
194	0xbd079a2c	-0.033106014
195	0x3e119675	0.14217551
196	0x3d34cc40	0.0441401
197	0xbc80a4c0	-0.015703559
198	0x3d282d21	0.041058663
199	0xbcef1640	-0.029185414
200	0x3d8ec0bf	0.06970357
201	0x3dd5cd22	0.104395166
202	0x3e04b068	0.12957919
203	0xbbbbc6c8	-0.0057304837
204	0x3d363574	0.04448457
205	0xbf6e5dac	-0.9311168
206	0x3b7d39e2	0.0038639237
207	0x3d5fba11	0.054620806
208	0x3dd24402	0.10266878
209	0x3d978d9b	0.07400056
210	0xbb1db12b	-0.00240619
211	0x3cf811cb	0.030281922
212	0x3d4bd44b	0.049763005
213	0x3d417102	0.047226913
214	0x3c9c494c	0.01907792
215	0x3eacac63	0.3372527
216	0xbd50d1b0	-0.050981224
217	0xbf86648c	-1.0499434
218	0x3d5ba804	0.05362703
219	0xbb7df192	-0.0038748723
220	0xbd96d75c	-0.07365295
221	0x3dc31375	0.095251955
222	0x3a620406	0.00086218154
223	0xbd1363c2	-0.03598381
224	0x3bf3ef66	0.00744431
225	0x3d9d3495	0.07676045
226	0x3db30b0a	0.0874234
227	0xba3baaed	-0.0007158954
228	0xbcf38677	-0.029727204
229	0x3dfee84e	0.12446652
230	0x3c7e4c94	0.015521187
231	0x3a4f9983	0.00079192984
232	0xbdedf347	-0.11618667
233	0xbd410068	-0.047119528
234	0x3c3da89c	0.011575844
235	0x3d37fd6a	0.04491941
236	0xbc35ef5a	-0.011104429
237	0x3c8eda6f	0.017438142
238	0xbd1c61b2	-0.038179107
239	0xbd829c42	-0.0637746
240	0x3e4ff6c5	0.20308979
241	0x3d34ca78	0.0441384
242	0x3dfd5670	0.12370002
243	0xbfe05da6	-1.7528579
244	0x3d9b265e	0.07575677
245	0x3db8513c	0.08999869
246	0x3b54579b	0.003240085
247	0xbeb0391b	-0.34418568
248	0x3dbad04c	0.09121761
249	0xbb8a3018	-0.004217159
250	0x3c9cedd4	0.019156374
251	0x3b843364	0.0040344466
252	0x3ca30506	0.019899856
253	0x3c070908	0.008241899
254	0xba32e6c3	-0.00068245473
255	0xbcb8c5dd	-0.022555286

bias f4 [4]
0	0xbe339b8e	-0.17539808
1	0xbe4c3672	-0.19942644
2	0x3e038062	0.12841943
3	0xbe68f772	-0.22750643
