RLSnake/model/friendship.pth (torch, 294566 bytes, 6 tensors)

weight f4 [256, 22]
00000000: 6683 8bbd e428 babd 2b9d ffbd f29f 4bbe
00000010: 2cc8 b03d 7015 363e 6e0d f1bd 377a 9d3c
00000020: edc2 6dbd 8f40 d43d b64c 103d dcfe 053e
00000030: a8a4 e2bd c1d0 3ebe 16be 0cbe fc66 003e
00000040: 3943 2bbe 508d 1cbe f655 17be b3b8 f7bc
00000050: e37f 8d3d 075a 38bd aaac 84be 1de6 07be
00000060: 2649 4bbe 1f6c 50be 1898 373d 1c16 9a3d
00000070: c78b 11bc 631d b1bd c127 3abe 12e6 5fbd
00000080: dd0e c53d 7e76 96bd d4e6 ed3d 6fe7 c5bd
00000090: 3218 22be 38f4 c9bc 9dd9 d2bd c6b9 0fbe
000000a0: 12d4 db3d d6ae 2bbe c6a2 a13b c073 93bc
000000b0: 6a08 adbd 97a4 25be 69d0 953c e870 99bd
000000c0: f854 523e f4c3 20bd 7c77 ffbd bd4f b9bd
000000d0: 7c3a bebc b80f f0be 1857 4a3e 0042 b03d
000000e0: 6091 a4bc 441a 563e 2066 153e 0a89 b0bd
000000f0: df07 09bd e3fd ec3d 7acd e0bd 97eb 653d
00000100: 6170 a93d 1a0f f6bd 2be8 8ebd c762 32be
00000110: f467 edbd 0be0 03be 2650 3b3e d02b 0c3d
00000120: bb03 d3bc a88f 50bd b38d d6bd f02c ddbc
00000130: 5f1b c3bd c649 c2bd 8236 453e c8d8 0ebd
00000140: 43aa dcbd 6052 d83c 1e39 c93d b424 38be
00000150: fa94 f2bd 9728 1cbe abab 883d fe02 4f3d
00000160: 1632 a2bd a946 1abe d676 4ebe 3a32 60be
00000170: f189 f3bd 8079 05be 2feb f4bd 07c0 ed3d
00000180: 4c9a ad3c 3648 b03c 9831 26be 6170 b0bc
00000190: 504d 89bd 542f 043e df6d b8bd c0a5 893d
000001a0: 386c fb3d d044 093e 6e81 3d3e 88b6 02be
000001b0: 8095 72bd e04a 873b be98 eebd 5f64 39be
000001c0: 99a7 2cbf 2fc9 c4be e9ad d9bd 6cd9 903d
000001d0: e926 00be 027d b7ba 6efc 753e 1cd4 63be
000001e0: dcf1 e9be d6d6 f33e 7e40 1cbe 7a6f 1a3e
000001f0: 41d3 bcbd 55fb 02be 1ce8 7d3d 4447 af3e
00000200: 9469 fdbd 2827 31be 9600 9d3e 28cc 64be
00000210: f170 93bd 5c14 79bd 8e5b 99bd 7b69 f8bd
00000220: 5011 793c 0832 a5bd 566a afbd eda0 13bc
00000230: 168d a0bd 344a 21bd 4c09 0c3e ec9f 03bd
00000240: 76c0 573e 8050 a03d 1090 c7bd a808 a6bd
00000250: 0287 f03d 6419 533e fa96 a93d f48a 7ebd
00000260: ce8b f33d fac2 fcbd aa9b 953d d942 c6bc
00000270: 0274 fbbb dfb0 41be 806d 32be b4e3 4a3e
00000280: cc19 f73d c866 603d 7169 af3d 667d 44be
00000290: 62e6 fa3d b0c9 e1bd 4afc 513e bc65 ba3d
000002a0: ba71 efbd 0a17 26be 0063 043e 0768 34be
000002b0: 8372 55be 724d a63d 95ab b03d d1a1 11be
000002c0: 4415 2c3c db76 63be 8f80 dcbd 33f9 8abd
000002d0: 20de a13d ec58 563e 7c6c 5abe 855f 8b3b
000002e0: 7419 13bd 1321 86bd 8039 5f3d 3591 2f3d
000002f0: fa27 e6bd 229a 05be 3b73 54be 2022 4bbe
00000300: 85d8 993d cc68 1bbd 16af c53c eb2e 38be
00000310: 82e6 1b3e 62d3 9a3c 75f8 cfbd 4074 acbe
00000320: 502c 0dbe ed04 1a3b 713e c1bd 689e 913c
00000330: e8d7 70bd 7d64 cfbd 9bde 52be 440e 23bc
00000340: de51 bcbd 9083 923c 06fe 363e cdba cfbd
00000350: a219 1d3e 6074 86bb c048 de3c f0c9 2b3d
00000360: 2214 9abc d1a6 c7bc 5691 623e 1200 093d
00000370: 6ade 8abd 1d46 d0be d910 52be 1859 5ebe
00000380: 1046 533c 7e22 203e a5ec a3bd 3cca 9d3d
00000390: 9854 103d c334 a73d a8fa a43d fc95 bcbd
000003a0: 70a6 0ebd a0b7 74bd 2a27 c13d 047e 9f3d
000003b0: 5403 32bd a8fb 163d 962e c9bd 2db4 10be
000003c0: 5fd9 f4bd 761c 12bd 445e 13be 10dc 30be
000003d0: 227e 25be cd25 51bd 7c1a 27be 94fe 843d
000003e0: 3f2a 023e 342a 28be f3b8 fa3d 7fb9 303d
000003f0: 9c6d c03d e87e 2bbd f3aa fabd 2871 313d
-0.06812172 -0.090898305 -0.12481149 -0.19885233 0.0863193 0.17781615 -0.1177014 0.019223316
-0.058047224 0.10363876 0.035229407 0.13085502 -0.11066562 -0.18634321 -0.13744387 0.12539285
-0.16724862 -0.15288281 -0.14778885 -0.030239439 0.06909158 -0.04500773 -0.25912982 -0.13271375
-0.19852123 -0.20353745 0.044822782 0.07523748 -0.008883423 -0.08648183 -0.18179227 -0.05466277
0.096219756 -0.07346819 0.116162926 -0.09663283 -0.15829542 -0.024652585 -0.10295413 -0.1403571
0.107338086 -0.16765913 0.004932734 -0.01799953 -0.084488705 -0.16176067 0.018287854 -0.07492238
0.20540226 -0.039249375 -0.12473962 -0.09048412 -0.023221247 -0.46886992 0.19759786 0.086063385
-0.020088851 0.20908457 0.14589739 -0.08619888 -0.033454772 0.115718625 -0.109766915 0.05613288
0.08273388 -0.12014599 -0.06977876 -0.17420493 -0.11592093 -0.12878434 0.18292293 0.03422147
-0.025758615 -0.05091825 -0.10476246 -0.026998967 -0.09526705 -0.094867274 0.19259074 -0.034874707
-0.10774662 0.026406467 0.09825347 -0.17982751 -0.11844821 -0.15249859 0.06673368 0.050539963
-0.079197094 -0.15066017 -0.2016252 -0.2189416 -0.118915446 -0.1303463 -0.1195892 0.11608892
0.021191739 0.021518808 -0.16229856 -0.021537961 -0.06704199 0.12908679 -0.09005331 0.067210674
0.122765005 0.13405156 0.18506405 -0.12764943 -0.059224606 0.004128799 -0.11650227 -0.18104695
-0.67443234 -0.3843474 -0.10628874 0.0707272 -0.12514843 -0.0013999047 0.24022076 -0.22248882
-0.45692337 0.47624844 -0.15258977 0.15081587 -0.09219981 -0.12791188 0.061988935 0.3423406
-0.12373653 -0.17300093 0.3066451 -0.22343504 -0.07199276 -0.06081043 -0.07488166 -0.12129494
0.0152018815 -0.08066183 -0.08565204 -0.009010536 -0.0783941 -0.039377406 0.13675421 -0.032134935
0.21069512 0.07827854 -0.097442746 -0.0810712 0.11744501 0.20615155 0.082807496 -0.062144235
0.118919 -0.12341876 0.07305081 -0.024201797 -0.0076737413 -0.18915127 -0.17424583 0.19813424
0.12065467 0.05478552 0.08565033 -0.1918846 0.12250973 -0.11024797 0.20506397 0.091014355
-0.116916135 -0.16219726 0.1292839 -0.17617808 -0.20844464 0.0812024 0.08626477 -0.14221884
0.010503117 -0.22213309 -0.10766708 -0.06785812 0.07903695 0.20932359 -0.21330446 0.00425333
-0.035912946 -0.06549277 0.054498196 0.04286309 -0.11238094 -0.13047078 -0.20747082 -0.19837236
0.07512001 -0.03794174 0.024131339 -0.17986648 0.1522465 0.018899623 -0.10154811 -0.33682442
-0.13786435 0.002350147 -0.09435738 0.01777573 -0.058799654 -0.101265885 -0.2059273 -0.009952132
-0.091953024 0.017885 0.1787034 -0.10143051 0.1534181 -0.0041032284 0.0271343 0.04194063
-0.018808428 -0.024371536 0.22125754 0.033447333 -0.06780703 -0.40678492 -0.2051424 -0.21713674
0.012895122 0.15638158 -0.08004121 0.07704589 0.035236925 0.081643604 0.080556214 -0.09208295
-0.034826696 -0.05974543 0.09431298 0.077877074 -0.043460205 0.03686109 -0.09823339 -0.14131232
-0.11955523 -0.035671674 -0.14391428 -0.17271447 -0.16161397 -0.05106144 -0.16318697 0.064938694
0.12711428 -0.16422349 0.122423075 0.043145653 0.09395906 -0.041869074 -0.12239637 0.043320805

bias f4 [256]
00000000: 959f 38be 7fed d2bd 567a 40be 321d 57bd
00000010: 4224 6bbe 0fa0 60be a1d7 6abe 029c 9dbe
00000020: b416 80be b2dd 28be db15 4bbd b422 87be
00000030: b025 7dbe 9721 76be e15c 82be 88b1 01bf
00000040: 50e3 98be 6bc7 72be be7a f6bd d4c6 8fbe
00000050: 5df2 b5be ed52 a1be afe4 b5bd 14bc dbbe
00000060: fcde 1cbe 7f15 e0be 4cf0 bcbe b007 e6be
00000070: 6a74 97be fdf0 96be 19ec 2ebe ca4f 9bbe
00000080: 766d c2be 4d20 23be 3c3d d0be 8adf 1cbe
00000090: 465f d2bd 8df8 d2be ecfc 43be ee94 d4bd
000000a0: 0e14 723d 3d74 56be 69c5 b4be 3785 d5be
000000b0: aba0 82be f961 54be 6c10 8bbe 4ab9 7bbe
000000c0: 1cf9 a0be 89fa 95be 8fa0 d8bd dc5e 91be
000000d0: 4138 b7be 4b7f d2be 2e8a a3bd 9c56 f3be
000000e0: aa35 2dbe 83c6 22be 08b6 38be 3db8 acbe
000000f0: 0718 06be 4fcb 72be 2bf7 7cbe 699f d4bd
00000100: 0eb3 47be cb3f 63be 59f8 26bf be0b 97be
00000110: 8a97 c8bd 95e4 5bbe a5fb ddbe 394c 32be
00000120: bd4d 5fbe 7e25 13be 2527 62bf 5100 bdbe
00000130: 8a08 a4be 81ff 07bf 3f22 8dbd f5fa 6abe
00000140: e95c a2be 0d84 70be fc25 f2bd e5b9 96be
00000150: 9c8b ecbe d55d 89be 1cd0 8ebe 604a 05bf
00000160: f0d9 65be 04a8 9cbe 91c5 a9be dc5d 0abf
00000170: 1457 e6be a20a 68be 98fd a8be ce09 8dbe
00000180: 834d b4be 6dc7 a1bd 8cd4 afbe ea45 f3be
00000190: 036f 87bd 3eaf a2be 7a82 89be b046 a3be
000001a0: 1526 68be 288b 8bbe 5ed4 90bd 01c5 a4be
000001b0: 0c5f 923c e4c0 cebe 8b40 4fbf 2214 8fbe
000001c0: dfc1 59be c78e 31be 44e6 34be 8e3c 59be
000001d0: aca0 c7bd f7e7 46be d923 4abe ad2b acbe
000001e0: cf4c 69be 71f2 eebe b271 99bd 7693 e4bc
000001f0: e2e8 76be 97cc 8cbe c209 e63d de08 873b
00000200: 6728 43be 91a0 a8be 6f1e 8dbe ea20 d9be
00000210: d35d 87be 0849 1ebe d239 42be 36e3 4ebe
00000220: ec30 8cbd afd3 15be c4bd 8dbe 2291 84be
00000230: bb40 8fbe d41f 07ba 4110 b9be dabe 13be
00000240: 2bb2 ddbe 255f 543e 62ef 4ebe 1165 78bf
00000250: b263 f6be c0e6 f4be 3f0e 74be b80b b8bd
00000260: 91ac c8be 8336 35be 2255 bbbe 0d58 a4bd
00000270: 2c72 f1be 8abb 83be 2326 48be bed2 9fbe
00000280: 7c75 01be ae45 8dbe 560f 68be 3d72 d8be
00000290: a14f cebe 164f a2be 68fb 64be 9a2e a1be
000002a0: d091 15be 5ab7 a4be 4c1f 0fbd 1623 18be
000002b0: 93b6 6abe 09d0 12be dd0e 1abe e18b a0be
000002c0: b4b1 debd b364 97be 5578 f0bd 4ab1 bcbd
000002d0: 5cff 23be 1774 e6be 6d0e 48be ad43 ddbd
000002e0: 9dd0 1bbf c140 dcbd 708d 88be e815 12bf
000002f0: 1b56 9abe 21ff 19bf a4bb 43be 97e9 98be
00000300: f1ad 7abe 41a2 29bf 7ab6 69be 4f42 35be
00000310: fb07 39be 07b8 3abe 1a81 13bf b4c6 45bd
00000320: 8845 90be d284 fcbd 4050 61be ff11 9abd
00000330: 3d93 a0be 2eec 8ebe 9435 bfbe 0028 5abe
00000340: 7c15 f7be cc67 0abe 2f18 14be 79c9 6abe
00000350: cc83 bfbe 77d2 9cbe c180 43be 41c6 86be
00000360: a4f8 323d 65f6 8abd f3fc 5dbe 5c96 a33c
00000370: 79a3 5cbe 63c0 fabd 0524 dabe 8c23 83be
00000380: cc7c 74be 351f a9be 0c47 97be da46 de3f
00000390: e2cf 84be c81c 41be 7207 fabe 5734 89be
000003a0: 87c3 7cbe faa2 a2be 8309 4dbe fe3e b9be
000003b0: 4526 bbbe 56ef 72be 7cc1 293e 6703 26be
000003c0: 8ec9 bbbd d64b 93be c5c1 3abe 0f89 08bd
000003d0: 7845 a7be 2d8a 8cbe 73a4 2cbf 149a f1be
000003e0: c912 03be 8eb8 8dbe 66d0 8abe 2a5d bfbd
000003f0: ea9c 6bbe afe8 e5be 8040 0ebe 4ea5 debe
-0.18029626 -0.10299205 -0.18796667 -0.052518077 -0.2296305 -0.21936058 -0.22933818 -0.30783087
-0.2501732 -0.1649082 -0.04958139 -0.26393664 -0.24721408 -0.24036251 -0.25461486 -0.50661516
-0.29860926 -0.23708884 -0.1203513 -0.2808138 -0.3553647 -0.3150858 -0.088815086 -0.4291693
-0.15319437 -0.437664 -0.36902082 -0.4492774 -0.29581004 -0.29480734 -0.17082252 -0.30334312
-0.37974137 -0.1593029 -0.40671718 -0.15319648 -0.10272078 -0.41205254 -0.19139451 -0.103799686
0.059101157 -0.20942779 -0.35306862 -0.41703197 -0.25513205 -0.20740499 -0.27160966 -0.24582401
-0.31440055 -0.29292706 -0.10577499 -0.28392684 -0.35785106 -0.41112742 -0.0798534 -0.47527015
-0.16915002 -0.15896039 -0.1803819 -0.33734313 -0.13095103 -0.23710369 -0.24703662 -0.103819676
-0.19501898 -0.22192304 -0.652227 -0.29501146 -0.09794529 -0.21473916 -0.43356052 -0.17411889
-0.21806999 -0.14369771 -0.8834098 -0.36914304 -0.32037765 -0.53124243 -0.068912975 -0.22947295
-0.3171151 -0.23487873 -0.11823651 -0.294387 -0.46200264 -0.268294 -0.2789315 -0.5206661
-0.22446418 -0.30596936 -0.33158544 -0.5404947 -0.4498831 -0.22660306 -0.33005977 -0.27546543
-0.35215387 -0.078993656 -0.34341848 -0.47514278 -0.06612971 -0.31774324 -0.26857358 -0.31889868
-0.22670777 -0.27254605 -0.07071756 -0.32181552 0.017867588 -0.4038154 -0.8095786 -0.27945048
-0.21265362 -0.17339621 -0.17665964 -0.21214506 -0.097474426 -0.19424425 -0.19740237 -0.33627072
-0.22783206 -0.46669343 -0.07492389 -0.027902346 -0.24112275 -0.2749984 0.1123233 0.00412093
-0.19058381 -0.32935002 -0.2756228 -0.42407924 -0.2643877 -0.15457547 -0.18967369 -0.20203862
-0.068452686 -0.14631532 -0.27683842 -0.25891978 -0.27979073 -0.0005154584 -0.36145213 -0.14428273
-0.43299994 0.2073942 -0.20208505 -0.97029215 -0.48122936 -0.47832298 -0.2383356 -0.0898661
-0.39194158 -0.17696576 -0.3658839 -0.08024607 -0.4715742 -0.25729018 -0.19545798 -0.3121547
-0.12642473 -0.27592224 -0.226621 -0.42274657 -0.40295127 -0.31700963 -0.22361529 -0.31480867
-0.14606404 -0.32171136 -0.034941956 -0.14857134 -0.22921209 -0.14337172 -0.15044732 -0.3135672
-0.10873738 -0.29569015 -0.117417015 -0.09213503 -0.1601538 -0.45010445 -0.19536753 -0.10803924
-0.60865194 -0.10754538 -0.26670408 -0.57064676 -0.30143818 -0.6015492 -0.19114548 -0.29865715
-0.24480416 -0.66263205 -0.22823516 -0.17701076 -0.1806945 -0.18234263 -0.5761887 -0.0482852
-0.28178048 -0.12330021 -0.22003269 -0.07522964 -0.31362334 -0.27914566 -0.37345564 -0.21304321
-0.4825858 -0.13516158 -0.1446235 -0.22928418 -0.3740524 -0.30629322 -0.19092084 -0.2632313
0.043694153 -0.06785277 -0.21678524 0.019969158 -0.21546735 -0.12243726 -0.42605606 -0.25613058
-0.23875731 -0.33031622 -0.29546392 1.7365372 -0.25939852 -0.18858635 -0.48833805 -0.26797745
-0.24683963 -0.31764966 -0.2002316 -0.36180872 -0.36552635 -0.23724112 0.16577715 -0.16212235
-0.09169303 -0.28768796 -0.1823798 -0.033333834 -0.32670188 -0.2744917 -0.6743843 -0.47187865
-0.12800135 -0.27679867 -0.2711212 -0.093439415 -0.23009077 -0.44904086 -0.13891792 -0.43485492

weight f4 [256, 256]
00000000: 2171 a93b 01ca f5bd 5370 edbd 4fc0 4f3c
00000010: 27e9 3bbc 6604 39be a019 283c 474c 00bd
00000020: adfd 9e3d 113b 153d 7f59 c5bd 871c 53bd
00000030: 28bb a3bc d97f 75bd 7320 9fbd 3b9b 423b
00000040: 63b8 7c3d a111 973d fc7f 01be ed6a 953d
00000050: 3611 7ebe 98ba 373d 4723 79bc 774b abbd
00000060: 4122 bd3c 9287 2bbd fe28 c1bd f62e 353d
00000070: 2b99 9bbd feea fabc 6885 993c 9969 fa3d
00000080: 87c7 5e3b 3068 1a3c 68b8 dabd 9fdf 82bd
00000090: 87b3 afbd 8c90 1fbd db6b 83bd a3d6 a8bd
000000a0: f067 21be 3c1f c33c d39f 323c 39d8 9fbd
000000b0: b4bc 84bc 40e8 7dbd 1a2e 33bd 878a 2abd
000000c0: 58de a6bd 606f ecbb 0b16 b4bc 80f3 f3ba
000000d0: 4ec9 aebc 646c efbd 978e 09bd 1481 e23c
000000e0: 0284 c3bd 554f 0dbe 68dd 95bd 9db4 95be
000000f0: 8224 bfbd 6eba c4bd bbee ddbb e7b6 a8bd
00000100: d6a3 8f3d 5bcd 233d ffb1 823d 2230 3bbd
00000110: d891 c3bc 0f72 8d3c 0b9e 64bd c4be 99bc
00000120: 960b 79bd 96ab bebd 447e 4fbe 5c8b 76bd
00000130: 20e3 bf3c a6fa 71bd a5c5 c5bc 6087 2d3b
00000140: a47e 6a3d 5a58 32bd 99eb 8abd 13d5 19bc
00000150: ff03 833c 588a a53c d34d 13be 0b4e 283c
00000160: 2f9c b3bc 296b 9d3d e889 8dbd c929 0e3d
00000170: 4575 88bc 928f 56bd ce9c efbd 4e73 67bd
00000180: b6ab 82bd bc42 89bd 6eab 50bd e91f 123d
00000190: caa0 1ebd a518 85bc 2390 e03c d292 54be
000001a0: 89a9 d1bc 9083 5fbd 43da 9ebd 44ec 53bc
000001b0: acb3 43bd 2402 8fbd 791a edbd 66d5 773d
000001c0: a7c9 f1bd 568e bbbd 2948 0ebd be10 aabd
000001d0: 4e15 9ebd f880 96bd 8cd9 76bd b084 3f3d
000001e0: 6ed2 3abe f65a 13bd dc0f 1a3d 851a a1bd
000001f0: a84c 15bd 7922 c23d 6a3d 2c3c 7042 d63c
00000200: f405 06be 49bb 0c3d d393 3abe 16bf 02bc
00000210: 302f aabd 1e0e 503d 6c70 973d 2c64 a93b
00000220: b72d d8bd 56a9 d7bd 1b3f 2cbd f43c f3bd
00000230: 83dd b93d 07c7 be3d 7681 eebd 4bed fbbc
00000240: a473 753a 7727 8d3c 812a 86bd 383a 34bd
00000250: ba38 333d b61f cc3c 003b 84bd fb24 48be
00000260: 61ed 39be 8072 8dbd 3af1 67bd bd2e f83b
00000270: 95fd 76bd 6dbe 8c3c 9905 b8bc 6f70 7cbd
00000280: 48aa 19be bd76 be3b d547 1a3e 1982 8dbb
00000290: a1c0 b0bd f37d 13bd eeb7 3abe e384 0fbe
000002a0: d630 39bc 691d d43d 19af 903c a643 893b
000002b0: a947 aabd cf37 f63b 57b1 e1bc fc41 9ebd
000002c0: 430f 3ebd a82d 1dbd 0ef6 11be c33b e93c
000002d0: aaa0 8abd 91d1 d23b e47d 07bd f16d dd3d
000002e0: 1959 e83c 9065 a7bb 0d1a 7fbd 7cb0 2abe
000002f0: cdcb 33bd f58d 8abc 97a8 1e3b 15d0 edbb
00000300: 9203 aa3d 7dc3 093d 2b25 3a3d fbbf 11bd
00000310: 60bc 9aba b821 fbbd a44e fdbd 7577 86bd
00000320: fe7f abbd 9295 51be 1dfc 2dbd e1d8 21bd
00000330: 79c7 21be 301c abbd 6b50 4bbd 80c3 c53a
00000340: 481d f6bc def0 9e3d c318 5fbd cc0c cfbc
00000350: 5ea1 e7bc 1fc4 1bbe b3ec 443c a41e 56bd
00000360: e768 cdbd a7df d8bc d494 5fbd 2df5 18be
00000370: b8e1 513d aaa1 c5bd 1664 2d3d 557d 1f3d
00000380: a66d 133d 2262 bbba fb24 3b3d 612e 10be
00000390: 3a18 8cbd a157 67bd 4517 183d 1dda b2bd
000003a0: a70c ab3c c68f 0dbd fa54 92bd 1cfc 1dbd
000003b0: 4f66 88bd a95f 96bd 5dde 203d d5e2 10bd
000003c0: ccbc 9d3c ef4f 55be 76c9 84bd 1bde 84bd
000003d0: dce5 d3bc 4396 033d 9474 a6ba 6321 b13c
000003e0: ea28 b43d 648e 4f3d 10ad 7e3d 1aa1 5f3c
000003f0: 3466 343d 223f b93d 5669 edbd d292 49bd
0.0051709567 -0.1200142 -0.1159369 0.012680127 -0.011469162 -0.18068084 0.010260016 -0.031322744
0.077632286 0.036433283 -0.09636211 -0.051540878 -0.019986704 -0.05993638 -0.07769861 0.0029694575
0.061699282 0.07376409 -0.12646478 0.07295785 -0.24811253 0.044855684 -0.015206165 -0.08364003
0.023087623 -0.041877337 -0.09431647 0.04423424 -0.07597574 -0.030629631 0.01874037 0.122271724
0.003399344 0.009424254 -0.10679704 -0.063903086 -0.08579164 -0.03895621 -0.06417056 -0.08244064
-0.15762305 0.023818605 0.010902363 -0.07804913 -0.016203262 -0.06198907 -0.043745138 -0.041636016
-0.081478775 -0.0072154254 -0.021983167 -0.0018611997 -0.021336224 -0.11690596 -0.03358325 0.02764944
-0.09546663 -0.13799794 -0.073176205 -0.2923936 -0.09333135 -0.09605871 -0.0067728437 -0.08238011
0.07013671 0.039990764 0.06381606 -0.0457002 -0.023873255 0.017266301 -0.055814784 -0.018767722
-0.060802065 -0.09310071 -0.2026301 -0.060191497 0.023423731 -0.059076928 -0.024142096 0.0026478395
0.05724968 -0.04354129 -0.06783218 -0.00938918 0.015993116 0.020207569 -0.14385156 0.010272513
-0.02192506 0.07686455 -0.06911069 0.03470782 -0.016657481 -0.052383013 -0.1169983 -0.056506447
-0.063804075 -0.06702182 -0.050944738 0.035674963 -0.03872756 -0.016247103 0.02741248 -0.20759133
-0.025593536 -0.054568827 -0.07756474 -0.012934748 -0.04777877 -0.0698283 -0.11577315 0.060506247
-0.1180604 -0.09158008 -0.034736786 -0.083039746 -0.07718907 -0.073488176 -0.060266063 0.0467574
-0.18244335 -0.03597542 0.03761278 -0.07866386 -0.03645006 0.094792314 0.010512689 0.026154727
-0.13088208 0.034358297 -0.18220453 -0.007980129 -0.083097816 0.050794713 0.0739449 0.005169412
-0.105555944 -0.10530345 -0.04205237 -0.1187686 0.09075453 0.09315305 -0.116457865 -0.030752799
0.000936324 0.017230732 -0.06551076 -0.044000834 0.04375527 0.024917465 -0.06456566 -0.19545357
-0.18156959 -0.06906605 -0.056626536 0.007573931 -0.06030043 0.017180646 -0.022463607 -0.061630663
-0.15006363 0.0058124945 0.15066464 -0.0043184874 -0.08630491 -0.036008786 -0.18234226 -0.14015536
-0.011303147 0.10357172 0.017661618 0.0041889725 -0.08314449 0.007513977 -0.027550383 -0.07727429
-0.046401273 -0.03837362 -0.14254019 0.02847088 -0.067689255 0.0064336737 -0.033079043 0.10811985
0.028362798 -0.0051085427 -0.062280703 -0.16668886 -0.04389553 -0.016913394 0.0024209374 -0.0072574713
0.08301462 0.033633698 0.045445602 -0.035583477 -0.0011805408 -0.12262291 -0.12368515 -0.06565753
-0.08374022 -0.20467213 -0.042476762 -0.039513472 -0.15798749 -0.08354986 -0.04963724 0.0015088171
-0.03004326 0.077607855 -0.054466974 -0.025274657 -0.028275188 -0.15211533 0.012019324 -0.052275315
-0.10029774 -0.026473833 -0.054585293 -0.14937277 0.051240653 -0.096499756 0.042331778 0.038937885
0.03599324 -0.0014296214 0.045689564 -0.14080192 -0.06840558 -0.056480054 0.037131567 -0.08733008
0.020880057 -0.03456094 -0.07145114 -0.03857051 -0.06660139 -0.073424645 0.039274562 -0.035372574
0.019255064 -0.20831273 -0.06483738 -0.06487676 -0.025866441 0.032125723 -0.0012699538 0.021622365
0.08796866 0.050672904 0.062176764 0.013649249 0.04404278 0.09045245 -0.11592357 -0.049212284

bias f4 [256]
00000000: d890 f3bd 7fd3 3bbe 203c 3dbe c029 cfbd
00000010: 4733 16be 0956 e0bd 6d7a adbd 11a2 aebc
00000020: 6225 6cbd d93b 54be 445f d1bd 187c 8fbe
00000030: e5c4 98bd ee72 8fbd 8c82 11bd a450 c9be
00000040: 8fc5 b4be 9cc7 07be 8299 01be e84a dbbc
00000050: 5e53 03be 5904 b3bd 17b7 69be 3129 99be
00000060: d70b 87bd 23ad 8dbe 8730 1dbd 2a37 b1bd
00000070: c1b9 b2be 8ba0 e3be a1ea efbd 0026 d2bd
00000080: b480 19be 407a 91be 8a8b babd dc1a 0fbe
00000090: 2112 80be 407b 8abd 87db 9dbd 1232 d5be
000000a0: d003 f7bd 8ec0 d6be 6ccd 72be e8b1 05bf
000000b0: 3a7c 16be 3108 cfbd 0c1c a9bd 0631 5dbe
000000c0: bae7 a5bd a535 b4bd e401 abbe 2723 07be
000000d0: 224e e0bd 5538 ebbd 1170 52be aaaf f0bd
000000e0: 8779 77be 3fa1 46bf ef1a 17bf 2163 a9be
000000f0: 6fa9 96be 7c7a 68be 118a 17bf 8735 7cbe
00000100: 86a3 b3bd ba4d 80bd 5227 a4bd 68a9 e5bd
00000110: 2224 38bd 9351 14be 0150 00bd 6656 dabd
00000120: 9e3d 77bd dd84 edbd 50ca e9bd 041e 3bbe
00000130: dfc7 bdbd 7f5c 77bd ac88 10be 5ef5 19be
00000140: f7b3 45be 81a4 aebd b2a7 bc3d 8095 bfbd
00000150: 9963 ddbd b45b 36bf 33fd 0fbf 1e99 ecbd
00000160: b6fa 23be 5986 80bd 374d 96bd c647 babd
00000170: f364 4cbd e097 43be 2c36 b5be 25b6 20be
00000180: 5e0a a3bd 2741 afbd 0ecf 92be d05c 3cbe
00000190: 4dc0 b4bd 0150 fdbd 5eec 6abe 9996 bdbd
000001a0: 83f4 b9bd 766b f3bd b435 c3bd 24c7 57bd
000001b0: f83d 36be 45dd dfbe 9287 4dbd 1f15 c5bd
000001c0: 6c34 0dbe 52e4 babe b1c0 54be 24fe 2dbd
000001d0: 7f92 64be 5c0c 9fbd f3aa 02be dabd 3bbe
000001e0: e925 0ebe a7ee d8bd d806 e3bd df32 71be
000001f0: fddd edbd 41f5 edbd 1d0e 46be f5e6 51be
00000200: 3e07 12be ba5a 48be 7712 acbd cc16 98bd
00000210: b24e afbe d2e9 a6bd f362 1f3d 8826 a3bd
00000220: 2323 f6be 2583 93bd 59f4 5cbe 4092 abbd
00000230: d7d5 65bd b5d0 8abe 529f e8bd f0ff 3dbe
00000240: 0f06 15be 1d08 a9bd f473 03be 51c9 d3bd
00000250: 4119 9ebe e49f 3cbe e181 fbbd e6c0 a0bd
00000260: 8098 e8bd 6e5b 7abe 553c 7dbd 323a 2bbe
00000270: 475c 61bd 3a11 82be 9ba9 31bd 25ba c4bd
00000280: f386 4fbd 1ce4 fabd 71d7 07be 346a 6ebe
00000290: f5ca b9bd 726c eebd 362b bcbd 5c17 ddbd
000002a0: 6661 d4be da37 f8bd 9aa3 e0bd 1f96 f1be
000002b0: d125 d4be 2b1a 813f d102 24be 3b1b 35bf
000002c0: f5f9 9ebd 2c45 41be 33fd c0bd 094c e8bd
000002d0: 6d82 02be 6039 8abd b29e 57bd 991a 03be
000002e0: 28fa 1bbf 260c ebbd 0030 6ebe 0bf5 8cbd
000002f0: b22c cebd a9bf 3fbd d9b0 96bd 5241 69bd
00000300: 1f9e 0cbe 28f3 d2bd bf9a 67bd c8b2 88be
00000310: 725c 573d a0ae 34be fe3f d4bd 14df c3bd
00000320: 33a7 8fbd 89b2 8ebd 0e98 3c3e 9270 46be
00000330: 5027 0abf 5030 d9bd 90f1 adbe 61ff 83bd
00000340: 414d fabe 7527 14be cbcd 2fbe dcd9 37bd
00000350: 875e a2be 6f2f 99bd 0da8 223f 621d 9ebd
00000360: dc20 2cbe 2262 5abe b1b1 f1be 38e5 12be
00000370: 085c b5bd 712a 93bd a110 14be 2279 67be
00000380: 9e2e 2abe 92fe 08bf f791 06bf 0ddc 8b3e
00000390: 36a9 70bc 376d a9bd 858e c2bd c21c b5bd
000003a0: 0798 b2bd 7ad3 6abe d310 e4bd a779 02be
000003b0: 0c02 59bd 0d2c d9bd a985 f1bc 4163 30be
000003c0: f1f7 4fbe b12f 73be 7b0b 88bd c281 5cbe
000003d0: 6157 debe 0f73 fbbd 0b5a 5fbd ec32 a4bd
000003e0: 3f05 d3bd 3534 d0bd 72f8 b4bd ad0f 22bd
000003f0: 1a72 0cbe c46e d7bd dd32 5abd 3cf9 e9be
-0.11892861 -0.18342398 -0.18479967 -0.10115385 -0.14667998 -0.1095391 -0.084706165 -0.021317514
-0.05765284 -0.20725955 -0.102232486 -0.28024364 -0.0745943 -0.07004343 -0.03552489 -0.39319336
-0.35306975 -0.13259739 -0.12656215 -0.026769117 -0.12824771 -0.087410636 -0.2282375 -0.2991424
-0.06594055 -0.27671155 -0.038376357 -0.086531 -0.34907344 -0.44458422 -0.11714674 -0.10261154
-0.14990503 -0.28413582 -0.09108646 -0.1397509 -0.2501383 -0.06761789 -0.07707887 -0.41639763
-0.12061274 -0.41943783 -0.23711175 -0.5222459 -0.14695826 -0.10108984 -0.08257303 -0.21600732
-0.08100839 -0.087992944 -0.3339988 -0.13197003 -0.10952403 -0.11485354 -0.20550562 -0.11752255
-0.24167453 -0.7758979 -0.5902547 -0.33083442 -0.29426143 -0.22702974 -0.5919505 -0.24629794
-0.08771424 -0.06264825 -0.08015312 -0.11213952 -0.044956334 -0.14484243 -0.031326298 -0.106610104
-0.060361497 -0.11597607 -0.11415541 -0.18273169 -0.09266638 -0.060390946 -0.14114636 -0.15035006
-0.19306932 -0.085274704 0.09211673 -0.09354687 -0.10810012 -0.7123368 -0.56245726 -0.11552642
-0.16013607 -0.06275625 -0.07338946 -0.09095721 -0.04990096 -0.19100904 -0.35392892 -0.15694483
-0.07960962 -0.08557349 -0.28673595 -0.1839478 -0.08825741 -0.12368775 -0.2294173 -0.0925724
-0.0907984 -0.11885731 -0.095317274 -0.05268015 -0.17797077 -0.43723503 -0.050178118 -0.09623169
-0.13789529 -0.3650232 -0.20776631 -0.042478696 -0.22321509 -0.07766029 -0.12760524 -0.18334141
-0.13881649 -0.10592394 -0.1108529 -0.23554562 -0.116146065 -0.11619044 -0.19341321 -0.2049826
-0.14260575 -0.1956586 -0.084019594 -0.07426223 -0.34239727 -0.081500664 0.038912725 -0.07966334
-0.48073682 -0.07202748 -0.21577586 -0.08377504 -0.056112137 -0.27112356 -0.11358513 -0.18554664
-0.14553092 -0.082535006 -0.12837201 -0.103411324 -0.30878642 -0.18420368 -0.12280632 -0.078492925
-0.11357212 -0.2444894 -0.061825115 -0.16721418 -0.055019643 -0.25403768 -0.04337464 -0.09605817
-0.050665807 -0.1225054 -0.13265778 -0.23282701 -0.09071914 -0.11641778 -0.09187929 -0.10795471
-0.4148056 -0.12120028 -0.109687045 -0.47184846 -0.41435102 1.0086111 -0.160167 -0.70744675
-0.07762519 -0.18874043 -0.09423294 -0.113426276 -0.12745066 -0.06749225 -0.052641578 -0.12803115
-0.60928583 -0.114769265 -0.23260498 -0.06882676 -0.10067119 -0.04681364 -0.0735795 -0.05694706
-0.13732193 -0.103002846 -0.05654406 -0.266989 0.052578397 -0.17644739 -0.10363768 -0.09564033
-0.070143126 -0.06967647 0.1841738 -0.1937888 -0.53966236 -0.10604918 -0.3397336 -0.06445194
-0.48887065 -0.14468177 -0.17168348 -0.0448855 -0.31712744 -0.0747975 0.63537675 -0.07720448
-0.1680941 -0.21326497 -0.4720588 -0.14345253 -0.08855444 -0.071858294 -0.14459468 -0.22604802
-0.16619346 -0.53513443 -0.52566475 0.27316323 -0.0146887805 -0.08272784 -0.0949984 -0.08843376
-0.08720403 -0.22932234 -0.111360215 -0.12741719 -0.052980468 -0.10604105 -0.02948268 -0.17225362
-0.20309426 -0.23748662 -0.06642815 -0.21533874 -0.4342604 -0.12277805 -0.05452923 -0.08017525
-0.10303735 -0.10166208 -0.0883645 -0.03956573 -0.13715401 -0.10519174 -0.053271163 -0.45697963

weight f4 [4, 256]
00000000: c05b 5d3d 8c23 9d3e c4a3 04bc e27d dc3c
00000010: 9360 b83b 5ca2 893d 680b 1c3d a711 183d
00000020: c9fa 72bc c7df ddbd 4396 12bb c5ec cbbc
00000030: 8f39 fa3c 5a0f 993c 8bfa d0bb 52dd e73d
00000040: 93a4 763d 9ab0 aabc 890c 32bd 2612 9ebc
00000050: 07a7 1e3d 9e45 8dbc f307 133d a5ae 8e3d
00000060: 5747 8e3b 12b6 093b 8ded ccbd 3fdf 243d
00000070: 71ed 423e e69a 4cbe ed85 493d 6d7d 1cbd
00000080: 0d45 83bd b789 9e3d 342f 9b3d 8577 a2bc
00000090: 997e d13c f4f0 f3bb 645f 143c 9d60 413d
000000a0: 3423 933c a8c9 d6be d09b dd3d 563f a13d
000000b0: 8c00 ffbc 357f 0bbd 214d 9c3c b61b 973c
000000c0: 52f8 d83c 2517 b4bc 1e3c c93c da42 cbba
000000d0: b2ed 4d3d b851 26bd 87f4 453d 7e9d 1c3c
000000e0: f31d 1dbc 0ba5 a5be 3733 793e da7e fc3d
000000f0: af29 b0bd 9f5b 613c cc4d 9b3c e2e7 92bd
00000100: 7ad9 ddbb 3319 91bc ff45 cb3c 2bdd 4e3c
00000110: d704 29bd e9f1 c23c 78d0 8dbe 04ca 1c3c
00000120: e106 d23b ec17 34bd de55 ebbd 32fd 893d
00000130: dc93 773d 0ae3 fdbc ba12 80bc e0fd 083e
00000140: d301 24bd bc0c 863c f172 0b3e bb8c 46bd
00000150: 9c63 00bd a3ca 373d 89b3 9a3e 41f9 c339
00000160: 582d 05bd 1a16 5c3b ad65 893c 54f3 07bd
00000170: 033c c3bb 6d50 83be 839e 1f3d 6eec 4a3e
00000180: 3032 90bd a694 10bd dd56 393d db2b 523c
00000190: bada 073d b0cf a9bc 9545 443d f1cd 813c
000001a0: 8cb5 133c 0c3d 3cbb 272e 0a3d 5316 763c
000001b0: 806a 1b3e 65b0 6e3e 6128 043d 8797 52bb
000001c0: 7558 173d 6535 a6be db15 403d 7a59 05bb
000001d0: b3bb 413e e829 11bc 0295 9a3b 2f78 de3c
000001e0: 8e72 c13e 833d 453d bd7e cbbc 4b90 2f3d
000001f0: f305 453d 87ad 8e3d bf19 59bd 0936 45bc
00000200: dcb0 253e 79d9 40bc a2f4 4b3d e84b 4f3d
00000210: ecd1 1b3e f46c 8ebc c262 b6bd 18d7 e93b
00000220: 235a b8bd 2922 253c 8bc6 193f bd72 c43c
00000230: 0cfc c83b 0a98 e13e 01b5 55bd 7ba5 bfbc
00000240: ba86 1f3d c6d2 e7bc 4d3a 3bbc 4ff9 ddbc
00000250: a076 2c3e 3a7d ddbc 66b9 9e3b a8d4 68bc
00000260: 6c8e 593c 6465 41bd a033 aabc b5b8 74bc
00000270: dec3 5a3d 78f3 373e 4929 8e3d 60f7 333d
00000280: 56ad c7bc 0eb6 a0bd 3bfd a8bd 5ca8 9fbc
00000290: 946d 83bb 49ce bd3d b753 fd3a 9a98 deba
000002a0: 3069 0cbe 9ce8 573b ec7f bb3c e685 173c
000002b0: d9c2 663e 39ff 51be 49b5 a2bc 6fd6 013f
000002c0: 8fa9 b4bc 1b7e 183d 92d0 0ebc 60e4 3bbc
000002d0: a7ae 2dbb a0ca 32bc 5ced fe3c bc86 353d
000002e0: f3bf a23e 772b b1bb 89bd 3f3a 4c90 873b
000002f0: 94b8 dabc 1afd 11bd dc32 e33d 7dca b8bc
00000300: 717f 363d d023 633d 58b2 593d 8d52 cebc
00000310: da29 8abc 61a9 3ebd d763 9ebb deb4 2cbc
00000320: 3ecc b43a 51ad bd3c 89b4 833e 8bb3 303e
00000330: 0c72 233d 95e5 d23c 6ed8 8abd f7a3 8e3d
00000340: 2b86 df3e 8d86 1bbd 96ed d43c 2bb0 2c3d
00000350: be4a 99bb 3d65 f43c 679e 5dbd 8f41 313b
00000360: bf4c 5d3c 050a 2e3f 02cb b43e a8d1 743d
00000370: efc0 9f3c ddee 33bd 986b d23c bec8 3a3e
00000380: fd10 9c3b 596b 4d3c be87 d33a 323b 193e
00000390: 016c 823d 269c 063e 409f 89bd bb87 f3b9
000003a0: ced9 9f3c 96cb 353e 44d6 2dbd f634 7cbc
000003b0: e0cb 7b3c 7f9f 0b3d e209 52bd 3d7a 8b3d
000003c0: f8ce 4b3d bffd 9c3a 0e36 76bd adff 22bb
000003d0: cfc9 1fbf e289 743c 3907 52bb 3dd2 373d
000003e0: 54bf da3d 23e0 e43c 93ef c53c 173b eb3d
000003f0: ca2c 313e a731 30bd ab3b 0e3d 6833 903b
0.054042578 0.30691183 -0.008095685 0.026915494 0.005626747 0.06720421 0.038096815 0.03712621
-0.0148303 -0.10833698 -0.0022367395 -0.024893174 0.030545024 0.018684078 -0.0063775233 0.113215104
0.060215544 -0.020836163 -0.043468986 -0.019295763 0.03873351 -0.01724511 0.035896253 0.069669046
0.0043420005 0.0021013063 -0.10006247 0.040251967 0.19035889 -0.19980964 0.049199987 -0.038205553
-0.06409655 0.07741111 0.07577363 -0.019832382 0.025573062 -0.0074444953 0.009055946 0.04721128
0.017961122 -0.41950727 0.108207345 0.078734085 -0.03112819 -0.03405686 0.019079747 0.01844583
0.026485596 -0.021983692 0.024564799 -0.0015507594 0.050275512 -0.040605277 0.048328903 0.009559033
-0.00958966 -0.3235248 0.24335943 0.123288825 -0.086017005 0.013754754 0.018957995 -0.071731344
-0.00677031 -0.017712211 0.02481365 0.012625973 -0.04126438 0.023796992 -0.27698112 0.009569649
0.0064095114 -0.043968126 -0.11490987 0.06737746 0.060443744 -0.03099205 -0.01563393 0.13378096
-0.040040802 0.016363494 0.13618065 -0.048474055 -0.031344995 0.044870984 0.302151 0.00037379007
-0.032513946 0.003358251 0.016772116 -0.03319104 -0.0059580817 -0.25647298 0.038969528 0.19816753
-0.070408225 -0.035298012 0.045248855 0.012827839 0.03316758 -0.020728916 0.04791792 0.01584527
0.009015452 -0.002872291 0.03373542 0.015019971 0.15177345 0.23309477 0.03226507 -0.0032133774
0.036949594 -0.32462612 0.046895843 -0.0020347522 0.18919258 -0.008860089 0.00471747 0.027156917
0.3778271 0.048154365 -0.024840707 0.042862218 0.048101377 0.069666915 -0.05300307 -0.012036809
0.16180748 -0.0117705995 0.049793847 0.0506095 0.15216798 -0.017385937 -0.08905555 0.007136237
-0.09001567 0.010078945 0.6006858 0.023980493 0.006133562 0.4406131 -0.052174572 -0.023394337
0.038946845 -0.028298747 -0.011427474 -0.027096419 0.16842127 -0.027037252 0.0048438786 -0.014210857
0.013278585 -0.047215834 -0.02077657 -0.014936616 0.05340945 0.1796397 0.06941468 0.043937087
-0.024374645 -0.07847224 -0.08251425 -0.01948946 -0.0040108655 0.092678614 0.0019327317 -0.0016982735
-0.13712001 0.0032945042 0.022888146 0.0092482325 0.22535266 -0.20507516 -0.019861834 0.50717825
-0.022053508 0.03722964 -0.008716719 -0.011468023 -0.0026501806 -0.010912567 0.031119041 0.044317946
0.3178707 -0.0054067927 0.0007314315 0.0041370746 -0.026699342 -0.035641767 0.11093685 -0.022557491
0.04455513 0.055454075 0.053148597 -0.025185848 -0.01686566 -0.04654825 -0.004833679 -0.010541169
0.0013793779 0.023153933 0.25723675 0.1725599 0.039903685 0.025744239 -0.06779562 0.069648676
0.4365705 -0.037970114 0.025992196 0.042160194 -0.0046780994 0.02983343 -0.054106142 0.0027047133
0.013507067 0.6798404 0.35311133 0.059770256 0.019501178 -0.04392897 0.02568607 0.1824064
0.0047627673 0.012537801 0.0016138477 0.14963987 0.06368256 0.13145503 -0.06719828 -0.000464497
0.019513037 0.17753443 -0.042440668 -0.015393486 0.015368432 0.034087654 -0.051278956 0.068104245
0.049757928 0.0011977478 -0.060110144 -0.0024871633 -0.6241731 0.014925452 -0.0032047762 0.044878233
0.10681024 0.027938908 0.02416209 0.1148588 0.17302242 -0.043016102 0.034724873 0.0044006594

bias f4 [4]
00000000: 8b22 fbbd 30a9 863c fb9a 03be 3c69 e13d
-0.12262448 0.016438097 -0.12852089 0.110064
