RLSnake/model/mapowanie.pth (torch, 109660 bytes, 6 tensors)

weight f4 [128, 73]
00000000: 256b f5be d5ac e7be 95a6 fabe 5e54 443e
00000010: 0035 6e3e d274 a3be 24b1 b8bd f4c8 c9be
00000020: a574 943d 7192 8dbe 566c 27bf 909d febd
00000030: 1e4d 593d 6ca4 99bd a273 873d 1801 253e
00000040: 59bf 623d 6503 e1bd 87f3 70be 48f3 46bd
00000050: fe7d cfbd 2ba4 98bf d8c7 1cbe 24d0 36bf
00000060: 278e a63d 164c cfbd 00dc 3bbb 686e 9bbd
00000070: f3c4 893d c304 d53d c144 e53d 1bb6 8a3d
00000080: 2911 de3d b14f d5bd b31e e7bd 808b 5a3a
00000090: 3ad9 c7bd 505a d5bd e8bc 4c3c e979 d13d
000000a0: fab8 85bd 9cac 68bd 3d35 9bbd 14b2 29bd
000000b0: 9d55 e7bd 89b7 823d 2f85 70bd b878 24bd
000000c0: d9ce 0c3c fa78 a0bd ef83 d23d 42ad 3dbd
000000d0: e421 ae3c b47b 0dbd e836 6dbc 24f2 ed3c
000000e0: 7d8e 9e3d 3808 09bd fd90 a43d 8192 ae3d
000000f0: a04d 20bb cc00 b03c 82b8 04bd 3810 b3bd
00000100: 1671 2a3d 9d4a 8a3d 1933 803d e01d 383b
00000110: fef0 533d 556e c23d e61b 583d 60d8 033b
00000120: 6846 15bd aff8 b03f b405 3bbf 60b8 babe
00000130: 8f5d 9bbd 520b 15bf c2e5 4b3f b199 d23d
00000140: bcc3 6cbf 2a21 a9be c15d 173d b039 75be
00000150: aecc 863d e359 d1bd 7059 f5bc 5330 92bf
00000160: 0aaa edbe 3527 cf3e 6f5f 58bf e190 adbd
00000170: f319 f6bd 6966 a63d 949b a73e 302a ebbd
00000180: bcfa 9abf 8769 8c3d 5009 c63b dcfe f83c
00000190: 103c f5bb 5c11 bfbd 08d0 10bc b207 87bd
000001a0: 814c a1bd 3116 75bd e02a 993b 1e3b 593d
000001b0: c466 893c ba3e e3bd 50b4 1ebc 88ea 533c
000001c0: 036a 8b3d c828 1c3c f676 263d 6c65 fb3c
000001d0: 953e 833d 6c5f 943c 874d 893d 28c6 003c
000001e0: 3745 bb3d a355 563d 2bdc b4bd ba84 3e3d
000001f0: 90fc ef3b 6389 dd3d 0cf3 d93c fefc 00bd
00000200: 2128 bb3d 63f3 63bd 18cc d6bc 1fed c23d
00000210: d8e1 463c 1212 4f3d 10a8 c2bd 2c53 d9bd
00000220: 63fc 843d c2a8 733d 98c9 3dbd 7b5f b23d
00000230: 6865 cdbc 0a11 a5bd 5896 3e3c 5821 39bc
00000240: 60dd 3b3b 9322 de3d 5f3c 03bf 2344 9ebb
00000250: b206 46be 82ed 41be 0621 5ebe f1aa 95bc
00000260: f2c6 35be 28d4 35be ee78 893e 2641 9cbe
00000270: daae 7c3e 80db b03e 3378 ecbd 7e4f b9bd
00000280: 8a57 62be b757 72be e6b1 c6be 7fe6 52be
00000290: 4346 6d3e 5a16 17be 93f1 8abd ab76 91be
000002a0: 6556 cf3d ff22 b9be bc1e a93c c8b0 cbbc
000002b0: 80dc 403a a0e0 2bbc 6df4 b43d a897 59bd
000002c0: ffb8 d3bd 54f9 37bd 6ac8 393d d0d3 863b
000002d0: 11a9 933d 0bb3 c93d 2674 023d 9e76 07bd
000002e0: 4fb6 d03d 10b5 6abd 04c0 a93c 94f6 f43c
000002f0: f09f 59bd 5570 843d 9094 1bbd 40d2 6abb
00000300: c69d 6d3d a220 97bd 223b b83d b02b d9bd
00000310: 8b73 ef3d a0b7 58bc e658 e3bd 3061 e6bc
00000320: 28fc 543c 475a eb3d fdd9 bdbd 43fa 9d3d
00000330: bf05 babd 02fa 4b3d d810 753c 03d2 c2bd
00000340: b550 b63d c477 b2bd e2e5 353d 913e 86bd
00000350: 1464 d33c 7da8 b3bd 0e9d 42bd 80e6 353a
00000360: fa71 53bd 4f4e 9f3d f691 29bd b417 4abd
00000370: 7a89 8dbd 9d12 f93c c39b 0c3d 7580 01bd
00000380: 78fd 96bd 885b 16bd 6ffb d9bc 86a0 e7bd
00000390: 427e abbd 4843 efbd a182 873d 9277 b6bd
000003a0: fc22 8b3c 065b 443d cce5 d3bc 22b4 3b3d
000003b0: 8462 ebbc df17 bfbc 0c55 883d d2c3 e8bc
000003c0: 6c22 babc fbc5 68bc e595 21be f542 973d
000003d0: f070 9cbc 55bc c6bd 603c a8bd 24aa ebbd
000003e0: b0b5 82bb ffdf 66bd 8755 c53d 250f be3d
000003f0: 8e26 043d 156e e13d f605 583d 62f1 403d
-0.47933307 -0.45249048 -0.48955217 0.19172809 0.23262405 -0.31925064 -0.09018162 -0.39411128
0.07248811 -0.27650788 -0.6539968 -0.124323964 0.05305206 -0.07502064 0.06613852 0.16113698
0.055358265 -0.109869756 -0.23530398 -0.048571855 -0.10131453 -1.19251 -0.1531061 -0.7141135
0.08132582 -0.10121934 -0.0028665066 -0.07589418 0.06727018 0.10401299 0.111947544 0.06773015
0.10843117 -0.104155906 -0.11285152 0.0008336827 -0.097582296 -0.10417616 0.012496211 0.10228331
-0.06529422 -0.056805238 -0.07578514 -0.041429594 -0.11295626 0.06382663 -0.058720764 -0.04015419
0.008594238 -0.078355744 0.102790706 -0.04630781 0.021256395 -0.0345418 -0.014478423 0.029046126
0.07742021 -0.033455104 0.08035467 0.08524037 -0.002446033 0.021484755 -0.032402523 -0.08743328
0.041611753 0.067525126 0.06259746 0.0028093979 0.0517435 0.094937004 0.05276098 0.0020117983
-0.036444098 1.3825892 -0.7305558 -0.36468792 -0.07586204 -0.582204 0.7964746 0.102832206
-0.92486167 -0.33033115 0.036954645 -0.23947787 0.06582008 -0.10222223 -0.029949874 -1.1420997
-0.46418792 0.404596 -0.8452062 -0.08474899 -0.12016668 0.08125002 0.32735884 -0.11482656
-1.2107768 0.06856065 0.0060435906 0.030394964 -0.0074839666 -0.09329483 -0.008838661 -0.06593265
-0.0787592 -0.059835616 0.0046743006 0.053034894 0.016772635 -0.110959485 -0.009686545 0.012934335
0.068073295 0.009531207 0.040640794 0.03068801 0.06408421 0.018111907 0.0670424 0.007859744
0.09144061 0.052327763 -0.08831056 0.046513297 0.007323809 0.1081722 0.026605152 -0.031491272
0.09138513 -0.055652034 -0.026220366 0.095178835 0.012138806 0.050554343 -0.09504712 -0.10611567
0.064934514 0.059487112 -0.046334833 0.08709618 -0.025072768 -0.080598906 0.011632524 -0.011299454
0.0028665885 0.10846438 -0.51263994 -0.0048299 -0.19338492 -0.18938258 -0.21692285 -0.018269988
-0.17751673 -0.17756712 0.26850075 -0.30518454 0.24676076 0.34542465 -0.11546364 -0.09048365
-0.22103706 -0.23666273 -0.388076 -0.2059574 0.23171334 -0.1475462 -0.06784358 -0.2841085
0.101239 -0.36159512 0.020644538 -0.02486457 0.0007357076 -0.0104905665 0.08835683 -0.053123146
-0.103380196 -0.044915512 0.045357145 0.0041146055 0.07209981 0.09848603 0.03184905 -0.033072107
0.101910226 -0.05730158 0.020721443 0.029902734 -0.053131044 0.06466738 -0.037983477 -0.0035830885
0.058011793 -0.07379271 0.08995654 -0.10604036 0.1169196 -0.013227373 -0.111009404 -0.028122514
0.012999572 0.114918284 -0.092700936 0.07713749 -0.09083127 0.049798973 0.014957629 -0.09512713
0.089021124 -0.0871425 0.044408686 -0.06554902 0.025804557 -0.08772371 -0.04751306 0.0006938949
-0.05162237 0.07778608 -0.041398965 -0.04933901 -0.06910987 0.030404383 0.034328233 -0.031616647
-0.07372564 -0.036708385 -0.02660915 -0.11309914 -0.08373691 -0.11682755 0.06616712 -0.08909525
0.016984455 0.04793837 -0.025866412 0.045826085 -0.0287335 -0.023326812 0.066568464 -0.028413687
-0.022721492 -0.0142073585 -0.15779836 0.07385818 -0.019096822 -0.0970389 -0.082146406 -0.11507061
-0.003988944 -0.056365963 0.09635454 0.09280232 0.03226333 0.110073246 0.05274006 0.0471052

bias f4 [128]
00000000: d9a5 f5bc 2065 053f 994f cabe 41d1 dfbd
00000010: e6f9 cabe 710d 26be 81ce 1fbe c56a febe
00000020: 5a34 7cbe cee4 9dbe d931 65be ee16 3cbe
00000030: f8f5 3bbe bd82 75be c04b 5fbe 5bee c6be
00000040: 793c 40bf 6a98 833c c27c 45be ad0b eabe
00000050: dac1 f7bd 54c1 fb3e e852 02be 7c43 41be
00000060: b97f 54bd 2a97 85be ffcb 00be 73e8 203e
00000070: 051b 42be fe35 2ebf 99c2 1cbe e755 5fbe
00000080: 5be6 02bf f6d2 4cbe 2e55 893e 9af7 88bd
00000090: bb5b 90bd 687f 64be 09b9 2ebd d26b 1cbe
000000a0: 0dc5 54be 2e18 703e cfd7 50be 0d9b 9ebe
000000b0: 2ad3 39be ac85 d2be 70eb 28be 0a02 20bd
000000c0: 476f 0a3f 0ae7 91bc 0eb4 f4be fcc0 0ebf
000000d0: 4d11 74be 6703 46be 81d6 86be 021c 1dbe
000000e0: 2d26 b93d 3d8b d5bd b3e6 f2bd d3ba 3fbe
000000f0: 9d74 cabe bffe 22bf 6ae6 debd 4743 3cbd
00000100: 2761 cebe 3a80 32be 41de 26be b92d 89be
00000110: b415 3cbe c2b8 eabd 30dc d7be dd49 b2bd
00000120: 03eb 45be 5ede d7be 8fd2 b5bc ec5b 92bd
00000130: 8b29 00be adbf 45be 0234 81be 2e4a 31bf
00000140: 62c4 6dbe 82ff bebd da68 91bd d54c 5abe
00000150: 9c1a e9bd 8535 bcbd c80d 22be 3e76 a2be
00000160: 6360 1f3d d058 71be 4a3c bd3d d7ab 53be
00000170: 0ce4 a0be e447 7b3e f913 0bbe f5ba 70be
00000180: b0a9 14be ab50 22be 7168 de3d c96d 29be
00000190: 124d cebe 6dbb 30be a5aa 01be 8eaf ccbe
000001a0: a2b7 3ebe 132a 84bc fb7a 1fbf 4456 e7bd
000001b0: c8a5 4dbe 28ec f7bd db9c d1bd d980 4abe
000001c0: be3a 46bf 0127 8c3e bb1a fbbe efdb efbe
000001d0: 0b40 b2bc c214 b8be f2f4 dcbd ed97 33be
000001e0: f0dc 29be 2f19 65be 2713 1cbe e8b0 44be
000001f0: c883 f7bd 30d1 42be 00f4 c7bd 8f30 bcbe
-0.029986309 0.5210743 -0.39513853 -0.10928584 -0.39643782 -0.16216065 -0.15606119 -0.49690834
-0.24629346 -0.30838627 -0.22382297 -0.18368122 -0.18355548 -0.23975654 -0.2180624 -0.38853726
-0.75092274 0.016063888 -0.19285873 -0.45712033 -0.12097521 0.49170935 -0.12726939 -0.188734
-0.05187962 -0.26091892 -0.12577818 0.15713672 -0.1895562 -0.68051136 -0.15308608 -0.21810113
-0.51132745 -0.2000235 0.268228 -0.06687851 -0.07048746 -0.22314227 -0.042656932 -0.15275505
-0.20778294 0.23446724 -0.20394824 -0.3097767 -0.18146959 -0.4111761 -0.16496062 -0.039064445
0.54076046 -0.017810363 -0.4779362 -0.5576322 -0.23834725 -0.19337235 -0.26335528 -0.15342715
0.090404846 -0.10426948 -0.11860409 -0.18723612 -0.39542094 -0.6366996 -0.10883792 -0.0459626
-0.40308496 -0.17431727 -0.1629572 -0.26792696 -0.18367654 -0.11461021 -0.42160177 -0.087054946
-0.19327931 -0.4216184 -0.022195129 -0.07146439 -0.12515847 -0.193114 -0.2523499 -0.69253814
-0.23219445 -0.09326078 -0.07100077 -0.21318372 -0.113820285 -0.091898955 -0.1582557 -0.31730837
0.03891028 -0.23569036 0.09240015 -0.2067102 -0.31423986 0.24539143 -0.13581838 -0.23508818
-0.14517856 -0.15851085 0.10859764 -0.16545786 -0.40293175 -0.17258997 -0.12662752 -0.39977688
-0.18624738 -0.016133344 -0.6229703 -0.11295751 -0.20082772 -0.1210559 -0.10234996 -0.19775714
-0.77433383 0.27373508 -0.4904383 -0.46847484 -0.021759054 -0.35953337 -0.10788907 -0.17538424
-0.16588187 -0.22372888 -0.15241681 -0.1920811 -0.12085682 -0.19025111 -0.09763336 -0.36755797

weight f4 [128, 128]
00000000: 9ff8 f53d c353 e3bc d05b 78bd 7c9d 8a3c
00000010: 11e9 e03c 1ceb 0b3d ded4 1a3d ed8a a5bd
00000020: 576c a63d c8b7 11bd 401a 1abc f44b 043d
00000030: 80e4 a1bb d683 a6bd 658c 54bd eabb 6cbc
00000040: 001e 273a b898 10be bf9b 0ebd 6805 21bc
00000050: 90a0 f03c 5449 8f3d dea8 d33b 29d5 a03d
00000060: 92f3 1bbd 5e39 583d 114a 833d d88e 64bd
00000070: 2e39 1d3d 41a6 a3bd 1ee8 94bd 45b8 60bd
00000080: e2e0 3dbe 89a8 823d 101e d03c 0b66 20bd
00000090: 8022 423b ecd0 053d 5013 8cbd d451 b2bd
000000a0: 1134 993d 0827 9fbd 7634 11bd 3f20 b1bd
000000b0: 340f 9b3c c897 17be 88f0 59bc 38cb 50bc
000000c0: 32a1 85bd 8564 90bd 4ab5 adbd 9cc2 9d3c
000000d0: ae6f 82bd 4817 cdbc bc36 933c c67c 6e3d
000000e0: fcfc 2f3d 7137 ab3d 9afa 393d 30e1 983c
000000f0: c00d 2f3c 69b7 8abd d058 933d 25d4 a03d
00000100: 8c39 8ebd cf34 a83d 2ff9 5bbd 0e18 6a3d
00000110: 6f6c a73d 6849 8abd 0c84 10bd 68eb 183c
00000120: 08d9 9c3c 9da6 39bc d68d 743d 0041 80bc
00000130: 3534 a83d dbcf 803d 8e5d 8dbd acc2 033d
00000140: 0899 9b3c 6b60 9abd 3779 2ebd cdd4 d1bc
00000150: 6506 c73c 08b9 2ebd a452 f43c 3c3f 863c
00000160: 2992 ccbc e03e a2bd 67d8 393d 0029 06bc
00000170: 6859 75bd 92f8 af3d 82ea 323d 3ef5 7d3d
00000180: 8e68 623d 87b0 c5bc 7d3b 9ebc 5cba b73c
00000190: 81b4 12be 18bd 943d 1e88 a0bd 5c79 88bd
000001a0: 08ea 7e3c 9863 973c 8787 9b3d 5172 913d
000001b0: 3725 c4bd cbf5 8d3d 8bf2 adbb e043 7cbd
000001c0: 8da7 af3d 1fab 86bd 8c22 2ebb 9c0d cfbc
000001d0: 0f48 cabd e564 c8bd 0d92 9c3d 48b8 4ebd
000001e0: ec4a be3c 0e48 1abd c516 b43d 740c cebd
000001f0: beca 88bd 1730 92bd 9443 75bd f196 abbd
00000200: 286d 7ebd 511e bcbd 76d8 68bc 1f77 863d
00000210: bc3a 59be e52f fa3d 71ae 87bc 5671 91bd
00000220: ac22 ab3d 1d8d 8dbc 4dd8 c5bc acad 0d3e
00000230: a535 dabd f6db 51bd 2ec4 ba3d f24e 1fbe
00000240: ffdd 66be ec05 6fbe dbf0 db3c 27fa 993d
00000250: fa78 35bb 7d78 213e 3153 45bd 6212 ffbc
00000260: 0a2a 443c abfd c7bc 0a88 b2bd 8972 13bc
00000270: 1a0f 9e3d b0e8 1cbe 442e 0f3d 35db 8fbc
00000280: 7f1f 24be d7fc 9d3a e0cf 6abe 4c74 e2bd
00000290: ca40 883c a4cc b9bc 81ea 233d f795 a6bd
000002a0: ac2e f83c e18c 11be 6999 253d e2b1 8ebe
000002b0: da01 503e 4c76 9cbd bd29 09be 2eed b4bd
000002c0: 9774 3ebd 9974 103c e6a6 1e3d 0ed8 b63c
000002d0: c812 60bd a75b 5abd ff8a 27bd cb2e d83a
000002e0: 04c7 173e 86df 083d f1a7 f3bd 6be2 32bd
000002f0: 3a82 4ebe a949 b6bd 4219 1ebe b1f0 a0bc
00000300: ee88 9dbc e6e9 1fbe db68 61be 3608 6fbd
00000310: 2748 3b3d 9e0b bdbc 9403 9b3d c299 06bd
00000320: d84d 0fbe b76e 6bbe f00d 853b 067a 82bd
00000330: 68a9 04bd 2ea0 3abe 1175 713e be00 e73d
00000340: 4a00 b63c 2568 3c3e c539 2dbc 5b56 d9bd
00000350: 7d6c 8d3c 2ac4 693d 27c2 97bc 65f6 3dbe
00000360: e4c3 74be cb65 d9bd 5c59 d4bd 006e 10be
00000370: 404b 1ebe dc53 363d bdc6 78bd 743f febd
00000380: b976 923d 91e6 98bd bcfe 52be 1e30 823b
00000390: 5e2d 34be 2c23 943b 4356 783c 3341 9abe
000003a0: f305 7bbd e5e5 a2bc 6bc3 6dbd fb9a c3bc
000003b0: cfeb 37be 18cd debc 5c3c e1be ee0c 3bbd
000003c0: 7fc1 82be 4d5e 89bd 698c 2cbc 74bf d8bd
000003d0: 7065 833c f3cd e4bd 61f9 ce3d c2ac 19be
000003e0: 93a4 253c 982c 1fbe 824b 7d3d 0ddc 2d3c
000003f0: c588 2a3c 3148 7ebd f23e bfbd ab93 10be
0.12010311 -0.027749902 -0.060634434 0.016920798 0.027454885 0.034159765 0.037800662 -0.080831386
0.08126133 -0.035575658 -0.009405673 0.032298997 -0.0049405694 -0.081306145 -0.051891703 -0.014449099
0.0006375015 -0.14120758 -0.0348165 -0.009827949 0.029373437 0.06996408 0.0064593395 0.07853157
-0.038074084 0.052789085 0.064106114 -0.05580029 0.03838461 -0.07990695 -0.07270835 -0.054863233
-0.18542817 0.06379802 0.02540496 -0.039159816 0.0029622614 0.032669947 -0.06839621 -0.08707014
0.07480634 -0.077711165 -0.03545042 -0.086487286 0.018928148 -0.14803994 -0.013301976 -0.012743764
-0.06524886 -0.070504226 -0.08481844 0.019257836 -0.063689575 -0.025035515 0.017970435 0.058224462
0.042965874 0.08360184 0.045405008 0.018662065 0.010684431 -0.06773264 0.07194674 0.07852963
-0.0694457 0.082131974 -0.053704437 0.057151847 0.08174979 -0.067522824 -0.03528218 0.009333469
0.019146457 -0.011331228 0.059705578 -0.015655994 0.08213083 0.06289645 -0.0690261 0.032168075
0.01899387 -0.075379215 -0.04259607 -0.025614167 0.024295041 -0.04265693 0.029824562 0.016387574
-0.024972038 -0.07922149 0.045372393 -0.008188486 -0.059899718 0.08592333 0.043680675 0.06200146
0.055275492 -0.024132026 -0.019315476 0.02242773 -0.1432667 0.07262629 -0.07838462 -0.066637725
0.015558727 0.018480107 0.07594209 0.07101882 -0.09577411 0.06931647 -0.0053084544 -0.06158817
0.0857688 -0.065756075 -0.0026570885 -0.025275044 -0.09877025 -0.09784869 0.076450445 -0.050468713
0.023229085 -0.037666373 0.087934054 -0.10060969 -0.06679295 -0.07138079 -0.0598789 -0.08378399
-0.06211582 -0.0918547 -0.014211765 0.06565689 -0.21213812 0.122161664 -0.016562672 -0.07101695
0.083562225 -0.017279202 -0.024150992 0.13835782 -0.10654763 -0.05123516 0.091194496 -0.15557459
-0.22545622 -0.23342103 0.026848247 0.07518416 -0.0027690516 0.15768619 -0.04817504 -0.031136695
0.0119729135 -0.02441295 -0.08717354 -0.008999475 0.07717724 -0.15323138 0.03495623 -0.01756058
-0.1602764 0.0012053502 -0.2293086 -0.11057338 0.016632456 -0.022680588 0.040018562 -0.08134072
0.030295692 -0.14213897 0.040429506 -0.2787009 0.20313206 -0.07639751 -0.13394828 -0.08834301
-0.046497907 0.008816862 0.038733386 0.02231982 -0.05470541 -0.053310063 -0.04090404 0.0016493438
0.14822012 0.033416294 -0.11897267 -0.04367296 -0.20166865 -0.08900768 -0.15439323 -0.01964602
-0.019230332 -0.15616569 -0.22012655 -0.05835744 0.045723107 -0.023076829 0.07569042 -0.03286148
-0.13994539 -0.22991453 0.0040604994 -0.063709304 -0.03238812 -0.18225166 0.23579814 0.112794384
0.022216935 0.18399103 -0.010572855 -0.10612174 0.017263645 0.057071842 -0.018525196 -0.18551023
-0.23902851 -0.106151186 -0.103686064 -0.14104462 -0.15458393 0.04451357 -0.060736407 -0.124144465
0.07151551 -0.07465852 -0.20604986 0.003973021 -0.17595431 0.0045207944 0.015157285 -0.30127868
-0.06128497 -0.019885013 -0.058047693 -0.023877611 -0.17961048 -0.027197406 -0.43991363 -0.045666628
-0.2553825 -0.067074396 -0.010531523 -0.10583392 0.01603958 -0.11172094 0.10106159 -0.15007308
0.010110038 -0.15544355 0.061839588 0.010611546 0.010408585 -0.062080566 -0.09338178 -0.14118831

bias f4 [128]
00000000: 678c 62be 6c2b 95be b34d cabd 5237 ecbd
00000010: 3895 1fbe 6dd7 59be 4df0 4cbe 571c 9bbd
00000020: ca37 5cbe e613 21be 645d 05be 7ff4 de3e
00000030: fe3c 84be 97cd 90bd 3eb8 72bd 5156 02be
00000040: 80a1 473d 650c 9e3a d9ae 22be 8216 7abc
00000050: e0d1 48be adf8 03bf 868f 99be 77c8 75be
00000060: 396d b0bd eb0e fa3e eef8 81bd 34c0 2dbe
00000070: 43c3 16be f27e 20be e7c8 3fbe 453e efbe
00000080: 50d5 15be 0204 b0bd ae27 893e fff7 82bd
00000090: 8f1d 44be a504 4cbe 0b2c a8be 318e e9be
000000a0: 9830 6dbd 341f 87bc f7a1 35be 00f0 23be
000000b0: 7b53 bcbd 6dd5 69bd 8c2b 053f 86c7 a3be
000000c0: f8a1 f3bd 9c3c 28be dda7 8fbe 532b 64be
000000d0: 740e 07bf f056 93be f5a6 dbbd 952a 33be
000000e0: b934 5abe 5a7b 2fbe f65a c5bd 9854 9abd
000000f0: 7968 833f 4e27 35be ff48 36bd b261 30be
00000100: de83 a9be 08a2 01be 3094 b0bd 9adb ca3e
00000110: f6b7 dabd e1e4 15be cd46 9ebe c598 3cbe
00000120: dfed 2fbe 3327 e9be 87dc 41be ab26 84be
00000130: ae0f ddbd 64d8 26be 9fc6 2abe f0fe 5cbe
00000140: 3dde a3be 4395 27be 138f 50bd 1411 0abe
00000150: cabf 4a3e 0889 85be 0c36 b93d 417e 13be
00000160: 5412 12bf bd9c 84be ab80 66bd 3841 1bbe
00000170: 92f6 adbd f869 4cbe b265 23bf fc47 0fbf
00000180: 8da9 dbbd e8ba dabe a32f bebd 5e7d 92be
00000190: 8144 2abe d34c d6bc 5717 043e c9f9 62be
000001a0: 7852 2dbe ca06 80be 318f 6bbd 853b 22be
000001b0: ff25 59be 686e 2bbe fb8b e5bd 2452 c6be
000001c0: f92e b8bd 25e3 d2bd 9f80 0cbe 314b 50bd
000001d0: f98b 68be dd8b 10bf a082 1abe 3ba8 a1bd
000001e0: 2ce0 acbe f7b4 dbbd cff0 01be fab8 11be
000001f0: ca2d 5abe b4c7 1bbe 19ee 50be a415 d7bd
-0.22123872 -0.2913469 -0.09878101 -0.11533989 -0.15584266 -0.21273585 -0.20013542 -0.07573765
-0.21505657 -0.15730247 -0.13023907 0.4354591 -0.25827783 -0.07070463 -0.05925774 -0.1272824
0.048738003 0.0012058137 -0.15887012 -0.015264155 -0.19611311 -0.51551324 -0.29992312 -0.24002253
-0.086145826 0.48839507 -0.06346308 -0.16967851 -0.14722924 -0.15673426 -0.18728982 -0.46727195
-0.14632154 -0.085945144 0.26788086 -0.06394958 -0.191519 -0.19923647 -0.32846102 -0.45616296
-0.05790767 -0.016494371 -0.17737566 -0.16009521 -0.0919561 -0.057088304 0.5201957 -0.31988162
-0.118961275 -0.1642937 -0.28057757 -0.22282152 -0.5275643 -0.28777266 -0.10725204 -0.17496713
-0.21309175 -0.17136899 -0.0963649 -0.07535666 1.0266258 -0.17690775 -0.04450321 -0.17224768
-0.3310842 -0.12659466 -0.086220145 0.39620668 -0.10679619 -0.14638092 -0.30913392 -0.18417652
-0.17180584 -0.4553772 -0.18931781 -0.2581075 -0.10794006 -0.16293484 -0.1667733 -0.21581626
-0.32005492 -0.16365533 -0.050917696 -0.13483077 0.19799724 -0.2608111 0.09043512 -0.14403631
-0.57059216 -0.25900832 -0.05627505 -0.15161598 -0.08494295 -0.19962299 -0.6382705 -0.55969214
-0.107256986 -0.42720723 -0.0928643 -0.28611273 -0.16627695 -0.02615968 0.12899528 -0.22165598
-0.1692599 -0.2500518 -0.057509605 -0.15843017 -0.212059 -0.16741335 -0.1120834 -0.38734543
-0.08993334 -0.10297231 -0.1372094 -0.050852958 -0.22709645 -0.56463414 -0.15088892 -0.078934155
-0.3376478 -0.10727876 -0.12689517 -0.14230719 -0.2130653 -0.152129 -0.20403327 -0.105021745

weight f4 [4, 128]
00000000: 52a4 7d3c def4 a93c 9841 803c 8db8 54bd
00000010: c662 6fbc 3da1 79bd 8ba9 96bd 45b9 a8bd
00000020: 58bc 5b3c fbff 47bd 2f89 d13b 0ef5 20be
00000030: d8f4 babe 325c 1e3c 6794 70ba 0fff 913a
00000040: b25e 1f3f 223e 56bd 5758 81bd 8516 233d
00000050: e6ef 8a3b 96a5 9eba 3f8d 3f3c 1483 ce3c
00000060: b85f 853d 21b8 60bd c6b4 d6bd 183d fbbe
00000070: 974c 2a3d ca0e 92bc 6926 3f3d 4f6c 41bd
00000080: af92 173d 6ed7 ee3b 3145 a33d 3fc2 fa3d
00000090: 01c9 4a3c d8f5 e3ba a668 633e 1893 d7be
000000a0: 66bb 4f3d 6e7b b9bd 8819 4f3d 6622 6d3d
000000b0: bc5d 683a ee6b 1ebd 542f c53d 549f 92bd
000000c0: 3a5f 99bd 95b5 e2bd 4154 b7bc da6b 453a
000000d0: 629a 0b3e c308 2ebd 0bfa db3a bc4a eebb
000000e0: f457 313e 6d2b 82bd 4d58 f03c e10f 8a3c
000000f0: ae16 303a 47e8 92bd 24e1 383d 18ff 9b3c
00000100: cbeb 5abf 4319 6fbc f120 b33d 549e 33be
00000110: 0bf3 3abc 7f9c d2bb 7657 633e 630a 4dbc
00000120: c6d9 8e3d 0b83 263c e63e 6f3c 08ff af3d
00000130: 2275 da3d d0f0 143e 8a7b 893e 2b1b 9a39
00000140: 2778 d1bd a7d7 3fbb c8ab 823d 98c8 993c
00000150: 5378 81be cb69 523d 0ed5 df3b 1db4 d9bc
00000160: a74b f9bd 34be b4bc 8f6c 63bc 5a8e 953c
00000170: d363 753a 8c1a 403d 7e5c 853d d602 ca3b
00000180: a7ec 333d f1e4 39be 3e03 3dbd ac82 6bbb
00000190: 0a0e 613e ed53 36bb 08dc 98bd 8084 45bd
000001a0: cac2 d2bd 434e 7d3b 199b 033c c1c3 613d
000001b0: b339 a4be 4d75 02be 6f05 b83d 7172 673e
000001c0: 4f5d 603d e83a 1dbd b542 593e 288b 573d
000001d0: 6477 4cbd be5b 503d 8e63 c5be 244c 88bd
000001e0: 0ed2 cfbd 8e35 eb3c d449 583d 643e 383b
000001f0: 2dda cfbc e37a 1e3d 31b0 743d c01b 9dbc
00000200: 932c 793c 43e4 fa3d 932f 3fbd 0bae a3bd
00000210: dd18 583d 32ef c33b d50a 18bc 24db e93c
00000220: c194 743c d65d 2e3d 6f4e 2abc ce95 113e
00000230: a9ab 803d 4d37 ca3d 22fd 90bd 3468 8cbd
00000240: 7eb2 3ebe 6ca8 89ba eb0e a63c c2c0 893d
00000250: 0de0 ecba 4744 55be 8dfe fa3c 76e6 33bd
00000260: 319a 2e3d 8ce5 97be d73e fabc 68cc acba
00000270: 9cf8 82bd 924c 98bc 6ba7 b0bc fced 263f
00000280: e684 f3bb 5202 2dbd f454 413e 6fac febd
00000290: 156b e13c 4f38 e03c bfbd f4bc 5080 163e
000002a0: fbb2 663a 6955 02bd cfb8 033d 9231 7f3c
000002b0: 9478 dc3c ca32 f5bb 634f 68be 7a37 69bc
000002c0: 1424 383c 13a7 fc3b e8e6 25bc 0e02 ff3d
000002d0: ee9a 04bd afe1 793c b638 fcbc b2ac b53b
000002e0: 3e9c f8bd bc24 57be 2db3 1b3d 00e7 84bd
000002f0: e710 93be e5f8 60be b4fd 9abc f9f3 05ba
00000300: 1294 ecbc ec89 6abd b8de b43c 08fc 03bd
00000310: 885d 8a3d 4818 75bc 463a 8d3c 8757 b63c
00000320: 5009 2abe 1c57 00be ad6c 0fbd a6cb f0bc
00000330: a2df 993d d33d 5ebc 1002 94ba 3f9d 45bc
00000340: c07a e1bc 36db 223d ee3d b23d f443 73bd
00000350: 1305 2fbd 889d 1bbd 7272 3f3f 781d 7b3c
00000360: 54c5 50bc 7d13 a3be 3add b2bc 1d77 3dbc
00000370: 7510 3abd f108 35be 95b1 273e d832 a03d
00000380: cdac 2d3d 34e2 343d 139a aebc 479a 6cbe
00000390: 5971 fbbd b6a8 bdbc 282c d2bd d0bc 1cbb
000003a0: 4c15 72bc 3ef3 4b3f 210b d0bc e289 e8bc
000003b0: 9f92 d23d c846 24bd d2fa c539 40ac 4f3d
000003c0: 9931 65bc 398b cc3c 44aa 653d 83b1 043d
000003d0: ea80 e93d 12b6 83bd 1517 ad3c 96e4 fbbc
000003e0: 5204 8abd c78b 903c d4bc c1bc 36bc c23c
000003f0: ceaa 0fbe b497 853a f159 a1bd 90b9 49bd
0.015481072 0.020746645 0.015656278 -0.051933814 -0.014610952 -0.060944784 -0.073565565 -0.08238462
0.013411604 -0.048828106 0.0063945274 -0.15718481 -0.36514926 0.009665536 -0.0009177387 0.0011138635
0.6225387 -0.05230535 -0.063156776 0.0398164 0.004240024 -0.0012103792 0.011691391 0.025208987
0.065123975 -0.0548631 -0.104836985 -0.49070048 0.041576948 -0.017829318 0.04666749 -0.04722243
0.037005123 0.007288865 0.079721816 0.12244081 0.012377025 -0.0017391993 0.22207889 -0.4210441
0.050715826 -0.090567455 0.050561458 0.057894133 0.0008864065 -0.03867715 0.09628168 -0.07159296
-0.07488866 -0.1106979 -0.022379043 0.0007531025 0.13633111 -0.042488825 0.0016782893 -0.0072720926
0.17318708 -0.06355939 0.02933898 0.016853275 0.0006717247 -0.0717321 0.045136586 0.019042537
-0.8551604 -0.014593425 0.087465174 -0.17540866 -0.011410485 -0.006427347 0.22201332 -0.012514683
0.06975131 0.010163079 0.0146023985 0.08593565 0.106668726 0.14544988 0.26852065 0.0002939341
-0.10227995 -0.0029272826 0.06380421 0.018772408 -0.25287113 0.051370423 0.006830818 -0.026575143
-0.12172633 -0.022063352 -0.013880863 0.018256355 0.0009360883 0.046900317 0.06511782 0.006164889
0.04392686 -0.1815374 -0.04614567 -0.003593604 0.21978012 -0.002782102 -0.07463843 -0.048222065
-0.10291059 0.0038651384 0.008032584 0.055118326 -0.3207527 -0.12740059 0.089854114 0.2260225
0.054776486 -0.038386256 0.21216853 0.052622944 -0.049918547 0.050868742 -0.38552517 -0.06655148
-0.101474866 0.02871206 0.052804783 0.002811336 -0.025372589 0.038691413 0.05973834 -0.019178271
0.015208381 0.12250569 -0.04667623 -0.079921804 0.052758086 0.005979442 -0.009279926 0.028546877
0.014928044 0.042569958 -0.010394677 0.14217302 0.062827416 0.09873829 -0.07079531 -0.06855813
-0.18622777 -0.0010502464 0.020270785 0.06726219 -0.0018072143 -0.20826827 0.030638957 -0.043920957
0.042627517 -0.29667318 -0.030547542 -0.0013183476 -0.06395075 -0.0185912 -0.021564206 0.65206885
-0.007431614 -0.04223854 0.18880063 -0.12435233 0.027516881 0.0273706 -0.029875634 0.14697385
0.0008800474 -0.031819735 0.03215867 0.015575783 0.026912965 -0.007482861 -0.22686534 -0.014234418
0.01123907 0.0077103465 -0.010125853 0.12451564 -0.032374315 0.015251561 -0.03078876 0.0055442685
-0.12139176 -0.21010107 0.038012672 -0.06489372 -0.28723833 -0.21969946 -0.018919803 -0.0005109902
-0.0288792 -0.05726044 0.022078857 -0.032222778 0.06756121 -0.014959402 0.017239701 0.022258533
-0.16605115 -0.1253323 -0.03501575 -0.029393982 0.07513358 -0.013564545 -0.0011292119 -0.012061416
-0.027524352 0.039759837 0.087032184 -0.059390977 -0.04272945 -0.03799203 0.74784005 0.01532685
-0.012742359 -0.31850806 -0.021834005 -0.011564043 -0.04542585 -0.17679192 0.16376336 0.07822198
0.042401124 0.044161037 -0.021313703 -0.23105727 -0.12277479 -0.023151737 -0.102623284 -0.0023916252
-0.014775585 0.79668033 -0.025395932 -0.02838606 0.10281872 -0.040106565 0.00037761644 0.05070138
-0.013988876 0.02496873 0.05607058 0.03239585 0.114015415 -0.064312115 0.02112917 -0.030748647
-0.06739105 0.017644776 -0.02364961 0.023771387 -0.1403 0.0010192306 -0.07878483 -0.04924923

bias f4 [4]
00000000: 9892 02bf 3517 943e 1c89 a83e 14ba a23d
-0.51004934 0.28923956 0.32917106 0.07945648
