RLSnake/model/mapowanie_z_wiekszą_ilościa_przeszkód.pth (torch, 104200 bytes, 6 tensors)

weight f4 [128, 63]
0	0x3e936e2c	0.28794992
1	0x3e1cf40b	0.1532747
2	0x3ef772ca	0.48329765
3	0x3eeece81	0.46641925
4	0xbe8033c8	-0.25039506
5	0x3e20ab9e	0.15690467
6	0xbe5c8082	-0.21533397
7	0xbe48f3f4	-0.1962431
8	0xbf4bb3b6	-0.7957109
9	0xbf26d6ba	-0.65171397
10	0xbe50571d	-0.20345731
11	0xbf0a9565	-0.5413421
12	0x3dbf8488	0.0935145
13	0x3d93c7e0	0.072158575
14	0xbcd7ee60	-0.026358783
15	0x3db00b28	0.08595878
16	0x3d15a80c	0.036537215
17	0xbd51a8c4	-0.051186338
18	0x3de56466	0.1120079
19	0xbdecb9c4	-0.115588695
20	0xbd154ec6	-0.036452077
21	0x3d8126d4	0.06306234
22	0x3cd4ca98	0.02597551
23	0x3cb1a5a8	0.021685436
24	0xbde70c52	-0.11281647
25	0x3ddd00da	0.10791178
26	0xbdae8b1a	-0.08522625
27	0xbca6e8c8	-0.02037467
28	0x3dae61e0	0.08514762
29	0xbb39a800	-0.0028328896
30	0xbd5da65c	-0.05411373
31	0x3d5bd6a4	0.053671494
32	0xbdd85081	-0.1056223
33	0xbddc097e	-0.10743998
34	0xbcf34454	-0.029695667
35	0xbc383e50	-0.011245325
36	0x3d064068	0.032776266
37	0x3d63f610	0.055654585
38	0xbe8dd887	-0.2770426
39	0x3de29a14	0.11064544
40	0x3db28efc	0.08718678
41	0xbc380580	-0.01123178
42	0x3cd80050	0.026367337
43	0xbca51af4	-0.020154454
44	0xbdbfba73	-0.09361734
45	0xbcd79d14	-0.026320018
46	0xbd8772b6	-0.06613676
47	0x3d43bb10	0.04778582
48	0xbb85ccc0	-0.004083246
49	0xbdf557a6	-0.11979608
50	0x3ce4d9e0	0.027935922
51	0x3d3c90b4	0.046036437
52	0x3d09a30c	0.03360276
53	0xbdd9ea11	-0.10640348
54	0x3d07c384	0.033145443
55	0x3c824320	0.015901148
56	0xbaabdb80	-0.0013111681
57	0x3dba8be0	0.0910871
58	0xbdc0a1be	-0.0940585
59	0x3dc92bd8	0.09822816
60	0x3cdb0da0	0.026739895
61	0xbddca690	-0.10773957
62	0xbdea0aa9	-0.114278145
63	0x3dbbf689	0.09177882
64	0x3df0068e	0.1172
65	0xbe725811	-0.23666407
66	0xbdc6821c	-0.09692785
67	0xbdf7e5d2	-0.121043816
68	0xbeb150b4	-0.34631884
69	0x3baee391	0.0053371866
70	0x3d78baac	0.0607249
71	0xbd1b5502	-0.037922867
72	0xbe452415	-0.19252045
73	0xbe659a1b	-0.22422068
74	0x3e9b3913	0.30316982
75	0x3d545354	0.05183728
76	0xbcf67718	-0.030086085
77	0xbdba0a05	-0.09083942
78	0x3d00b190	0.031419337
79	0x3df51544	0.11966947
80	0x3cff3078	0.031151041
81	0x3dde2a6c	0.10847935
82	0xbdfea26a	-0.12433322
83	0xbd03471e	-0.032050245
84	0xbdcd7677	-0.10032361
85	0x3d857ea6	0.06518297
86	0xbd1819ae	-0.037133865
87	0x3bc0d4e0	0.0058847517
88	0x3d963338	0.07333988
89	0x3decb622	0.115581766
90	0x3ca2fa80	0.019894838
91	0x3da0f90a	0.078600004
92	0xbdeb6087	-0.114930205
93	0x3d6336b8	0.055472106
94	0x3df632a4	0.12021378
95	0x3daad928	0.083422005
96	0x3dbf33b6	0.09336035
97	0xbdd7678d	-0.105177976
98	0xbdbad01c	-0.09121725
99	0x3cf034f0	0.029322118
100	0xbdaeced4	-0.08535543
101	0x3d070894	0.032967165
102	0x3d99da42	0.075123325
103	0x3dfadcb4	0.12249127
104	0x3cad9ae8	0.02119203
105	0xbd90659a	-0.07050629
106	0xbd8ad5f0	-0.067790866
107	0xbd26a3b4	-0.040683463
108	0x3bfd9e20	0.0077397972
109	0xbdc19f2c	-0.09454188
110	0xbd01da6a	-0.031702437
111	0xbc9fd6d8	-0.019511625
112	0xbca77380	-0.020440817
113	0xbdbe9f06	-0.09307675
114	0xbcc5f1e4	-0.024163194
115	0x3cd0add0	0.025473505
116	0x3d4bdbc0	0.049770117
117	0xbdbfae5b	-0.093594275
118	0xbd912d35	-0.07088701
119	0x3d73b96c	0.059503004
120	0xba106800	-0.0005508661
121	0x3cf03e48	0.029326573
122	0x3d8234bc	0.063577145
123	0xbd91018b	-0.070803724
124	0xbdd6223e	-0.1045575
125	0x3d8a92f0	0.06766307
126	0xbd9a8f17	-0.075468235
127	0xbf492ea1	-0.78586775
128	0xbf062ff8	-0.52416945
129	0xbe83b339	-0.25722674
130	0x3da70768	0.081557095
131	0x3e97a733	0.2961975
132	0xbe7e8917	-0.24856983
133	0x3f051241	0.5198098
134	0x3d0d93f6	0.034564935
135	0xbe19fcfa	-0.15037909
136	0xbc3fca58	-0.011705957
137	0x3e0bebae	0.13664123
138	0xbda9ec08	-0.082969725
139	0xbd255928	-0.04036823
140	0xbcc57ff4	-0.024108864
141	0x3dd3e942	0.10347225
142	0x3da62510	0.08112538
143	0xbdeba1ed	-0.11505494
144	0xbcc7f50c	-0.02440884
145	0xbd891477	-0.066933565
146	0xbde38fb8	-0.111113966
147	0x3de997e4	0.11405924
148	0xbdfbd2f5	-0.12296096
149	0xbdd0d721	-0.101972826
150	0x3c728fb0	0.014804766
151	0x3dc37658	0.09544057
152	0xbda4e224	-0.080509454
153	0xbd6ecd40	-0.05830121
154	0x3d1f3444	0.038868204
155	0x3d288d24	0.041150227
156	0xbd31ac3a	-0.04337714
157	0x3df36e34	0.11886254
158	0x3c127b60	0.008940548
159	0xbdd0e615	-0.10200135
160	0xbde2c9e3	-0.11073663
161	0xbd5182b4	-0.05115004
162	0x3d21ca74	0.039499715
163	0xbd892c24	-0.06697872
164	0x3895052d	7.105838e-05
165	0x3d6cc410	0.057804167
166	0x3ddee7ce	0.10884057
167	0x3db5c380	0.08875179
168	0xbc5579c0	-0.013029516
169	0xbdf68933	-0.120378874
170	0x3dae7b6e	0.08519636
171	0x3dd6b950	0.10484564
172	0xbdef20ea	-0.116762
173	0xbdb4ea23	-0.088337205
174	0xbdb05276	-0.08609478
175	0x3d0fd7f4	0.03511806
176	0xbdb9e1cc	-0.090762705
177	0xbd89adb5	-0.06722585
178	0x3df8a58c	0.121409506
179	0x3c598900	0.013277292
180	0x3da8938c	0.08231267
181	0xbd3b5eae	-0.04574459
182	0xbd37f490	-0.044910967
183	0xbdb0bade	-0.08629392
184	0xbd81b24e	-0.06332837
185	0x3c9ac3f0	0.018892258
186	0x3cc128f0	0.02357909
187	0xbd914b3b	-0.07094427
188	0xbd83cb7a	-0.064352944
189	0xbe174588	-0.14772618
190	0xbdc1497a	-0.09437843
191	0xbab49544	-0.0013777395
192	0x3d241176	0.040055715
193	0xbd134ab8	-0.03595993
194	0xbdbab855	-0.0911719
195	0x3d07d2f7	0.033160176
196	0x39dc5a00	0.00042028725
197	0x3d2eefa2	0.042709
198	0xbdf1223c	-0.11774108
199	0xbd0b5cb2	-0.034023948
200	0xbd86ec91	-0.0658809
201	0x3dab157a	0.08353706
202	0xbd588ae6	-0.05286684
203	0x3d83ea10	0.06441128
204	0xbd044080	-0.032288074
205	0x3cdf8d20	0.027288973
206	0xbce8f570	-0.028437346
207	0x3d2b6e64	0.041853324
208	0x3d95ab4c	0.07308063
209	0xbc9a0158	-0.018799469
210	0xbdd7c9a8	-0.1053651
211	0xbdc2f95a	-0.09520216
212	0x3b2d0080	0.0026398003
213	0xbdf337ea	-0.11875899
214	0x3be527c0	0.006993264
215	0xbdfd8564	-0.12378958
216	0x3dc0ba86	0.094105765
217	0x3dbdb7a8	0.09263545
218	0xbced3848	-0.028957501
219	0x3cbcff48	0.023070946
220	0x3d51ab34	0.051188663
221	0x3d1a87a8	0.037727028
222	0x3c923520	0.017847598
223	0x3dfb40c0	0.122682095
224	0x3d807eec	0.062742084
225	0xbbf4fbc0	-0.0074763
226	0xbc2ffcf0	-0.010741457
227	0xbdbb2844	-0.091385394
228	0x3d04d850	0.032432854
229	0xbca0a610	-0.019610435
230	0xbd8dcb12	-0.06923498
231	0xbdddc5ae	-0.1082872
232	0x3d1e3a08	0.03862956
233	0xbc4dd3d8	-0.0125627145
234	0x3df1cca2	0.11806609
235	0x3df9078c	0.121596426
236	0xbc15c750	-0.009141758
237	0x3d787600	0.06065941
238	0x3da9c996	0.082904026
239	0xbdf7b217	-0.12094515
240	0x3dfb06a6	0.122571275
241	0xbca9233c	-0.020646684
242	0xbd79183e	-0.060814135
243	0x3b85ee00	0.0040872097
244	0xbd4321b8	-0.04763958
245	0xbd21b0c0	-0.039475203
246	0xbd5e64da	-0.0542954
247	0x3ddac2e8	0.10681707
248	0x3d7608a4	0.060066834
249	0xbcb5e898	-0.022205636
250	0xbd4da50c	-0.05020623
251	0x3d930016	0.07177751
252	0x3b2f2370	0.0026724003
253	0x3d42d294	0.047564104
254	0x3d3a2b66	0.045451544
255	0x3d9307b4	0.07179204

bias f4 [128]
0	0xbee0c666	-0.43901366
1	0xbecdaa64	-0.4016906
2	0xbe8b34e2	-0.27188784
3	0xbd80c66c	-0.06287846
4	0xbe1bae6c	-0.15203255
5	0xbe128d90	-0.14311814
6	0xbda7f15d	-0.08200333
7	0xbed818f4	-0.42206538
8	0xbe108be9	-0.14115871
9	0xbd9e511b	-0.077303134
10	0xbd940c94	-0.072289616
11	0xbe293000	-0.16522217
12	0xbe8a240f	-0.26980636
13	0xbe174b77	-0.14774881
14	0xbea7ec86	-0.3279764
15	0x3d841940	0.064501286
16	0xbd9712c8	-0.07376629
17	0xbd04c789	-0.032416854
18	0xbd15d8cd	-0.03658371
19	0xbea805b5	-0.32816854
20	0xbe6e310a	-0.23260894
21	0xbe674717	-0.22585712
22	0xbea97cca	-0.3310302
23	0x3c87dac1	0.016583802
24	0xbef259f1	-0.47334245
25	0xbe9a5bc0	-0.30148125
26	0xbdc0916e	-0.094027385
27	0xbe4df1e6	-0.20111808
28	0x3d6cfaa5	0.05785622
29	0xbe0bcd2b	-0.13652484
30	0xbf024bca	-0.50896895
31	0xbee45e22	-0.44603068
32	0xbe08e54f	-0.13368724
33	0xbea3b4e5	-0.3197395
34	0xbed9db18	-0.42549968
35	0xbd05fcca	-0.03271178
36	0xbeaf74f4	-0.34268916
37	0xbed0ee5d	-0.40806857
38	0xbf0202b8	-0.507854
39	0xbf21d22a	-0.6321131
40	0xbec8edb7	-0.39243862
41	0x3e22bb1e	0.15891692
42	0xbd8dcfb9	-0.069243856
43	0x3cf9fc5a	0.030515838
44	0xbd9f3866	-0.07774429
45	0xbc8e1bf4	-0.017347313
46	0xbe8f1f31	-0.27953485
47	0xbed4460a	-0.41459686
48	0xbeb08f16	-0.34484166
49	0xbeb4787c	-0.35248172
50	0xbe1f15f5	-0.1553572
51	0xbed3c7c9	-0.4136336
52	0xbdeab76b	-0.114607655
53	0x3d2207e0	0.03955829
54	0xbe789030	-0.24273753
55	0xbe9b84c9	-0.30374745
56	0x3b93167e	0.0044887653
57	0xbe7ff40c	-0.2499544
58	0xbe394fa1	-0.18096782
59	0xbec2b161	-0.38025954
60	0xbd851275	-0.06497661
61	0xbe1ff92b	-0.15622394
62	0xbe608ecc	-0.21929473
63	0xbdc770a2	-0.0973828
64	0xbdafb6a9	-0.085797615
65	0xbd3937df	-0.0452193
66	0x3e4842c7	0.19556724
67	0xbed8286c	-0.4221834
68	0xbe4eea90	-0.20206666
69	0x3cdbf413	0.026849782
70	0xbf85c164	-1.0449643
71	0xbe002389	-0.12513556
72	0xbe4e6aa2	-0.20157865
73	0xbd212657	-0.039343204
74	0xbef7bd72	-0.48386723
75	0xbe741c18	-0.23838842
76	0xbe40fc55	-0.18846257
77	0xbeabc91e	-0.33551878
78	0x3e48f222	0.19623616
79	0xbde3c4ca	-0.11121519
80	0xbe389ee3	-0.1802936
81	0xbe0660ae	-0.13122818
82	0xbdd8ad53	-0.10579934
83	0xbe35a80c	-0.17739886
84	0xbe93d816	-0.28875798
85	0xbe297bd9	-0.1655115
86	0xbd4180eb	-0.047242086
87	0xbeacc5f4	-0.33744776
88	0xbe4e9168	-0.20172656
89	0xbe176788	-0.14785588
90	0xbeb75ed4	-0.35814536
91	0xbdcfc45b	-0.10144874
92	0xbea99b8d	-0.33126488
93	0xbf03b08a	-0.5144125
94	0xbe8c7c8f	-0.2743878
95	0x3e092c12	0.13395718
96	0xbd953d19	-0.07287044
97	0x3d15132a	0.03639523
98	0xba8467a0	-0.0010101683
99	0xbd0aa8b7	-0.033852305
100	0xbe97a82c	-0.29620492
101	0xbea9b593	-0.33146343
102	0xbeea9b19	-0.45821455
103	0xbe8f6d81	-0.28013232
104	0xbc325167	-0.010883666
105	0xbec3399d	-0.38129893
106	0xbea7f714	-0.32805693
107	0xbd3b0787	-0.045661476
108	0xbe0a1d9a	-0.13487855
109	0xbe427e4d	-0.18993492
110	0xbd96f60b	-0.07371148
111	0x3e5dd16c	0.2166192
112	0xbdad99f5	-0.084766306
113	0xbe76e8f3	-0.241123
114	0xbf0b5201	-0.54422003
115	0xbe0c550b	-0.13704316
116	0xbf0cd01c	-0.5500505
117	0xbe6866b6	-0.22695431
118	0xbdfc4a68	-0.12318879
119	0xbe3fb248	-0.18720353
120	0xbf221d1a	-0.63325655
121	0xbe2a6412	-0.16639736
122	0xbe8c2c32	-0.27377468
123	0xbd7120c7	-0.05886915
124	0xbd393956	-0.045220695
125	0xbdace227	-0.08441573
126	0xbdcc2a89	-0.099690504
127	0xbed23089	-0.41052654

weight f4 [128, 128]
0	0xbd3e20f5	-0.04641815
1	0xbc7f5b1e	-0.015585689
2	0x3d150f7b	0.036391716
3	0xbd8ac6f6	-0.0677623
4	0xbda843d5	-0.08216063
5	0x3c5fd170	0.013660774
6	0xba996576	-0.0011703211
7	0xbdc4beab	-0.096066795
8	0xbc589d63	-0.013221118
9	0x3d935b0b	0.071950994
10	0xbd1f7520	-0.03893006
11	0xbc731a74	-0.01483785
12	0xbbd06b0b	-0.0063604168
13	0xbd2054d6	-0.039143406
14	0xbdf4d45d	-0.119545676
15	0xbd0e6fc0	-0.03477454
16	0xbdda6baf	-0.1066507
17	0xbbac177d	-0.0052518235
18	0x3d01fd34	0.031735614
19	0xbda67473	-0.0812768
20	0xbd540c1d	-0.051769365
21	0xbd53769f	-0.051626798
22	0xbda73abd	-0.081655
23	0xbd168788	-0.036750346
24	0x3d52b8f2	0.05144591
25	0x3cdb608a	0.026779432
26	0xbd87bcdc	-0.06627819
27	0x3bad2fe7	0.0052852514
28	0xbd30ce73	-0.043165635
29	0x3c850069	0.016235547
30	0xbc9ecb6a	-0.019384105
31	0x3ce0d09d	0.027443225
32	0x3d99b0bd	0.07504413
33	0x3c9fcd62	0.019507114
34	0x3b18fb52	0.0023343158
35	0x3c2af036	0.010433247
36	0x3bbbab5b	0.0057272143
37	0xbdaaf792	-0.083480015
38	0x3cbc3857	0.022976084
39	0x3d97a48d	0.074044324
40	0xbda60fc9	-0.081084795
41	0xbdcdde93	-0.10052218
42	0x3d28b125	0.041184563
43	0xbdd306e3	-0.10304048
44	0x3cb1f4e3	0.021723216
45	0xbceb0d7c	-0.028692953
46	0x3ce7afb0	0.028282017
47	0xbd67104c	-0.056412026
48	0xbd8dbfb5	-0.06921331
49	0xbd984dcb	-0.07436713
50	0x3bc5badc	0.0060342383
51	0xbd0ff140	-0.035142183
52	0xbcfff2fb	-0.031243792
53	0xbd4b1112	-0.049576826
54	0x3d198108	0.03747657
55	0xbca9c320	-0.020722926
56	0xbd5fed40	-0.05466962
57	0xbd13ac7b	-0.036053162
58	0x3cc4a3d3	0.024003899
59	0x3d4938d3	0.049126457
60	0xbdbd5fd6	-0.09246795
61	0xbbd6c334	-0.0065540317
62	0x3c173af5	0.009230365
63	0x3ccd56ed	0.025065864
64	0xbd09a7ae	-0.033607177
65	0xbcf31533	-0.029673195
66	0xbd2b0614	-0.041753843
67	0x3d836bac	0.06417021
68	0x3c369eed	0.011146289
69	0xbdaa4b62	-0.083151594
70	0x3d23ad92	0.03996045
71	0xbd8088b4	-0.06276074
72	0x3d5fc36a	0.05462972
73	0xb9f49105	-0.00046647355
74	0x3bb7ead3	0.00561271
75	0x3cd254d4	0.025675215
76	0x3c881db2	0.016615722
77	0x3c12d49a	0.008961821
78	0xbd26f7e3	-0.040763747
79	0x3bb6c0d2	0.005577185
80	0xbd9b0487	-0.07569223
81	0xbd6c67a3	-0.057716023
82	0xbba423f0	-0.005009167
83	0xbbe67be5	-0.0070338123
84	0xbdc48b61	-0.09596897
85	0xbd7080ac	-0.05871646
86	0x3d800c7c	0.06252381
87	0x3d029099	0.03187618
88	0x3c458b47	0.012057132
89	0x3cb2343e	0.021753427
90	0x3c870db6	0.01648603
91	0xbd4c3da3	-0.04986347
92	0xbcf39b77	-0.029737217
93	0xbd0caf23	-0.03434671
94	0xbd5fd902	-0.054650314
95	0xbd63220c	-0.05545239
96	0xbdab5164	-0.083651334
97	0xbcc1b21a	-0.023644496
98	0xbde01ad8	-0.1094262
99	0x3cdb7e7a	0.026793707
100	0xbd871d1f	-0.06597351
101	0xbd56a8b3	-0.052406978
102	0xbdcb3991	-0.09923089
103	0x3d884892	0.06654467
104	0xbd8fbf8f	-0.07018959
105	0x3ce384ba	0.02777325
106	0x3c66eb5b	0.014094199
107	0x3d097c70	0.03356594
108	0xbca356fb	-0.019938936
109	0xbd04c7b4	-0.032417014
110	0x3d3caa10	0.04606062
111	0xbd0783dd	-0.03308474
112	0x3ce03dae	0.027373161
113	0x3bbe934c	0.005815899
114	0xbd6eeac4	-0.05832936
115	0x3d9121ad	0.07086501
116	0xbd52edf7	-0.051496472
117	0xbcf4e127	-0.029892517
118	0xbd8cc2aa	-0.06873067
119	0xbc5d7af9	-0.0135180885
120	0xbbebe3ae	-0.0071987724
121	0x3a159b50	0.00057070423
122	0xbc9af774	-0.018916823
123	0x3c216941	0.009851755
124	0x3d6045e4	0.054754153
125	0xbdbba51d	-0.09162352
126	0xbbbb12f4	-0.0057090465
127	0x3d3b2d8f	0.045697745
128	0xbeee3048	-0.4652121
129	0xbceae513	-0.028673684
130	0xbe7f8b66	-0.2495552
131	0xbd3901d3	-0.045167755
132	0x3c9df60e	0.019282367
133	0xbd059097	-0.032608595
134	0xbca32684	-0.019915827
135	0xbc78cdca	-0.015185783
136	0x3d5de8b2	0.054176994
137	0xbcb5f4df	-0.02221149
138	0x3bf95150	0.00760857
139	0xbc615973	-0.0137542365
140	0xbd4ecf46	-0.05049064
141	0xbda841a4	-0.08215645
142	0xbe38a68d	-0.18032284
143	0x3f1be7bb	0.6090047
144	0x3da49487	0.08036142
145	0xbd99b376	-0.075049326
146	0xbdcc2cd7	-0.0996949
147	0x3e8948b1	0.26813272
148	0x3c783bf1	0.01515101
149	0xbd139c73	-0.036037873
150	0x3ef01af6	0.4689557
151	0x3ec8c0c9	0.39209583
152	0xbec10c9c	-0.37704933
153	0x3e8fe7f1	0.28106645
154	0xbbf7f08c	-0.007566517
155	0xbdceddfd	-0.10100935
156	0xbe935747	-0.28777525
157	0xbc4ba7b0	-0.0124301165
158	0x3ce304d8	0.02771227
159	0xbea5b4a6	-0.32364386
160	0x3d31af62	0.04338015
161	0x3d82b6e4	0.0638254
162	0x3e51d92f	0.20493005
163	0x3e26108e	0.16217253
164	0xbd19ed79	-0.037579987
165	0xbd54faf3	-0.051997136
166	0xbea4373f	-0.320734
167	0x3e3e5707	0.18587886
168	0x3e53e014	0.20690948
169	0xbd86a384	-0.06574157
170	0xbdcffdb0	-0.10155809
171	0xba1b5200	-0.0005925
172	0x3d9cd165	0.07657126
173	0x3d7d3791	0.06182057
174	0x3d91fe0e	0.07128535
175	0xbe84e18c	-0.2595333
176	0x3e635e47	0.22203933
177	0xbd82049b	-0.06348535
178	0xbd2c571f	-0.042075273
179	0x3f188bf1	0.59588534
180	0x3def6a1a	0.11690159
181	0xbb83c5c1	-0.004021377
182	0x3c2b573b	0.010457809
183	0xbd6658ea	-0.05623714
184	0x3bdf4360	0.0068134516
185	0x3cb821b4	0.022477008
186	0x3d442c24	0.04789366
187	0x3d7b7229	0.06138817
188	0x3da83196	0.08212583
189	0x3d944967	0.07240563
190	0x3d354b9b	0.044261556
191	0xbd4d55e6	-0.050130747
192	0xbe09931d	-0.13435026
193	0xbbf9d630	-0.00762441
194	0xbee455b5	-0.4459664
195	0x3f3ea659	0.74472576
196	0x3b6b260a	0.0035880827
197	0xbdadb674	-0.08482066
198	0xbeb41a78	-0.35176444
199	0x3d2a35a8	0.041555077
200	0x3d787e5f	0.060667392
201	0x3f31dbbc	0.69475913
202	0xbe70bcee	-0.23509571
203	0xbe29e15d	-0.16589876
204	0xbce86cb6	-0.02837215
205	0xbd0f8976	-0.035043202
206	0xbef8de9d	-0.4860734
207	0xbb4b62e0	-0.0031034276
208	0x3d2c5512	0.042073317
209	0x3d560a53	0.05225594
210	0x3cdcc98c	0.026951574
211	0x3db9b236	0.09067194
212	0xbeeee984	-0.46662533
213	0x3c9947e3	0.018711036
214	0x3d431eb0	0.047636688
215	0xbdf8cb3d	-0.121481396
216	0xbe0e3267	-0.13886414
217	0xbd38d941	-0.045129064
218	0xbeb15e15	-0.3464209
219	0xbec07e82	-0.37596518
220	0xbe148fa7	-0.14507924
221	0x3d2c66b0	0.042090118
222	0x3dbd77cc	0.09251365
223	0xbf00ed0e	-0.50361717
224	0xbd7d8376	-0.06189295
225	0x3ed05597	0.406903
226	0x3ce21baf	0.027601091
227	0x3cd88c69	0.02643414
228	0x3cd4c35c	0.02597206
229	0x3d9379eb	0.072009884
230	0x3c03071c	0.0079973005
231	0x3f093b9d	0.5360659
232	0xbad5aa00	-0.0016301274
233	0xbdb27120	-0.08712983
234	0x3c8dbad7	0.017301006
235	0xbd93a767	-0.07209664
236	0xbea3377f	-0.31878278
237	0x3ca64da7	0.0203007
238	0xbd953491	-0.07285417
239	0xbce9a1a8	-0.028519467
240	0xbc8cdfaa	-0.017196495
241	0x3d7a57e6	0.061118983
242	0xbd5ac62a	-0.05341164
243	0xbd0a306e	-0.033737592
244	0xbe1d3041	-0.15350439
245	0x3e775c0e	0.2415621
246	0x3c213fd8	0.009841882
247	0x3dc78aa7	0.09743243
248	0x3ef47f89	0.47753552
249	0x3f18278a	0.5943533
250	0xbe2e77f1	-0.17037942
251	0xbeda54ee	-0.4264292
252	0xbcf15efc	-0.029464237
253	0xbd3da3e5	-0.04629888
254	0xbced0f1b	-0.028937867
255	0xbe10d8b2	-0.14145163

bias f4 [128]
0	0xbd9b5749	-0.07585008
1	0x3d61703c	0.055038676
2	0xbe2fb852	-0.17160156
3	0xbd29bba0	-0.0414387
4	0xbf08273c	-0.53184867
5	0xbe331aa4	-0.17490631
6	0xbd7ec130	-0.062195957
7	0xbd826604	-0.06367114
8	0xbd8913e4	-0.06693247
9	0x3f38fe4d	0.7226303
10	0xbcc1a261	-0.023636999
11	0xbcf4d909	-0.029888647
12	0xbdee5631	-0.116375335
13	0x3ca308cd	0.019901657
14	0xbec4b4bc	-0.3841914
15	0xbc3ab41c	-0.0113954805
16	0xbec3fe23	-0.38279828
17	0xbec27c04	-0.3798524
18	0xbe8e7630	-0.27824545
19	0xbd91c1ae	-0.071170196
20	0xbe1ee0ce	-0.15515444
21	0xbe3637ae	-0.17794678
22	0xbde3d792	-0.11125101
23	0xbef1e886	-0.47247714
24	0xbdcf9f51	-0.10137809
25	0x3ee91915	0.4552695
26	0xbd4fd14a	-0.050736703
27	0xbed25de0	-0.41087246
28	0xbe6c3d9d	-0.23070379
29	0xbd93d8dc	-0.07219097
30	0xbf0475e5	-0.5174239
31	0xbe4f105a	-0.20221081
32	0xbd5fbe69	-0.05462495
33	0xbecc0dff	-0.39854428
34	0xbe884d91	-0.26621678
35	0x3ce87250	0.028374821
36	0xbec0e2ed	-0.3767313
37	0xbe72b117	-0.23700367
38	0xbe0b2454	-0.13588077
39	0xbe383133	-0.17987518
40	0xbe58ac7d	-0.21159549
41	0xbda776bb	-0.08176943
42	0xbe798c40	-0.24369907
43	0xbf0302a0	-0.5117588
44	0xbf04963d	-0.51791745
45	0xbe13a319	-0.14417686
46	0xbe09a20b	-0.1344072
47	0xbf16cf62	-0.5891019
48	0xbd8abc43	-0.06774189
49	0xbde6a4dc	-0.11261913
50	0xbdd30952	-0.10304512
51	0xbe217128	-0.15765822
52	0xbd95e69d	-0.073193766
53	0x3e31667b	0.1732425
54	0xbde6dafd	-0.112722374
55	0xbe5a93de	-0.2134547
56	0xbdca442e	-0.098762855
57	0xbe87f8ce	-0.2655701
58	0xbee54733	-0.44780883
59	0xbda9993c	-0.0828118
60	0xbdfd1262	-0.12357022
61	0xbf20a68a	-0.6275412
62	0xbe22eea8	-0.15911353
63	0xbe515755	-0.20443471
64	0xbd1b94c7	-0.037983682
65	0xbe62df18	-0.22155416
66	0xbdee628d	-0.11639891
67	0xbd90719f	-0.070529215
68	0xbf154a12	-0.5831615
69	0xbe062fc4	-0.13104159
70	0x3cbf614c	0.023361824
71	0xbda1014e	-0.07861577
72	0xbdf1d896	-0.118088886
73	0xbd459177	-0.04823443
74	0xbded9f2f	-0.116026275
75	0xbd19e589	-0.037572417
76	0xbdab4c7b	-0.08364197
77	0xbdd1aac8	-0.10237652
78	0xbefef163	-0.49793538
79	0xbd1bb822	-0.0380174
80	0xbdefd043	-0.11709645
81	0xbe92579e	-0.28582472
82	0xbe25470e	-0.16140386
83	0xbe5b0b13	-0.21390943
84	0xbde6b0c3	-0.11264183
85	0xbeb2ffe6	-0.3496086
86	0xbe8c6232	-0.27418667
87	0xbe77facf	-0.2421677
88	0xbe240008	-0.16015637
89	0xbdfa1345	-0.122107066
90	0xbecac8dd	-0.39606372
91	0xbdfdddfc	-0.12395856
92	0xbebfad52	-0.3743692
93	0xbf13c07e	-0.57715595
94	0xbf0165dd	-0.50546056
95	0xbe8b6f4d	-0.27233353
96	0xbe8fb432	-0.28067166
97	0xbbfce28c	-0.007717436
98	0x3d5b67f6	0.05356594
99	0xbdbc292c	-0.091875404
100	0xbe9de522	-0.30838877
101	0x3e54f973	0.20798282
102	0xbdc80f5c	-0.097685546
103	0xbd9ac138	-0.07556385
104	0xbb5bac3d	-0.003351941
105	0xbd84286c	-0.06453022
106	0xbde40775	-0.11134235
107	0x3eb179db	0.3466328
108	0xbdf2985c	-0.118454665
109	0xbe12c5f7	-0.1433333
110	0xbdaa5abd	-0.08318088
111	0xbda6f781	-0.081526764
112	0x3e0a543d	0.13508697
113	0x3eced6f9	0.40398386
114	0xbf078551	-0.529378
115	0xbee6c746	-0.4507391
116	0xbf4d9f46	-0.80321157
117	0xbd3cc129	-0.04608265
118	0xbe767192	-0.24066761
119	0xbee008d6	-0.4375674
120	0xbee28fd7	-0.44250366
121	0xbdd6d58b	-0.10489949
122	0x3d16c17a	0.036805607
123	0xbe0c11c0	-0.13678646
124	0x3f1d1853	0.6136524
125	0xbddf3d50	-0.10900366
126	0xbd0d5910	-0.034508765
127	0xbe756ab9	-0.23966493

weight f4 [4, 128]
0	0xbd1e3a22	-0.03862966
1	0xbc2eea46	-0.010675972
2	0x3d1a2128	0.037629277
3	0x3ca1ac14	0.019735374
4	0x3ece70f9	0.40320566
5	0x3e211a69	0.15732731
6	0xbc93d62c	-0.018046461
7	0xbce35fc2	-0.027755622
8	0xbd6d9c41	-0.058010343
9	0xbe315dea	-0.17320982
10	0x3d464e65	0.048414607
11	0xbd886b11	-0.06661046
12	0xbd9b7150	-0.07589972
13	0x3e81de21	0.25364783
14	0x3eaf3122	0.34217173
15	0x3f111d16	0.56685007
16	0x3df22063	0.118225835
17	0xbc890c2c	-0.016729437
18	0x3d91b8a0	0.071152925
19	0xbcbc535f	-0.022988973
20	0x3de47c03	0.11156466
21	0x3c85470f	0.016269235
22	0xbcdc80c5	-0.02691687
23	0x3e5015ed	0.20320864
24	0xbd210489	-0.039310966
25	0xbf019680	-0.5062027
26	0xbd202fdd	-0.039108146
27	0x3ef3a6bf	0.47588155
28	0x3e7da42a	0.24769655
29	0x3d25fd40	0.04052472
30	0x3ee78381	0.45217517
31	0x3cd168b4	0.025562622
32	0xbd6ffbd4	-0.05858977
33	0x3f04772d	0.5174435
34	0x3c524f56	0.012836298
35	0x3f36283d	0.7115515
36	0x400a1dc5	2.158067
37	0x3d8a730e	0.06760226
38	0xbd4790d5	-0.048722107
39	0x3cca4768	0.024692252
40	0xbdfc7876	-0.123276636
41	0xbb3c3375	-0.0028717194
42	0x3ceab72c	0.028651796
43	0x3f8e51f6	1.1118762
44	0x3dcff77e	0.10154627
45	0x3e00f358	0.12592828
46	0x3d48400f	0.048889216
47	0x3fb0d23b	1.3814157
48	0x3cb6b06c	0.022300921
49	0x3dc5b85a	0.09654303
50	0xbc27138b	-0.0101975305
51	0x3d559281	0.05214167
52	0x3ca8d147	0.020607604
53	0xbe2c8777	-0.1684855
54	0xbc263b51	-0.010145978
55	0x3b932770	0.0044907853
56	0xbd8b0fac	-0.067900985
57	0x3f238ac3	0.6388361
58	0xbd4d002f	-0.050049003
59	0x3ceb66b4	0.028735496
60	0xbd74077b	-0.059577446
61	0x3da9f8df	0.082994215
62	0x3deba4d4	0.11506048
63	0x3e6ec8a0	0.2331872
64	0xbc8e9eaa	-0.017409641
65	0x3f172817	0.5904555
66	0x3cd75a8c	0.026288293
67	0xbdba1a32	-0.090870276
68	0x3ed41b67	0.41427156
69	0xbcdfbe04	-0.027312286
70	0x3d40f684	0.047110096
71	0x3d6163a6	0.055026673
72	0x3ed9a7b0	0.42510748
73	0x3ca3c6ac	0.019992195
74	0xbcb0d3f2	-0.021585438
75	0x3c9be43a	0.019029725
76	0x3dbd8c00	0.092552185
77	0x3d0accdf	0.033886787
78	0x3f9bd601	1.2174684
79	0x3cffff7c	0.031249754
80	0x3cf217e4	0.029552408
81	0x3dbadb4a	0.09123857
82	0x3e72ed12	0.23723248
83	0x3f4575d6	0.7713293
84	0x3d5c5f52	0.053801842
85	0x3cd9e3b8	0.026597843
86	0x3f10b030	0.5651884
87	0xbc7743ea	-0.015091876
88	0xbd08e4c3	-0.03342129
89	0x3b3864d2	0.0028136265
90	0x3f3ace36	0.729709
91	0x3d7f3df3	0.06231494
92	0x3ce5d7e8	0.028057054
93	0x3f94426b	1.1582769
94	0x3ede809a	0.4345749
95	0x3dc27dc7	0.094966464
96	0x3e9f3f10	0.311028
97	0xbd93ac32	-0.07210578
98	0xbccd57fc	-0.025066368
99	0xbc54dfda	-0.0129928235
100	0x3cdbe9ee	0.026844945
101	0xbcce9330	-0.025216669
102	0xbc9f92dd	-0.01947921
103	0x3e3e4aab	0.18583171
104	0x3c027e96	0.007964751
105	0xbcde10e6	-0.027107667
106	0x3d878c72	0.06618585
107	0x3d300b6a	0.042979635
108	0x3d29449c	0.041325197
109	0xbe50c2fd	-0.20386882
110	0x3d974605	0.07386402
111	0xbb6a8948	-0.0035787392
112	0x3e8535f8	0.26017737
113	0x3d4276ef	0.047476705
114	0x3b5a689a	0.0033326508
115	0x3cae7ccc	0.021299742
116	0x3fa470f6	1.2846973
117	0x3d0c7163	0.03428782
118	0x3c4a0861	0.012331099
119	0xbef368ab	-0.47540793
120	0x3db3de4b	0.087826334
121	0xbde8ab21	-0.11360765
122	0x3e0910b1	0.13385274
123	0x3ce639e7	0.028103782
124	0xbdec910e	-0.115511045
125	0x3d1a5b06	0.037684463
126	0x3dcb9f6c	0.09942517
127	0x3e499425	0.19685419
128	0xbc98dce8	-0.018660024
129	0x3eb87998	0.3603027
130	0x3d300f9c	0.042983636
131	0x3d119c8c	0.035549685
132	0x3f0ce03e	0.55029666
133	0x3d6fb2b1	0.058520023
134	0xbb5a0f9f	-0.003327347
135	0xbd1c95b2	-0.038228698
136	0xbd4363fc	-0.047702774
137	0xbe2af566	-0.16695175
138	0x3adcccdb	0.001684572
139	0xbca85ec1	-0.020552995
140	0x3d0d6d53	0.034528088
141	0x3e06f5b4	0.13179666
142	0x3e2c3535	0.16817172
143	0x3e100731	0.14065243
144	0x3d20d581	0.039266113
145	0xbd67404f	-0.056457814
146	0xbca3802f	-0.019958584
147	0xbce317ec	-0.027721368
148	0x3d4c311e	0.04985153
149	0x3a334f0c	0.0006840087
150	0x3d8f7c6a	0.07006152
151	0xbf50c8f0	-0.81556606
152	0xbc8fddd3	-0.017561829
153	0x3cf7f169	0.03026648
154	0x3c4a7b45	0.012358491
155	0x3eabdc53	0.33566532
156	0xbc694c1c	-0.014239337
157	0x3bead866	0.00716691
158	0x3d37cf7c	0.044875607
159	0xbccd6ee6	-0.025077295
160	0x3c8b8c06	0.017034542
161	0x3ecff4cd	0.40616456
162	0xbbe8c9b6	-0.007104124
163	0x3f0bfe1d	0.5468462
164	0x3ebb26f0	0.36553144
165	0x3e0bed47	0.13664733
166	0xbd4e1652	-0.050314255
167	0x3be0fa6b	0.0068657896
168	0xbd0091cc	-0.031389043
169	0x3c510cd0	0.012759402
170	0x3bd446fd	0.006478189
171	0x3eda5e20	0.42649937
172	0xbccf137d	-0.025277847
173	0x3e9fa589	0.3118098
174	0xbc1a20d8	-0.009407245
175	0xbf0413c6	-0.5159267
176	0x3c42183f	0.011846601
177	0x3e53a37a	0.2066783
178	0x3d81a3f3	0.06330099
179	0xbb932a94	-0.0044911597
180	0x3cddc8b3	0.02707324
181	0xbdd356b8	-0.10319275
182	0xbe13776d	-0.14401026
183	0xbf0c4003	-0.54785174
184	0xbd946975	-0.07246677
185	0x3f4a0f4c	0.7892959
186	0xbe47d2a5	-0.19513948
187	0xb8c4a325	-9.376396e-05
188	0x3d7374fe	0.059437744
189	0xbd3cca20	-0.0460912
190	0x3dfc1cd5	0.12310187
191	0xbd8c0d58	-0.068384826
192	0x3ce0dbe8	0.02744861
193	0x3f04afad	0.5183056
194	0xbc734747	-0.014848537
195	0x3b3e3413	0.0029022738
196	0xbfa66eac	-1.3002524
197	0x3d916a9a	0.07100411
198	0x3cfadd3b	0.030623069
199	0x3c009911	0.007848994
200	0xbc131a7c	-0.008978482
201	0xbdd0450b	-0.10169419
202	0x3e63a1ee	0.2222974
203	0xbd26ef14	-0.040755346
204	0xba4a5ff0	-0.0007719984
205	0x3b939636	0.0045039905
206	0xbe41cd6a	-0.18926015
207	0xbdd4b59d	-0.103862025
208	0x3c814649	0.015780585
209	0x3e402f29	0.1876799
210	0x3d2bdeca	0.041960515
211	0x3dbb4f2b	0.091459595
212	0x3da49072	0.08035363
213	0xbe6dd548	-0.23225892
214	0xbce31396	-0.0277193
215	0xbe07350b	-0.13203828
216	0x3da898ee	0.08232294
217	0x3da0b755	0.07847468
218	0xbd27fea1	-0.041014317
219	0x3d36475c	0.044501647
220	0x3e84a157	0.25904343
221	0xbee20ed0	-0.44151926
222	0x3e5985c8	0.2124244
223	0x3eb10535	0.34574285
224	0x3e86cc2a	0.2632764
225	0x3e070abe	0.13187692
226	0x3dfaf73d	0.12254188
227	0x3ce3d429	0.027811127
228	0xbed6da67	-0.41963503
229	0xbd17d7bf	-0.037070986
230	0xbc105dce	-0.008811427
231	0xbe99389d	-0.29926005
232	0x3c6821c5	0.0141682075
233	0xbb87e475	-0.0041471072
234	0xbd8fc9bf	-0.07020902
235	0xbe4b4d0f	-0.19853614
236	0xbb962e6d	-0.004583171
237	0x3e97d7f4	0.29656947
238	0x3ca01804	0.019542702
239	0x3cc2a444	0.023759969
240	0xbda3a057	-0.07989567
241	0xbe961e06	-0.2931978
242	0xbf89ad2e	-1.0755975
243	0xbf93c2dc	-1.1543841
244	0xbddeaef3	-0.10873213
245	0x3cb7d0a6	0.022438359
246	0xbd31e2d1	-0.0434292
247	0xbb9eb694	-0.0048435424
248	0x3f3fa2d6	0.7485784
249	0xbe88fc4d	-0.2675499
250	0x3d8758d1	0.06608737
251	0x3cff128c	0.031136774
252	0x3be63f28	0.007026572
253	0x3c097bdc	0.008391347
254	0xbd81d735	-0.063398756
255	0x3d724e2d	0.059156585

bias f4 [4]
0	0xbf0d4b54	-0.55193067
1	0xbef9c586	-0.4878351
2	0xbf3fe2c2	-0.7495538
3	0xbf599be5	-0.850035
