RLSnake/model/masakra_z_mapa.pth (torch, 344846 bytes, 6 tensors)

weight f4 [256, 71]
000000 38 8a 0b be 39 9f 26 be 02 68 81 bd 40 81 0d be
       -0.13626945 -0.16271676 -0.06318666 -0.13818836
000010 7a 77 82 3d 73 49 75 bd 4b 3a cc bd be b4 d0 bd
       0.063704446 -0.0598845 -0.09972056 -0.10190724
000020 8d c6 ca bd 2d ba d2 bd 78 31 ba bd 36 76 5f bd
       -0.09901152 -0.102894165 -0.09091467 -0.054556094
000030 d3 99 bc bd 04 9a e4 bc 9c d0 23 bd ba be e3 3d
       -0.09209027 -0.027905472 -0.039993867 0.111203626
000040 f4 45 b8 3d a0 82 38 3b 37 11 4d 3c 50 b5 72 bc
       0.089977175 0.002815403 0.012516311 -0.014813736
000050 ce 13 be 3c 03 34 c8 bd c7 28 a6 bd da b4 61 bd
       0.023202803 -0.097755454 -0.081132464 -0.055104114
000060 dd 5c bd bd a0 5b ee 3b 70 f6 de 3d ec fd bb 3d
       -0.09246228 0.007274106 0.10886848 0.09179291
000070 68 e7 13 bd 66 13 82 3d 62 ef e3 bd 34 9a 8a bd
       -0.036109358 0.06351356 -0.11129643 -0.06767693
000080 88 12 1e 3d 7a 0b 4b bd 40 cd fd 3b b2 c4 d1 3d
       0.03859189 -0.04957149 0.007745415 0.10242595
000090 00 0c 5a bb d4 8d 58 3d b0 e3 28 bc 2a ef 43 bd
       -0.0033271313 0.052869633 -0.010308191 -0.047835506
0000a0 aa 27 a4 bd bc f9 30 3d 38 7a 33 3d c1 53 ef bd
       -0.08015378 0.043206915 0.04381773 -0.11685897
0000b0 2c 74 db bc 68 61 c9 bc ef 64 ef 3d 41 68 db bd
       -0.026788794 -0.02458258 0.116891734 -0.10713244
0000c0 94 dc 00 3d 10 9e 6b bc 8e 0c 0f bd a6 7a cc 3d
       0.03146036 -0.014380947 -0.034924082 0.09984331
0000d0 80 6e 9a 3a 0c d9 57 3d 74 05 cc bc f8 91 e7 bc
       0.0011782199 0.052697226 -0.024904944 -0.028267846
0000e0 1c 23 3f 3d 82 e2 33 bd 17 31 d6 bd 30 8c b6 3d
       0.046664342 -0.043917187 -0.10458582 0.089134574
0000f0 8c 36 d5 3d e0 6a df 3d 52 41 20 bd dc b9 99 bd
       0.104107946 0.10909057 -0.039124794 -0.07506153
000100 4c 4e bc 3d 40 7d 90 3c 18 55 91 3c 93 83 f2 bd
       0.091946214 0.017637849 0.017740771 -0.11841502
000110 fa 2e b4 bd 54 58 07 3d d7 f4 82 bd db c3 0f bd
       -0.087980226 0.03304322 -0.06394356 -0.03509889
000120 85 a8 95 bd b3 87 df bd 04 96 23 be 5a 98 dd 3d
       -0.07307533 -0.109145544 -0.15975195 0.108200744
000130 90 e7 77 bc 70 e6 b2 bd b4 11 5c bc 2d 77 03 be
       -0.015130892 -0.08735359 -0.013431955 -0.1283843
000140 93 69 2a 3d e6 fc 67 bd 07 d8 b9 3d 84 82 e4 3d
       0.04160459 -0.056637667 0.09074407 0.111577064
000150 48 3e 6c 3d f0 1f 90 bd b0 64 e1 bd 2c e1 b9 bc
       0.057676584 -0.070373416 -0.11005533 -0.022690378
000160 c5 08 c6 bd 60 2d 35 bd 3b 46 7d bd 7a 13 2f 3d
       -0.096696414 -0.044232726 -0.061834555 0.042743184
000170 e9 ca a0 bd 88 d3 bd 3c 64 13 22 3d 7e f2 23 bd
       -0.07851202 0.023172155 0.039569274 -0.04002618
000180 76 c3 e0 bd 90 0d 00 3c 40 5a 03 3b e0 75 d1 3c
       -0.10974781 0.007815734 0.0020042807 0.025568902
000190 8c 39 9a 3d 9e 52 54 bd a0 31 4b 3b 4c b1 a0 bc
       0.075305074 -0.051836602 0.003100492 -0.019615792
0001a0 ee 01 b6 3d 64 fb c7 3d c0 99 00 3d a8 89 b5 bc
       0.08887087 0.09764746 0.031396627 -0.022160366
0001b0 f6 3b ec bd 50 78 83 3c 74 3d dd 3d ec e7 5a 3d
       -0.11534874 0.01604858 0.10802737 0.053443834
0001c0 a0 d0 f1 3d f8 ad eb bd 20 06 25 3c 72 24 d9 3d
       0.1180737 -0.11507791 0.010072261 0.106026545
0001d0 53 c1 ee bd 57 7f eb 3b c0 00 e9 bc 8b 4e de bd
       -0.116579674 0.007186811 -0.02844274 -0.10854825
0001e0 e2 be ef 3d ac df 23 3d 20 f1 17 3c 90 e8 8c bc
       0.1170633 0.040008232 0.009273797 -0.017200738
0001f0 d0 80 21 bc 3c 61 86 3d 18 45 5e bd a4 f4 e2 bd
       -0.009857371 0.06561515 -0.05426511 -0.11081818
000200 0c d0 61 bd 90 4f e3 bc 03 e9 d2 bd 80 a8 11 3b
       -0.05513005 -0.0277479 -0.1029835 0.0022225678
000210 ae 5f 9a bd 60 14 90 3d 30 18 6f 3c a0 22 7d 3d
       -0.07537781 0.07035136 0.014593169 0.0618006
000220 42 b5 8b bd 3a 6b 9d bd 60 9c 7c 3d 75 55 e0 bd
       -0.068216816 -0.076864675 0.06167257 -0.109538
000230 6c 44 bd bd 4e 33 d4 3d 4a 6e cf 3c 84 0b f8 be
       -0.09241566 0.10361348 0.025321145 -0.48446286
000240 9c 02 54 be 5e d1 dd be 64 a2 db 3d 34 fb c9 bd
       -0.2070412 -0.43323797 0.10724333 -0.09862366
000250 5d 86 6f bd 7d 7d 6a be 2f 8c cf be 99 3c d0 bd
       -0.05847775 -0.22899432 -0.4053664 -0.10167808
000260 d1 ef bb be 38 46 9e 3e 42 2f a7 3d c0 8e 3d 3b
       -0.36706403 0.30912948 0.081633106 0.0028924197
000270 63 6c 81 3d dc 2c 8a 3a 35 14 ce bd f3 61 48 be
       0.06319501 0.0010541934 -0.10062448 -0.19568615
000280 15 f3 db be 34 a2 68 be 10 83 f8 3d 18 25 a1 3e
       -0.42958894 -0.22718126 0.12134373 0.31473613
000290 e4 8f 08 3d 54 0f b6 bd 10 a2 51 3c 88 4f 5c 3d
       0.03334035 -0.08889642 0.012794986 0.053786784
0002a0 60 c3 e8 bd 44 d4 5b bd 50 a5 29 bd 1e ba 60 bd
       -0.1136539 -0.05366923 -0.04141742 -0.054864995
0002b0 e0 9b ac bd bc 37 eb bc 4e 7a c7 bd 32 96 94 3d
       -0.08428168 -0.0287131 -0.09740125 0.0725521
0002c0 c3 39 e1 bd d1 b9 e1 bd f0 e1 31 3c c6 ee 21 bd
       -0.10997345 -0.1102177 0.01085709 -0.039534353
0002d0 d8 72 8d bd ad c6 6a bd 0e fd 14 bd 90 f6 18 3d
       -0.0690667 -0.05731838 -0.036374144 0.037344515
0002e0 d8 3f a5 3d f0 64 59 bd 3a 58 45 bd 80 ef d1 bc
       0.08068818 -0.053074777 -0.048179843 -0.025626898
0002f0 3b ee 32 be f0 b5 09 3c 9a 1e e6 3d de 0a dc bd
       -0.1747369 0.008405194 0.112363055 -0.1074426
000300 68 37 98 bd 96 8d 91 bd a8 a3 13 bd d4 b3 c5 3d
       -0.07432443 -0.071070835 -0.036044747 0.0965344
000310 be be b1 bd 32 b9 da 3d 50 80 9f 3c 20 1e 61 bb
       -0.08678959 0.106798545 0.019470364 -0.0034350231
000320 9e 17 d6 bd 50 87 b4 bb 90 cd 5d bc 12 c2 db 3d
       -0.10453723 -0.0055092946 -0.013537779 0.10730375
000330 60 29 33 3c 24 0e c5 bd eb fa 69 bd 42 45 ab 3d
       0.010935158 -0.09621838 -0.05712406 0.08362819
000340 82 b0 e0 3d 78 2d e5 3c 80 85 00 bc 70 24 1a bc
       0.10971166 0.027975783 -0.007844329 -0.009408101
000350 a0 a7 c6 3c d0 34 5c bd 1b 03 04 be f8 09 80 bd
       0.024249852 -0.053761303 -0.1289181 -0.062519014
000360 ff cc bc bd f8 08 b9 bc 36 af e6 3d 07 50 08 3d
       -0.092187874 -0.022587284 0.112638876 0.033279445
000370 75 56 7f 3d 4a 03 9e bd 1c d4 88 bc d1 d6 0f 3d
       0.06233831 -0.07715471 -0.016702704 0.035116974
000380 dd 66 9b 3d fc 64 41 3d c4 00 15 bd b8 cd 8e 3c
       0.07587979 0.047215447 -0.036377683 0.017432079
000390 e1 77 de bd 49 04 b7 bd e0 7d ba bd 49 75 93 bd
       -0.10862709 -0.08936364 -0.0910604 -0.07200105
0003a0 f0 e1 90 bc 06 fe 8c bd 68 15 dc 3b 80 47 9b 3a
       -0.01768586 -0.068843886 0.006716419 0.001184687
0003b0 90 bb e6 bd cc 19 44 3d 08 90 ec 3c b8 6e 52 bd
       -0.112662435 0.047876164 0.028877273 -0.05137512
0003c0 80 42 a1 ba 10 33 94 bb 40 52 6d 3d 80 3c 0f ba
       -0.0012303144 -0.0045226887 0.057939768 -0.00054640323
0003d0 c0 24 db 3b f0 c3 42 3d b8 7a d7 bd 45 7f e1 bd
       0.0066877306 0.04755014 -0.105214536 -0.11010603
0003e0 ac 62 4d bd 3e 7f df 3d de b3 77 bd 38 df c4 bd
       -0.05014293 0.109129414 -0.06047427 -0.09612888
0003f0 a0 bb 6b 3d ce de 96 3d 98 ca d3 bd 00 00 e2 3d
       0.05755198 0.07366715 -0.10341376 0.11035156

bias f4 [256]
000000 08 44 6b bc 13 49 b3 bd a9 d0 95 be 46 c0 ea bd
       -0.014359482 -0.08754172 -0.29260758 -0.114624545
000010 84 40 ac be 95 9f e1 bd 0e 8d 0b be 84 10 8e be
       -0.33642972 -0.11016766 -0.13628027 -0.27746975
000020 72 02 b8 bc d9 94 15 be f6 bf 22 be da f1 42 be
       -0.022462104 -0.14607562 -0.1589354 -0.19037572
000030 8a 31 38 be fd 14 c8 bd 16 f3 64 be eb 6f 90 be
       -0.17987648 -0.09769628 -0.22358355 -0.28210387
000040 f9 b2 64 be 90 e7 fe bd ab 8c 35 bb 5d 96 17 be
       -0.22333898 -0.12446511 -0.0027702253 -0.14803453
000050 99 cd 6a be b4 07 64 be 5a d6 37 be a9 5e 5d be
       -0.22929992 -0.22268564 -0.17952862 -0.21618141
000060 5f ac 43 be 48 28 ec be cc 62 85 bd ed 42 cb bd
       -0.19108723 -0.46124482 -0.06512985 -0.099248745
000070 c0 eb c1 be 54 2f e9 bc c6 d9 11 bd 7e ed 97 bd
       -0.37875175 -0.02846495 -0.035608076 -0.07418345
000080 20 e0 0b be a2 31 39 be 32 3c c7 be fe 7e a8 bd
       -0.13659716 -0.1808534 -0.38913113 -0.08227347
000090 ba a0 f5 bd e1 cf fa bd 8c c7 d8 bd 31 0b 49 be
       -0.11993547 -0.12246681 -0.105849355 -0.19633175
0000a0 93 5b a1 bd 4d 1f 85 be 06 f5 4a bc 10 75 1f be
       -0.078787945 -0.26000443 -0.01238752 -0.15572
0000b0 3e 18 83 bd 2c 60 38 be e0 f9 83 be f2 d0 73 bd
       -0.06401108 -0.18005437 -0.25776577 -0.059525438
0000c0 fb 92 13 3e 1b 76 d8 bd c1 a2 db 3d fe c7 03 be
       0.14411537 -0.10569402 0.10724402 -0.1286926
0000d0 2b 8f f4 bd 70 17 ff bd 78 07 f0 bd ae 3a 2e 3f
       -0.119413696 -0.12455642 -0.117201746 0.6805829
0000e0 f2 f3 2c be 97 85 a9 bd 83 09 37 be ce fb 29 be
       -0.16889933 -0.08277433 -0.17874722 -0.16599962
0000f0 d0 ca fc bd 45 15 b8 bd 2d 11 14 be 02 54 ea bd
       -0.12343371 -0.08988432 -0.14459677 -0.114418045
000100 44 91 bf bd 5b 4a fa bd a9 ea 61 be 16 44 0c be
       -0.09353879 -0.122212134 -0.22062172 -0.13697848
000110 2a 01 c9 bd ab 8b c2 bc b7 cb 7e 3d 73 9a 2e be
       -0.09814675 -0.02374824 0.062205996 -0.17051105
000120 5a ec 63 be 49 42 69 be 9e bf 48 be 0b f1 ba be
       -0.2225813 -0.22779192 -0.19604346 -0.36512026
000130 6f 94 00 be 52 5e d4 3d 95 81 2b be 15 e0 36 be
       -0.12556623 0.10369553 -0.1674865 -0.17858918
000140 4f 17 7f be 0c 12 a9 be fc 7f 32 be 06 24 8f bd
       -0.24911235 -0.3302158 -0.17431635 -0.06989293
000150 50 f6 e9 bd 2f 01 d6 bd e9 49 48 be 65 b6 ce bc
       -0.114239335 -0.104494445 -0.19559444 -0.025233457
000160 95 08 60 be e8 0c 74 bd 93 54 68 be b6 12 5a be
       -0.21878274 -0.05958262 -0.22688513 -0.212962
000170 71 e0 5c be ce a6 f4 bd 2e 40 01 be 6f e9 21 be
       -0.21569993 -0.11945878 -0.12622139 -0.15811704
000180 0f dc 8a be 7f 20 5b be 74 a9 3e be 65 0d 02 be
       -0.27121016 -0.21399115 -0.18619329 -0.12700422
000190 66 58 a9 bd ce f4 6d bd 77 1d 3e be 20 e5 12 be
       -0.08268814 -0.058094792 -0.18565927 -0.14345217
0001a0 d8 91 01 be ba 87 44 be f4 59 ac bc 13 e6 72 be
       -0.12653291 -0.191924 -0.021038987 -0.23720579
0001b0 f1 c7 4e bd 6c 37 54 be 10 2b 15 bc 30 02 0d be
       -0.050483648 -0.20724267 -0.009104505 -0.13770366
0001c0 6f 17 3f bd 84 25 bf be c1 be 43 bd 30 d6 30 be
       -0.046653207 -0.3733331 -0.04778934 -0.17269206
0001d0 14 dc 08 be c8 cd 3d be af c9 2e be fb 2a 98 be
       -0.13365203 -0.1853553 -0.17069124 -0.29720291
0001e0 52 bb 3f be b2 e6 59 be 2d 1a 76 bd 4e 4a fb bd
       -0.18723801 -0.2127941 -0.060083557 -0.12270032
0001f0 35 a4 76 3d 5a 33 06 be 1b e0 b2 bd fc ca 07 be
       0.060215194 -0.13105527 -0.08734151 -0.13261026
000200 2b c8 06 bd 61 63 43 bd 1f 74 40 be b7 25 d5 bd
       -0.03290574 -0.047702197 -0.18794297 -0.10407584
000210 a3 f1 77 be 48 01 a2 bd eb c1 b5 be d8 a6 2a be
       -0.24213271 -0.07910401 -0.3549951 -0.16665208
000220 89 20 45 3c a5 8b 60 be e3 ab ae bd ed 75 e3 bd
       0.012031683 -0.2192827 -0.085288785 -0.11106477
000230 a1 11 69 bd 9e f6 f4 be 6c de 24 be d9 3d 07 3b
       -0.056901578 -0.47844404 -0.16100472 0.002063623
000240 0a 6f e1 3d 87 4f 49 be 20 f0 5c be ef 97 68 bd
       0.11007507 -0.19659244 -0.21575975 -0.05678552
000250 37 0b 4e bd b1 3c 69 bd 6a bc 22 be 12 64 09 be
       -0.050303664 -0.056942645 -0.15892187 -0.1341708
000260 52 57 c2 3e b1 f6 0b be 07 f8 83 bd aa b9 05 be
       0.37957245 -0.13668324 -0.06443792 -0.13059106
000270 15 7b 2a be d9 a7 0f be d9 aa 7a be d8 2a 02 be
       -0.16648515 -0.14028873 -0.24479236 -0.12711656
000280 27 c3 93 be 36 de 2b be 4c d7 11 be 0f 3e 2f be
       -0.28859827 -0.16783985 -0.14242285 -0.17113517
000290 c2 e5 f6 be 66 9f c6 be f8 29 ea bd 23 07 53 be
       -0.48222166 -0.38793486 -0.11433786 -0.20608191
0002a0 b1 f4 a5 bd 69 e0 1a be 69 e6 ed bd 87 ac ed bd
       -0.08103312 -0.15124668 -0.11616213 -0.116051726
0002b0 24 6e e7 bd 33 b7 0d bd d9 cb 25 be ec 60 a4 bd
       -0.113003045 -0.03459854 -0.16191043 -0.08026299
0002c0 33 2d dc bd 25 bf 56 bd e0 2e 4e be 32 ae dd bd
       -0.107508086 -0.052428383 -0.20135069 -0.10824241
0002d0 87 f9 b4 bd 50 59 b6 be 64 49 95 bd b1 06 09 be
       -0.08836656 -0.35615015 -0.07289389 -0.13381459
0002e0 b7 23 e9 bd c7 41 ac be 74 9a d1 bd 47 e7 98 be
       -0.11383765 -0.33643934 -0.10234538 -0.2986395
0002f0 79 d0 67 be a7 6f b0 be 2d 24 98 bd 6c 42 8e bd
       -0.2263812 -0.34460184 -0.07428775 -0.06946263
000300 1d 50 1b be e6 51 6f be dd 0f 06 be d7 02 29 be
       -0.1516728 -0.23371086 -0.13091989 -0.1650499
000310 ed 52 65 be 69 50 d0 bd 51 d1 ee bd fd 0b 37 bd
       -0.22394915 -0.10171587 -0.11661018 -0.044689167
000320 a9 89 e4 bd be 18 51 be 9d d2 62 be 75 0f 7f be
       -0.11159069 -0.20419595 -0.22150655 -0.2490824
000330 1e 23 44 be 31 5c 01 be 71 8d 52 be 75 2d 49 be
       -0.19154021 -0.12632824 -0.20561768 -0.19646247
000340 55 3c 63 be 74 1e 39 be 64 76 05 be da 13 1d be
       -0.22190984 -0.18078023 -0.13033444 -0.15339604
000350 21 75 60 bd d5 f7 29 be 45 8c fc bd ab 85 7e bd
       -0.054799203 -0.16598447 -0.12331442 -0.062139194
000360 35 48 40 3f e0 6a e8 bc 28 c3 22 be 9b d3 7e bd
       0.7511018 -0.028371274 -0.15894759 -0.06221352
000370 05 08 25 be 70 73 d9 bd 32 d0 e3 bd d3 69 7c be
       -0.1611634 -0.10617721 -0.111236945 -0.24649744
000380 e0 4b 91 3e 47 55 da 3c 97 2f ed bd a6 28 51 be
       0.283782 0.026651992 -0.11581343 -0.20425662
000390 24 66 51 be 1e 1a 79 be cc 75 b0 bd 1c 8a f3 bd
       -0.2044912 -0.24326369 -0.08616218 -0.11891577
0003a0 96 f3 03 be 3c d0 15 be 6e 42 79 bd e4 73 53 be
       -0.1288589 -0.14630216 -0.060854368 -0.20649678
0003b0 9d ac a0 bd b4 73 4f be 2b 8e a1 be e4 b7 e4 bd
       -0.07845423 -0.20258981 -0.31553778 -0.11167887
0003c0 e5 9b 9e bd 75 9d 4e bd 3c d5 0d be 0f 8f 8d be
       -0.07744578 -0.05044313 -0.13850874 -0.27648208
0003d0 99 1c b5 be eb d4 cf bd 0c c7 68 be 12 d7 13 be
       -0.3537338 -0.10148033 -0.2273218 -0.14437512
0003e0 36 3c 03 be f5 17 63 be 7e e4 94 bd 16 dc 80 be
       -0.12815937 -0.22177108 -0.07270144 -0.25167912
0003f0 f6 4c 03 be 53 4a 3e 3e 6a 14 25 be bb 2d 00 be
       -0.12822327 0.1858304 -0.16121069 -0.12517445

weight f4 [256, 256]
000000 c4 1d 2d 3c 63 39 07 bd f1 ca eb 3e ca 07 11 bd
       0.010566179 -0.033013713 0.4605327 -0.03540782
000010 67 d3 a5 bd b2 a2 9a be 1c 0a 33 3d a8 ed 7e bd
       -0.080969624 -0.30202252 0.043710813 -0.062238365
000020 35 9c 19 be 30 25 ff 3b 97 84 8d bd 3f b5 02 bd
       -0.15000995 0.0077864155 -0.06910055 -0.03191113
000030 bc 5a 33 3d 10 ce 15 be e2 27 31 3d be c2 c0 bd
       0.043787703 -0.14629388 0.043250926 -0.09412144
000040 18 f9 02 3e ec ca c8 bc 29 35 01 be a7 82 73 bd
       0.12790334 -0.024510823 -0.12617935 -0.05945077
000050 f7 62 5e 3e a1 a2 a6 3e 68 a8 34 3e a3 e0 ac be
       0.2171744 0.3254595 0.17642367 -0.33765134
000060 6e 20 8e 3e 7e fb 40 3c 0d c0 f0 bd de 41 9d bd
       0.27759117 0.01177871 -0.11755381 -0.07678579
000070 89 05 49 3d 28 64 67 3d 9e ea 6c 3d f4 26 f4 ba
       0.049077544 0.056492 0.057840936 -0.0018627332
000080 03 60 9e 3c b1 87 20 3d 64 52 2b 3e f1 88 36 bd
       0.019332891 0.039191905 0.16730648 -0.04456419
000090 2c d3 34 3d 84 60 cd bb 08 cc 60 3d 00 08 47 3d
       0.0441467 -0.006267609 0.05488208 0.048591614
0000a0 86 3f 03 bd 48 f3 01 3e 4e 49 a5 be 28 02 94 bd
       -0.032043003 0.1269046 -0.3228249 -0.07226974
0000b0 f2 48 92 3e e0 ac 6d 3c 34 ee 89 bd ad e4 51 bf
       0.28571278 0.014506549 -0.06734887 -0.81989557
0000c0 e4 d2 95 be 2b 39 14 bd 76 de 7e 3e 0c 47 29 3d
       -0.2926246 -0.036187332 0.2488955 0.04132752
0000d0 2a 1e 51 3d f8 6b f2 bc c4 6b 3c 3d 24 98 63 be
       0.051054157 -0.0295925 0.04600121 -0.22226006
0000e0 70 eb 35 3e 2f a3 7a bd fb ad 38 be e9 9a a5 3c
       0.17765594 -0.06119078 -0.18035118 0.020215468
0000f0 46 d0 13 3e e4 dc f2 bd 72 d3 2c bc 83 12 c7 3a
       0.14434919 -0.11858538 -0.010548459 0.0015188012
000100 0c 5b 07 3d 14 0d e3 be d4 15 c5 3c 90 fe 2c bc
       0.033045813 -0.44345915 0.02405826 -0.010558739
000110 01 a6 33 3d e9 50 63 bd 12 02 aa bd 5b 70 81 3e
       0.043859486 -0.055497084 -0.08301176 0.25281033
000120 13 38 e6 be 36 e7 a3 bd bc 73 ba 3d cb a1 98 bb
       -0.44964656 -0.08003084 0.09104106 -0.004657959
000130 dc 6d 6d be 8f 27 ad be c8 e5 2e 3c c8 d4 b7 bd
       -0.2318644 -0.33819243 0.010674901 -0.08976132
000140 1a 51 4a be e2 1a af 3e 6f 2b 54 3d 48 4f 23 bd
       -0.197575 0.34200197 0.051799234 -0.03987053
000150 c1 4e 03 3d 04 d2 b8 3d 51 5c 61 be 95 60 7e 3b
       0.032057527 0.09024432 -0.22007872 0.0038814892
000160 73 f4 90 39 ec c7 f0 bb d4 cb 94 3c cf 45 6d 3d
       0.0002764795 -0.0073480513 0.0181636 0.057927903
000170 98 30 c6 bd 66 06 b3 bd 9f 8f ee 3d 04 fb 01 3d
       -0.09677237 -0.08741455 0.11648487 0.031733528
000180 9f b8 8f be 84 11 e1 bd 5e 33 1a bd 6c 94 29 3d
       -0.28070542 -0.10989669 -0.037646644 0.04140131
000190 85 82 06 3d 06 8e 0a 3d 93 70 00 3d c0 bc 85 3b
       0.032839317 0.03382685 0.03135736 0.0040813386
0001a0 22 d9 0f 3d 5f 6a a0 bc 4e 01 84 bd a1 00 08 be
       0.035119183 -0.019581972 -0.06445561 -0.1328149
0001b0 15 9a 98 be f8 c9 24 bd e2 03 82 3c 32 c0 5f 3d
       -0.29805055 -0.040231675 0.015870992 0.05462665
0001c0 8e 8f 12 bf 0a c1 f1 bd bf a2 c4 bc 08 5f 9e 3c
       -0.572503 -0.118043974 -0.024003385 0.019332424
0001d0 8e ac 81 3d 39 d7 91 bd bf ee 32 3c 68 7d c4 bd
       0.0633174 -0.071211286 0.010921179 -0.09594232
0001e0 b1 fa 6b 3d 02 6c 84 bd f4 5b 19 bc f1 5b 5e be
       0.057612125 -0.06465913 -0.009360302 -0.2171476
0001f0 be 1e ef 3c 80 04 5e 3b ec 6d 97 be f0 87 02 bc
       0.029189464 0.0033877194 -0.2957605 -0.00796698
000200 1e 90 e8 3c e2 b8 3d bd 3e c3 1b be 3d 5f 8f 3d
       0.028389033 -0.046318896 -0.15211198 0.07000587
000210 78 9e ce 3c ee 19 73 3d 6a 66 40 3e de ec db 3c
       0.025222048 0.0593509 0.18789068 0.026846346
000220 d3 4b aa be c8 0c 06 bc 66 ca 44 3d 48 2a 09 3e
       -0.33260974 -0.008181758 0.048044585 0.13395035
000230 b9 4d ab 3c f4 fe e6 3b d0 4a 7b bd 03 03 e4 bc
       0.020911084 0.0070494357 -0.061350644 -0.027833467
000240 3e e6 35 be 6f c4 65 3d c1 53 0d bd 14 2f a3 bc
       -0.17763612 0.056095537 -0.034503702 -0.01991991
000250 3d 7b 6c bd 52 db 0e 3d bf a6 2f 3e 08 27 f9 3c
       -0.057734717 0.03487713 0.17153452 0.03041412
000260 26 dd 0a 3d 20 6f 68 3b 32 d8 21 3d 0a ea 0a bd
       0.03390231 0.0035466626 0.03951282 -0.033914603
000270 de a2 52 be b5 3b a3 be 8d 34 a6 bd de a8 00 3d
       -0.20569941 -0.3188149 -0.08115492 0.031411044
000280 dc 07 ea 3d 2b 60 35 3d 20 d2 ff bc f6 ea 84 bd
       0.1142728 0.044281166 -0.031228125 -0.06490128
000290 94 78 6d 3e be 55 29 bd 36 f3 a5 3e 1f f5 8d 3d
       0.23190528 -0.041341536 0.32412118 0.06931519
0002a0 2e 2d 26 be 8b 44 88 bc 6d b6 35 3d 28 ed 49 be
       -0.16228172 -0.016634246 0.044363428 -0.19719374
0002b0 00 21 8c bc 6e df 16 bd e0 b5 f6 ba a3 20 84 bc
       -0.01710558 -0.036834173 -0.0018822514 -0.016128844
0002c0 f0 2e a2 3d 74 47 20 3d 48 16 2f bd 2a 0f 15 3d
       0.07919109 0.039130643 -0.04274586 0.036391415
0002d0 41 d3 c1 3d 0b d3 88 3e c5 c2 68 be 98 49 21 be
       0.094641216 0.26723513 -0.22730549 -0.1575073
0002e0 8b 1f b7 bc 3c 8e d6 3e 60 fe 73 3d 5b be 0f be
       -0.022353908 0.4190539 0.059568763 -0.14037459
0002f0 3f 5b a8 3e 3a 7c 33 3d fd 76 d7 3c a4 86 71 bd
       0.32882115 0.043819644 0.026301855 -0.058966294
000300 7f 47 f4 3e 46 16 ec 3c 12 3c f3 bc 38 7c 34 3d
       0.47710797 0.028819215 -0.02969173 0.044063777
000310 61 cc 32 3e b6 bc 62 bd 88 ad ef bc 54 9d 82 bc
       0.17460777 -0.05535575 -0.02925755 -0.01594416
000320 9e b3 16 3c bf b3 c9 3c de 2e b0 3c 4a fc e3 bd
       0.0091980975 0.024621842 0.021506723 -0.11132105
000330 e2 65 36 3d 0e af 2c bd 6b 28 7a bd 8d e1 71 3d
       0.044530757 -0.042159133 -0.0610737 0.059052993
000340 14 eb 90 3d 80 7f 48 3a 98 e2 a3 bc c2 23 2d 3d
       0.070760876 0.00076483935 -0.02000551 0.04227043
000350 b5 3b 51 3d cd 2f b4 3e 66 41 d2 3c 99 f1 88 bc
       0.05108233 0.3519272 0.02566595 -0.016716765
000360 ea 8a ff be f3 92 05 bd 56 b6 0b bd 19 74 8c bd
       -0.4991067 -0.032610845 -0.034109436 -0.06858081
000370 2a 03 06 bd 1f dc 6e 3e 4a 1a 07 be 45 87 3f bd
       -0.03271786 0.23326157 -0.13193622 -0.046759862
000380 c4 f5 eb 3b b5 b9 7d be 67 09 39 3e 2a f5 91 bc
       0.0072009284 -0.24777873 0.18069993 -0.017817099
000390 a2 5d db 3c c4 d8 1d 3f 9a 3c 63 bd a4 d7 bb 3d
       0.026778046 0.61658883 -0.055477716 0.091719896
0003a0 c8 bb d3 3c fe 67 04 bd 14 39 51 bd 87 f3 5a 3d
       0.025846377 -0.032325737 -0.051079825 0.053454902
0003b0 e8 44 75 bd 69 01 7a be e3 24 7e 3e 7e 0d ae 3e
       -0.059880167 -0.244146 0.24818759 0.3399467
0003c0 40 92 de bc 23 c0 b7 bd 83 9a 6f 3d 7d 74 34 bd
       -0.027169347 -0.08972194 0.058496963 -0.044056404
0003d0 2e 58 d8 bd 2c 36 64 bd b4 59 27 3e e4 f1 53 3e
       -0.10563694 -0.055715725 0.16342813 0.20697743
0003e0 27 e9 6d 3e 90 2b 32 bd d1 4c a9 bd f0 97 2b be
       0.23233472 -0.043498576 -0.08266605 -0.16757178
0003f0 22 bc 76 bd a2 26 02 3e a4 04 52 3d 52 1a 87 bd
       -0.06023801 0.1271005 0.051273957 -0.06596817

bias f4 [256]
000000 05 56 d2 be a1 8d 3a bd ad 05 66 bd 36 a9 39 be
       -0.41081253 -0.045545224 -0.056157757 -0.18130955
000010 44 17 22 be 21 67 45 be c7 a8 58 be 84 90 ea bd
       -0.15829188 -0.19277622 -0.21158133 -0.114533454
000020 fb f7 ac be 70 2f 36 bd f2 3c 41 bd 22 f8 02 be
       -0.33782944 -0.044478834 -0.047177263 -0.12789968
000030 c5 de c3 be 55 9c d0 3e 22 85 83 bd b2 5a bb bd
       -0.38255897 0.40744272 -0.064218774 -0.09148158
000040 9b 8b 87 bd 1a 67 48 be 9a b5 a1 bd de 54 c1 bd
       -0.066184245 -0.1957058 -0.07895966 -0.09440015
000050 4b f8 9b be 67 8c 0c be d9 a1 47 3d 57 17 17 be
       -0.3046287 -0.13725434 0.048738334 -0.14754997
000060 55 f0 80 bd 9e 33 b5 bd af fd 1c be 79 58 da bd
       -0.0629584 -0.08847736 -0.15331148 -0.10661406
000070 7c 4c 3a 3e 82 12 38 bc 70 e4 37 be bc ca b9 bd
       0.18193239 -0.011234881 -0.17958236 -0.09071872
000080 2a 7b 78 be 99 f2 c9 bd f8 37 9a bd 3c e6 46 be
       -0.24265733 -0.09860725 -0.075302064 -0.19423765
000090 2a 89 7d be 14 8a e5 bd 9f b4 9b bd f5 1d 47 be
       -0.24759355 -0.11207977 -0.0760281 -0.19445021
0000a0 28 ba f5 bd a2 9f d8 bd c1 6a 14 be a2 73 08 be
       -0.11998397 -0.105773225 -0.14493848 -0.1332536
0000b0 20 ce 98 bd 62 10 d9 bd 88 4a 3f bd 19 82 a7 3d
       -0.0746119 -0.10598828 -0.046701938 0.08179111
0000c0 22 0c 9f bd 5a 81 f3 bd b7 14 61 be 43 ed 46 bd
       -0.07765986 -0.11889906 -0.21980558 -0.048566114
0000d0 17 5a a3 bd f9 8b 35 be 0e 29 cb bd 48 de cc bd
       -0.07976168 -0.17729177 -0.0991994 -0.10003334
0000e0 d6 49 f1 bd c9 24 f9 bd b9 d1 43 be 6c d9 24 be
       -0.11781661 -0.12165219 -0.19122972 -0.16098565
0000f0 b4 d9 bf bd 39 7a 75 be 40 50 6b bd 66 df 14 be
       -0.093676955 -0.23972405 -0.05744958 -0.14538345
000100 3e ce a0 bd 87 20 f2 bd 02 1e 1c be 9e 29 b7 bd
       -0.078518376 -0.1182261 -0.15245822 -0.08943485
000110 08 62 34 be 69 64 67 bc bc 52 89 bd 2d 71 0b be
       -0.17615521 -0.014123061 -0.067052335 -0.13617392
000120 e0 27 0c be 25 ff 4d be a8 d1 02 bd 79 46 50 be
       -0.13687086 -0.20116861 -0.031938225 -0.20339383
000130 4e 60 d5 bd 53 5f 85 bd cf b7 fc bd 42 04 18 be
       -0.10418759 -0.06512322 -0.12339746 -0.14845374
000140 28 a6 5d bd 77 92 f5 bd 4f dd 6f bd 4d b9 a7 bd
       -0.054113537 -0.119908266 -0.058560666 -0.0818964
000150 eb 5d 85 bd 53 b0 05 be 35 9c 1b be 63 67 b2 bd
       -0.06512054 -0.13055544 -0.15196307 -0.08711126
000160 46 10 e3 bd 00 16 2c be a4 52 bb bd 5a 8d 8c 3d
       -0.11087088 -0.16805267 -0.09146622 0.06862898
000170 b9 cb 7b bd 2f de c7 bd b8 93 34 be 5f 76 6a be
       -0.061473582 -0.09759175 -0.17634475 -0.22896717
000180 52 63 14 bd 61 38 48 bd d8 25 81 bd e5 30 e9 bd
       -0.03622753 -0.048881892 -0.06306046 -0.11386279
000190 81 01 f4 bd fe 7f a3 bd eb 30 4e be 04 10 88 be
       -0.11914349 -0.07983397 -0.20135848 -0.2657472
0001a0 b6 87 1e be 7c 42 86 bd 56 bc d3 bd 17 6c b5 3c
       -0.15481457 -0.0655565 -0.103386566 0.022146268
0001b0 7a 7f 70 be 3e 2b 8e be 8a 7d 6d bd 9c 8f c4 bd
       -0.23486128 -0.27767366 -0.05798105 -0.09597704
0001c0 ac 41 1d be e1 26 90 bd 7a 55 8d bd 3e 16 81 bd
       -0.15357083 -0.070386656 -0.06901069 -0.063030705
0001d0 e3 93 51 be 13 a3 ae bd 62 2d 19 be dd f5 2d be
       -0.2046657 -0.08527198 -0.14958718 -0.1698832
0001e0 f1 db 21 be d3 96 90 bd b5 cc 41 bd 60 3d 32 be
       -0.15806557 -0.070600174 -0.047314364 -0.17406225
0001f0 a4 b9 24 bd 5b 86 7e 3e 42 cb 3b bd 9f cc 3e be
       -0.040216103 0.2485594 -0.04584814 -0.18632744
000200 df 34 27 be b7 25 19 be 1c 19 f2 bd b8 52 bf 3e
       -0.16328762 -0.14955793 -0.118211955 0.37367797
000210 49 5a bd 3d ca e9 60 bd ac 77 ea bd 71 eb cf bd
       0.09245736 -0.05491046 -0.11448607 -0.10152329
000220 98 16 92 3e 30 6e d3 bd e9 a7 92 bd 3e bb c0 bd
       0.28532863 -0.10323751 -0.071609326 -0.094107136
000230 3c 90 ca bd 93 98 ae 3e 1b 87 a0 bd 2b ee 0c be
       -0.09890792 0.3410078 -0.07838269 -0.13762729
000240 b3 ac 0d be 51 33 5c be 6f 5d 9d bd e0 92 a1 bd
       -0.13835411 -0.2150395 -0.07683837 -0.07889342
000250 ed e6 86 bd a7 5b 23 be e8 03 68 bd ec 1c 7d be
       -0.06587014 -0.15952931 -0.05664435 -0.24718064
000260 aa 1d c6 bd 43 7e 53 bc 68 81 fb bd 4f 35 5d be
       -0.09673627 -0.012908521 -0.12280542 -0.21602367
000270 16 66 d7 bd f6 49 af bd 6a 9f 57 3d 54 a3 a3 bd
       -0.10517518 -0.08559029 0.052642263 -0.07990137
000280 78 5a 53 be e5 6e c5 bd 8c 06 96 bd 82 6d 7f bd
       -0.2063998 -0.09640292 -0.073254675 -0.062360294
000290 79 cb 23 be 83 18 37 be 1d 1f ab bd 0f 70 d0 bd
       -0.15995587 -0.17880444 -0.08355544 -0.101776235
0002a0 74 60 50 be 3b c7 d8 bd e5 0c 4b be 33 f3 2a be
       -0.20349294 -0.10584875 -0.19829138 -0.16694336
0002b0 48 9e 1d be 1c bf 62 be d3 e2 33 3d 7c 42 39 bd
       -0.15392411 -0.22143215 0.04391749 -0.04522942
0002c0 db 55 88 bd be 1c 79 be ba 0b 0a be 7f b9 a2 bd
       -0.06657001 -0.2432737 -0.13481036 -0.07945537
0002d0 e0 d2 93 bd 4d e1 f1 bd b9 83 9e bd 60 1a e6 bd
       -0.072179556 -0.11810551 -0.07739968 -0.112354994
0002e0 18 7e 28 be e0 a5 57 be 35 1e 69 bd 63 c2 8f be
       -0.16454351 -0.2105937 -0.056913573 -0.28077993
0002f0 4d 4c 83 bd 3d 55 bb be 4d c1 77 bd 74 22 56 bd
       -0.064110376 -0.3658847 -0.06048708 -0.05227895
000300 b8 77 86 bd bb 1e 37 bb 54 ee 9d bd 53 3c ca bd
       -0.06565803 -0.00279419 -0.07711473 -0.09874787
000310 80 d5 54 be 0f d2 b4 bd 51 61 0b be 2f e7 30 bd
       -0.20784569 -0.08829128 -0.13611342 -0.043189224
000320 7a 5b 9c bd 8a d5 36 be 2b f8 0b be df 4f 8b be
       -0.07634635 -0.17854896 -0.13668887 -0.27209374
000330 37 6e a1 bd a7 6b 09 be 8e 41 d1 bd b9 19 59 be
       -0.0788235 -0.13419972 -0.10217582 -0.21201219
000340 39 4a 36 be ff 9d bf bd 54 08 9b bd 20 a0 c6 bd
       -0.17801751 -0.09356307 -0.07569948 -0.0969851
000350 2d 40 a0 bd 39 12 4a bd 6e d6 0f be ad 49 2f be
       -0.078247406 -0.049333785 -0.14046642 -0.17117949
000360 41 13 35 be a7 81 5c bd fb e2 39 be 8e f7 14 be
       -0.17683126 -0.053834584 -0.18152992 -0.1454756
000370 0b e7 b0 bd b3 8c 0b be 81 53 ea bd 02 84 d1 bd
       -0.08637818 -0.13627891 -0.11441708 -0.102302566
000380 f5 36 30 be b5 60 cf bd 90 fd 9b 3c a7 88 05 be
       -0.17208464 -0.10125867 0.019041806 -0.1304041
000390 69 96 3a be 12 41 c3 bd 6d 3e f0 bd 6c 8d 1b be
       -0.1822144 -0.095338956 -0.11730657 -0.15190667
0003a0 1c 5c fb bd 79 ff a2 bd 10 91 59 bd f7 4c d1 bd
       -0.12273428 -0.07958884 -0.053116858 -0.10219758
0003b0 b1 21 97 3b f1 63 f2 bc 1c 82 24 be 87 28 bd be
       0.0046121706 -0.029588671 -0.16065258 -0.36944982
0003c0 d6 0f 02 be 2f 72 37 3e 6a 55 a3 be 34 3d e5 bd
       -0.12701353 0.17914651 -0.31901103 -0.11193314
0003d0 68 59 da bd 5d 76 39 bd 22 41 73 bd c6 f6 31 be
       -0.10661584 -0.045278896 -0.059388287 -0.17379293
0003e0 b7 c3 68 bd 24 61 c9 bd 7d 2b 74 bd 19 74 b0 be
       -0.056827273 -0.09832981 -0.059611786 -0.34463575
0003f0 97 47 f0 bd 27 0a 48 bd fc e9 87 bd 8a 7a e8 bd
       -0.11732405 -0.048837807 -0.06636426 -0.113514975

weight f4 [4, 256]
000000 06 b1 11 3e 48 09 13 bb c9 ad 3e bc 59 c9 09 3e
       0.14227685 -0.0022435952 -0.011638113 0.13455714
000010 74 90 c3 3e cf 0c e2 3c d5 5c 73 3e 6d 1b 65 bb
       0.38196146 0.027593998 0.23765881 -0.0034958974
000020 1e b7 64 3e 8b 1c 59 bb 54 ab f1 3d f3 12 13 3e
       0.22335479 -0.0033128585 0.11800256 0.14362697
000030 4c a6 de be b4 ef 01 be 33 d5 a4 bc c3 4b b2 bb
       -0.4348625 -0.12689096 -0.020121193 -0.0054411604
000040 42 9a e1 3a e6 c5 e2 3d de 8c a6 bc a7 29 06 3d
       0.001721211 0.110729024 -0.020330843 0.032754567
000050 be 1e 35 be 65 36 cb 3d 44 c4 24 be 46 7f 1d 3e
       -0.17687508 0.09922484 -0.16090494 0.15380582
000060 5c 80 27 3d ba 8c 63 3c cf 61 47 bc 77 04 31 bc
       0.040893897 0.013888532 -0.0121693155 -0.010804287
000070 52 31 70 bd ca 42 f3 3b 3c ce 89 bc e8 ef c9 3c
       -0.058640786 0.0074237334 -0.016821973 0.024650529
000080 f4 71 a7 bb 36 fb 0a bc 1a 12 56 3d 6a 93 2c 3e
       -0.00511002 -0.008482745 0.052263357 0.16853109
000090 6d 90 40 3e 70 0f 2e 3c cb c7 1a bc 58 54 fd bc
       0.18805094 0.010623798 -0.009447048 -0.030924007
0000a0 f4 83 3d 3e c8 f6 01 3a 2c ac 8b 3d d7 a8 8b 3c
       0.18507367 0.0004957733 0.068199486 0.017048283
0000b0 21 50 1e 3d 0d 0f 6b bb 20 bd 08 3c e2 17 b3 bf
       0.038650636 -0.0035867125 0.008345872 -1.3991663
0000c0 6f b6 66 bd 59 2b da bc f1 f2 0d bd 1b 92 35 bb
       -0.056326326 -0.026631998 -0.034655515 -0.0027705494
0000d0 c4 c6 42 3b 71 7f 1d 3c 40 40 b7 bd 21 22 51 3d
       0.0029720524 0.009612904 -0.089478016 0.05105794
0000e0 bf 41 35 bc 3a 2a ad 3b 54 24 d6 3d f1 e7 ed 3d
       -0.011063038 0.005284575 0.10456148 0.11616505
0000f0 98 b2 32 3d 28 f0 bd bc 60 3e 60 3b 0b 92 03 3d
       0.04362735 -0.023185804 0.0034216866 0.0321217
000100 56 25 e6 3c f3 b0 f9 bd 22 bc d2 3d 1c 6d fa 3c
       0.028093975 -0.121919535 0.1028979 0.030569606
000110 04 42 17 3e 93 2f fa bd 88 01 f8 bb 40 0d d5 3c
       0.14771277 -0.12216105 -0.007568542 0.026007295
000120 06 f0 03 3d b5 a6 2a 3e c6 8a ac bf 3a 82 53 3d
       0.032211326 0.16665156 -1.347985 0.051637866
000130 fb e3 15 3d d2 ce 72 bc e8 59 d9 3c 30 1a fe 3b
       0.036594372 -0.014819818 0.026532128 0.0077545866
000140 e2 10 9c bc 8f 31 62 3d 40 46 08 bd 15 43 95 bb
       -0.01905102 0.055223044 -0.03327012 -0.004555116
000150 52 30 61 bc 92 37 50 3c 0f 9a 9f 3c b6 b5 0f bd
       -0.013744431 0.0127085615 0.01948264 -0.035085402
000160 06 c1 b5 3c ee 68 41 3d 4d ff a7 bc 75 94 6e 3e
       0.022186767 0.04721921 -0.02050748 0.2329882
000170 86 7f 5c 3d 5b 95 0a 3d 55 53 d2 3c 2f a4 f9 3d
       0.053832553 0.033833843 0.025674501 0.12189519
000180 56 f1 da 3c 3b 2d 32 3d 40 8e 33 3c bc f1 c2 3d
       0.026726406 0.043500166 0.010959208 0.095187634
000190 17 b2 d7 3c e2 fb d5 b8 65 11 56 bd 65 54 83 3c
       0.026330037 -0.00010203548 -0.052262682 0.016031453
0001a0 01 9b 58 3d 7c a9 89 bc a9 93 22 3c 27 69 ef bd
       0.0528822 -0.01680445 0.0099229 -0.11689978
0001b0 e6 59 b7 3d 37 c1 f7 3c 8b c6 a5 3d aa 2f 0b 3d
       0.08952694 0.0302435 0.0809451 0.033981003
0001c0 04 bd fa 3d 68 4c ef ba 5e 86 9c bc b1 30 87 bc
       0.12243083 -0.0018257024 -0.01910704 -0.01650271
0001d0 0d 76 e3 bc 0f c8 9b 3b b7 b4 9c 3b 3d 8d dc 3d
       -0.027766252 0.0047540735 0.004782285 0.107691266
0001e0 77 4f 48 bc 41 f6 a3 bc 86 68 bb bc 0f cf 98 be
       -0.012225977 -0.020014884 -0.02287699 -0.29845473
0001f0 66 2e c2 bb ef de 77 bf 6b da 00 3c 60 22 78 3c
       -0.0059259413 -0.96824545 0.007864575 0.015144914
000200 2c f3 9f bd 5a c2 e2 3c 93 8a 0c be 9e 2e 39 3d
       -0.07810053 0.027680565 -0.13724737 0.045210473
000210 93 fc 5c 3c 4d 70 9f bc be 33 88 bb 18 2d 8c bc
       0.013487953 -0.019462729 -0.004156559 -0.017111346
000220 c8 49 44 bd b6 3b c3 3b d1 66 a0 ba 24 de bf 3d
       -0.047921926 0.005958046 -0.0012237673 0.09368542
000230 00 df 50 bd ff ca 61 3e 9e 68 aa 3c f8 24 ac 3d
       -0.05099392 0.22050093 0.020801838 0.08405489
000240 7f ff 3a 3d 31 b2 c4 bc df 13 6a bd b0 d5 5b bc
       0.045653816 -0.02401075 -0.057147857 -0.013417646
000250 0e 3d 89 bd d4 1a 93 3c fc 37 e2 bc d7 3b 2a 3e
       -0.067010984 0.017957129 -0.027614586 0.1662439
000260 65 87 05 3d 75 88 45 bd cf ab 5b bc 23 ac 12 3d
       0.032599825 -0.04822584 -0.013407662 0.035808694
000270 be ce 8c 3c 7a 85 13 3d f7 40 ad 3e 10 fc 12 3c
       0.017188426 0.036015965 0.33838627 0.008971229
000280 b7 e3 83 3d 01 ce 19 3a 4a 6a d9 bc 0d a1 e1 3d
       0.064399175 0.0005867184 -0.02653994 0.11017046
000290 bb 18 83 bc 64 57 50 3c 7f 8a 0e 3d c4 39 9f bb
       -0.016003003 0.012716148 0.03480005 -0.004859181
0002a0 b6 43 de 3c 15 0e ae 3e a1 45 0e 3d 77 a5 27 3e
       0.027131896 0.3399512 0.034734372 0.16371714
0002b0 64 54 ad 3d 35 f1 4a 3d 77 53 95 bf 67 07 cd bc
       0.08463362 0.04954644 -1.1666096 -0.025027944
0002c0 38 b6 8e 3b 26 f8 e8 3d 83 5d 21 bd 51 19 da bd
       0.0043552183 0.113754556 -0.03939582 -0.1064936
0002d0 90 77 3f bd e1 8e 12 3e da d0 14 3c 24 1b 0c bd
       -0.046744883 0.14312316 0.009082997 -0.03420557
0002e0 b7 2c 7f bc 2f 2e b4 bb 28 c4 01 3d ee 93 f4 3d
       -0.015574626 -0.0054986696 0.03168121 0.11942278
0002f0 f3 84 de 3c 81 a5 db be ed 94 92 bd e1 f3 26 3d
       0.027163005 -0.42899707 -0.071573116 0.040759925
000300 87 a8 43 bc dc 9a ab bd 25 23 45 bd a0 5e 4b bd
       -0.0119420355 -0.083791465 -0.04812922 -0.04965079
000310 dc ad 14 3d 48 f9 e1 3c 57 15 90 bc bf 3a db 3b
       0.036298618 0.027584687 -0.0175883 0.0066903527
000320 d2 03 56 bb 1d 07 93 3c 8a 3c e6 bc 6f bf 8b 3d
       -0.0032656086 0.017947728 -0.02810504 0.068236224
000330 14 0e e5 3b 40 8e 2c bd c0 a4 09 3c 64 83 03 3e
       0.0069902036 -0.042127848 0.008401096 0.1284309
000340 31 17 ea bb db 06 1e be 1c 18 9b 3d 9e 9a 63 3d
       -0.007143878 -0.15432303 0.07572958 0.055567376
000350 ce 5b 34 3d fc 1e 50 3c 4f ff ac 3d 1a 6b 2b 3e
       0.044032864 0.0127027 0.08447134 0.16740075
000360 b2 19 05 bc 82 43 1b bd 6e ec 16 3d f6 3c 80 3d
       -0.008123802 -0.037906177 0.03684657 0.062616274
000370 b6 c9 a7 bc 87 68 87 3d 3d 3a 96 3c 8c 15 1b 3d
       -0.020481925 0.06611734 0.018338317 0.037862346
000380 b6 bc 07 bd 5c 25 18 3e ee 33 11 3e 6a 23 73 3e
       -0.033138953 0.14858001 0.14179966 0.23743978
000390 77 f1 81 3d 65 6d fe 3b 53 51 89 bc 29 a7 75 3a
       0.06344884 0.0077645057 -0.016762411 0.0009370917
0003a0 98 88 15 be 16 74 64 bc c6 8f b8 3c 09 9b c7 bc
       -0.14602888 -0.013943693 0.022529494 -0.024365919
0003b0 95 7b 8c 3d 49 ad 96 bc 23 17 ce 3d 8c e4 e0 ba
       0.06859509 -0.018393176 0.10063007 -0.0017157956
0003c0 93 39 63 3d 27 d6 0f 3e d2 08 5e 3d ff 43 40 bc
       0.05547483 0.14046536 0.05420763 -0.0117349615
0003d0 67 b3 8a bc 09 14 8a bc b6 a0 f9 3b b9 75 09 3d
       -0.016931249 -0.016855257 0.007618035 0.033559535
0003e0 42 1b 39 bd 52 22 a3 3b 24 91 43 bd d8 ba 45 be
       -0.04519201 0.0049784565 -0.04774584 -0.19309556
0003f0 00 09 2c bd b1 0d b1 3c 06 3f 45 bc 9b ac 04 bb
       -0.04200077 0.021612974 -0.012038952 -0.0020244482

bias f4 [4]
000000 0d 1e 27 bc a4 94 e7 bc e8 1f 8d bd 52 a7 c9 bc
       -0.010200036 -0.02826912 -0.06890851 -0.024615917
