RLSnake/model/masakra.pth (torch, 294216 bytes, 6 tensors)

weight f4 [256, 22]
00000000: 90c6 41bd ada9 ba3e 4333 33bf 0f42 193f
00000010: a3d6 3cbe 899b 02be fa0f 29bf e47d 313f
00000020: bd10 8f3e 99af abbe 1044 10bf a044 10be
00000030: 990b 00be a0f8 5abd 2ac5 b0be 5f77 643f
00000040: 75a2 26bf d87a c1be 32bb 2f3e 7b9e 0cbe
00000050: 47c2 27bf 24b1 72be 5e06 0dbe 9d11 8cbe
00000060: ecef 15be 76d5 ccbd 9c73 22be 303f 3ebe
00000070: 9d59 5cbe f5f4 8c3c 5c36 0bbe 14e5 8bbe
00000080: 1051 833e bf42 3abc 1826 c53c 2c8a 3ebd
00000090: 910a 693c 7710 30be 8011 c53b f353 c3bd
000000a0: f457 413e 243d d5be 08dc b13d 1f24 70be
000000b0: 7e91 80bf 9d4d 4e3e aa30 33be 1979 fbbe
000000c0: f834 173d c014 813d 71e0 c03e 3e00 b63e
000000d0: 9c9f 943e 35ec dd3c ca5b ff3f b66c 23be
000000e0: de37 52be e8f9 353e 9e30 863e fbf9 9dbe
000000f0: 5cb1 48be a0b9 efbe 0983 debe 0194 ebbd
00000100: cf25 7f3f dd70 92be 8333 0fbe 9689 a9be
00000110: eb3c 3cbe 28da 4abd d0d1 eabc d4f8 31bd
00000120: 5901 25bb b8d1 17be 49ee a0bd 8a14 27bd
00000130: 6c70 093e 0148 513e fc87 a93d 4128 26be
00000140: 4493 37be 9e4f 05be 98b5 3ebe e810 9d3c
00000150: 0bcf 38be 716e bc3d 3cb3 01be a804 25be
00000160: 8207 dcbd 1b0d d4be d4fa 61be 244d 9abd
00000170: 7c3f d03d 1a9b 9cbd b497 9fbd b338 00be
00000180: 144f 80bd baa4 53be b76f ae3d e571 863d
00000190: 6c04 b63d 9c13 483e 1c98 4ebe 05e4 663e
000001a0: 2f90 4abe 6673 a0bd 9329 bcbd 2e22 aebc
000001b0: 4221 60be a266 07bd 9392 73be 8901 dabd
000001c0: 9ad9 b33d d645 f43d eea6 07be d079 4a3e
000001d0: 49a0 e0bd 7f0a 18be 35f4 2dbe 3d5e 92bd
000001e0: b684 82be ae64 75be c2d1 26be c83d c53d
000001f0: 77d2 a43d 98fe 2ebe 33c5 533d 0888 1dbe
00000200: 40e3 95be 5c9f 72be bb6e f9bd 3d57 e9bd
00000210: 0774 93bf dfef 16bf 9a0e bebf 8f71 f8bd
00000220: 1c6e 3bbe 1e5e 41be dc1f 223f 9b02 d93e
00000230: bb71 663e 7cf1 b7bf 0706 943f d7ef 41bf
00000240: 8883 aebd a49d 143d 656c dbbe cd40 f5bc
00000250: 35b3 1d3e 08f9 e4be eda2 c13f 606b 043f
00000260: 0170 ae3d 9954 75bd 7385 28bd 8038 83be
00000270: d828 1ebe 1804 0ebe 5098 48be ec77 2f3e
00000280: 439b 0ebd 0110 38be 2d35 76be e2ec c2ba
00000290: 1da4 153d 5bbd 9abc 1cf2 563e c88b b73c
000002a0: fea5 33be 10e3 0e3d 809a 96ba 6c0a 2bbd
000002b0: cfeb 5ebc 6316 a3bd fa0d 8fbd 992d 79be
000002c0: 824b 95bd c3d6 26bd ab4b 36bf 26a4 abbe
000002d0: 2eaa 553e 404c a23c 9d84 3fbe 1481 eebe
000002e0: 0e92 44be a5fc 30be 793e d2bd 0e38 20be
000002f0: fc53 ea3d 80c1 abbb c4c5 c6bd b085 38be
00000300: e017 df3d a32b 923e 6ca8 e2be 0f20 ea3e
00000310: 677b a3be ffc9 1cbe f9a8 833f ab18 aebf
00000320: 4770 3abe f9ca 9cbf 9881 383e 3240 383e
00000330: e331 fcbf 7a27 eebf 91df 38bf 7974 a13d
00000340: 55ff 5dbe ff09 aa3f f068 6b3c e0bb 64bc
00000350: e3c6 5dbf 7bf4 b4bc 430f e23e 1b29 e3be
00000360: 656a b8bf 2999 28bf 7972 673f 8800 533e
00000370: 7141 62be 9c19 a4be fc5e 35be 96a6 42be
00000380: c6aa 143e 188f cb3d 65ea 28be c8a0 693d
00000390: 44ec 57bd bbb0 1fbc eacf da3c 511d 5e3d
000003a0: 708e 71bc 8958 45be 4e34 003e 60b8 593d
000003b0: ba22 24bc 6121 51be ddf5 7abe b38a 403c
000003c0: 1aac a83c ef59 02bd 197d 78be 8eb0 f7bd
000003d0: b9de 9fbd 1520 07be 0854 483e 182c 1c3d
000003e0: 9f2c 6bbe b5ec 0cbd 3446 0ebe 9940 82be
000003f0: ae6e 753e e832 ffbd 70bb 093e 7020 46bc
-0.047308505 0.36457577 -0.70000094 0.5986642 -0.18441252 -0.12754644 -0.66040003 0.6933272
0.27942458 -0.33532408 -0.56353855 -0.14088678 -0.12504424 -0.053459764 -0.34525424 0.89244646
-0.6509164 -0.37789035 0.17161253 -0.1373233 -0.6553082 -0.23700386 -0.1377196 -0.27357188
-0.14642304 -0.10001652 -0.15864414 -0.18578792 -0.2151856 0.017206648 -0.13594955 -0.2732321
0.25647783 -0.011368453 0.024066016 -0.04651849 0.014223711 -0.17193781 0.006014049 -0.095374964
0.18881208 -0.4164821 0.08684546 -0.23451279 -1.0044401 0.20146795 -0.17499033 -0.49115828
0.03691575 0.06302786 0.37671235 0.3554706 0.29028022 0.027090171 1.9949887 -0.15959439
-0.20529124 0.17771113 0.26208967 -0.30854782 -0.19598907 -0.46821308 -0.43459347 -0.11502839
0.99667066 -0.28601733 -0.13984494 -0.33112782 -0.18382613 -0.049524456 -0.0286645 -0.04345019
-0.0025177805 -0.14826095 -0.07857949 -0.040791072 0.13421792 0.20437624 0.0827789 -0.16226293
-0.17927271 -0.13018653 -0.1862396 0.0191731 -0.1804773 0.092007525 -0.12666029 -0.16115057
-0.107436195 -0.4141625 -0.2206834 -0.07534245 0.10168359 -0.07646771 -0.07792607 -0.12521629
-0.06265083 -0.20668307 0.08517402 0.065646924 0.08887562 0.1953873 -0.20175213 0.2254792
-0.19781564 -0.078345105 -0.09187617 -0.021256533 -0.21887687 -0.033056863 -0.23786382 -0.10644824
0.087817386 0.11927383 -0.13247272 0.1977303 -0.10968072 -0.14847754 -0.16987689 -0.07146881
-0.25491875 -0.23964188 -0.16290954 0.096309245 0.080479555 -0.17089307 0.051701736 -0.15383923
-0.2927494 -0.23693603 -0.12179323 -0.113935925 -1.1519784 -0.58959764 -1.4848206 -0.121310346
-0.18303722 -0.18883559 0.63329864 0.423848 0.22504322 -1.437057 1.1564339 -0.7575659
-0.08521181 0.03628315 -0.42856136 -0.029938126 0.15400393 -0.44721246 1.5127846 0.5172634
0.08517457 -0.05989513 -0.041142892 -0.25629044 -0.15445268 -0.13868749 -0.19589353 0.1713559
-0.034816038 -0.17974855 -0.24043722 -0.0014871622 0.036533464 -0.01888912 0.20990795 0.02240552
-0.1754379 0.034884512 -0.0011490136 -0.041757986 -0.013606026 -0.07963254 -0.06985088 -0.243338
-0.072897926 -0.040732156 -0.7120921 -0.33523673 0.208657 0.01981175 -0.18702932 -0.46582854
-0.1919634 -0.17283876 -0.10265822 -0.15646383 0.114418 -0.005241573 -0.097056895 -0.18019748
0.10893226 0.28548917 -0.4426912 0.45727584 -0.31930086 -0.1531143 1.0285941 -1.3601278
-0.18206893 -1.2249442 0.18018186 0.17993239 -1.9702724 -1.8605797 -0.72216135 0.078835435
-0.21679433 1.32843 0.014368281 -0.0139608085 -0.866316 -0.022089234 0.4415227 -0.44367298
-1.4407469 -0.65858704 0.90409046 0.20605671 -0.22095276 -0.32050788 -0.17712015 -0.1900886
0.1451827 0.09939402 -0.16495664 0.0570381 -0.052715555 -0.009746726 0.02671047 0.054227177
-0.014743432 -0.19272055 0.12519953 0.05315435 -0.010018045 -0.2042289 -0.24507852 0.0117518185
0.020589877 -0.03182405 -0.24266471 -0.12094222 -0.07806153 -0.13195832 0.19563305 0.03812799
-0.2296624 -0.03440543 -0.13893968 -0.2543991 0.23968002 -0.124608815 0.13450408 -0.012092695

bias f4 [256]
00000000: e571 a9bf 90b1 7dbd fe02 2bbf aaa3 ccbd
00000010: af2c 0fbe 4ad5 1fbe d5ee d5be ed51 32bc
00000020: 65c2 6bbe 9d07 69be e2bc 53bd 1ec0 02be
00000030: 75bb 16bf 2d66 8bbe 18ae b7bd 9063 f4bd
00000040: 7030 a9be bbef 6fbe 6ada acbe 1dd9 77be
00000050: 724f ebbe 2ebd 59be 2d89 80bd 5c78 c1be
00000060: 47ab c9bd f58f 81be 7dcf 01be 0fac 3bbe
00000070: 2c35 31bf 62f7 f7be 99a0 47be 8281 38bd
00000080: 776b ddbe 43db 853c 67b1 1abe ee8d c9be
00000090: a16f f0bd 22a3 7bbe 49a3 463f 0f1c f1bd
000000a0: 23b5 febd 1931 87be 2815 d8be 613d a1be
000000b0: f952 30bf b886 74bd 5f01 41be 2805 7cbe
000000c0: 66e7 84be d22c 08bf 445b 62be 4f72 50be
000000d0: 8fb0 b9be 2fc1 ebbd b948 7ebe c180 74be
000000e0: 2f3c 64be b3e5 acbe f1e1 2dbe 5665 15be
000000f0: 4182 08be 56c9 edbe 8dd2 23bf aa33 60be
00000100: 4368 0abf 5d6c b13e 0205 d5be bad6 46be
00000110: f89d 5ebe ed26 a2be 4d87 48be ef0e 75be
00000120: 5257 02be 3935 3ebe 6b96 79be ae93 b2bf
00000130: 858a 96be e801 2ebe a00e f7bd 491e 0dbe
00000140: 14d3 113e 685f e5bd 83fb 80be 0143 2fbf
00000150: 0afd c9bd ddbb 5ebe cef9 d4be c848 acbe
00000160: 8603 12be bd96 9a40 d04e 34bf d1c5 f8be
00000170: ad33 8ebe 142b adbe d955 023c 3512 21bd
00000180: e0cc 46bf fa9b 88bd 2dbe 2abf ae95 85be
00000190: b97b 57be cfb5 61be 19a2 e23e 281b 8abd
000001a0: 8cfb a2bd bbc5 78be 866f ffbf 39e3 a0be
000001b0: 9be0 90be c322 a6be 3504 42be 7653 d0be
000001c0: 96b6 14bd ec22 aabe c480 a1be 11e6 1ebe
000001d0: 7a49 e7be 5fd5 87be 2517 99bd d731 17bf
000001e0: f171 89be 1c5b 43be d6a1 4ebe eeb2 78be
000001f0: e55f 73be a590 01be 3aaa f9be d1d2 6b3f
00000200: 0374 6cbe afb1 76be 103c 59be ad06 fabe
00000210: ca06 85be 1fe4 69be 9f80 f0bd 4204 efbd
00000220: 16ef 49bd 8beb 7abf a9f8 803c 55a6 bebe
00000230: 8ab6 c1be 9ceb 74be fe5e a4be ec69 cabe
00000240: 96de 12bf 278b d0be d48a 8fbd 2582 72be
00000250: ea8a 15be 9173 e4be 5f98 9abe f492 90be
00000260: 1851 813e 4851 74be 9f36 f5bd 46ef 78be
00000270: e3b9 0abe ba6e 01bd 8884 edbe c1af 3cbf
00000280: 2a34 dabe e79a 83be eec4 33bb 5668 56be
00000290: ad38 41be 2bb4 05be eda5 4dbe aec4 05bf
000002a0: ad78 42bf b415 e5bd c73a 56be 0e6c 98be
000002b0: 70fb 22be b766 a2be 6afc 8abf 16a4 2dbf
000002c0: 9abd acbe 24c0 84be 534b 9bbe 9109 3cbf
000002d0: 495e b5bd 42b9 4abe f11a 54be 20d8 15be
000002e0: 797f 2bbe bc62 a0be bfca 63be 0a6a 36bd
000002f0: 32a0 643d 29b9 cdbd 256a 5abe 8ab2 5dbe
00000300: 18af 01bf 3c18 85be d00f 9abe 9d88 b2be
00000310: 98ea 5ebe 70b0 b2be c7dd 17be dfcc dabe
00000320: 11ca d1bd 590d 19be c0af 0bbe 6db0 a9be
00000330: 7eca e3bd 29c4 88be 8aed 05be 43a3 b4be
00000340: 2936 6dbe ff3f 96be 8d0b 24bf 116f a9bd
00000350: 1952 3abd 79fd 2fbe 36db e3be 46f7 85be
00000360: ffdc 07be d4ff 61be d65a a1be 4d61 79be
00000370: 81b8 79be 66ed 1cbe cfc1 46bd 90e2 aebe
00000380: e605 5bbe 840c b0be 0d38 d0be 773f 53be
00000390: e588 afbe 5c2c debe b644 aebf 969d acbe
000003a0: d9ea f8be c0ed 80be 75ed d0bd f5ce 10be
000003b0: be9e a8be 1ad0 b0bd 6d00 11bf d3a8 14be
000003c0: 29e2 61be eba4 babe dc52 c4be 72b3 c4be
000003d0: b8f6 0bbe 2a26 71be aadb 83bc b138 64be
000003e0: 0286 7bbe 8830 cdbe aedb 93be fe43 d7be
000003f0: d404 44bf 9611 5ebe 0770 be3c 3a41 cbbe
-1.3237883 -0.061936915 -0.6680144 -0.09992154 -0.13981889 -0.15608707 -0.41783777 -0.01088379
-0.23023374 -0.2275681 -0.051693805 -0.127686 -0.58879787 -0.2722639 -0.089687526 -0.119330525
-0.33044767 -0.23431294 -0.33760387 -0.24203916 -0.4595905 -0.21263573 -0.06276164 -0.3778714
-0.09847122 -0.25305143 -0.12676807 -0.18327354 -0.6922176 -0.48430926 -0.19494857 -0.045045383
-0.43246052 0.016339904 -0.15106736 -0.39366096 -0.117400415 -0.24573949 0.77592903 -0.1177293
-0.12436893 -0.26404646 -0.4220364 -0.3149214 -0.68876606 -0.05969879 -0.1884818 -0.24611342
-0.25957793 -0.5319339 -0.22105128 -0.20356105 -0.36267516 -0.11511456 -0.24832429 -0.2387724
-0.22288583 -0.33768997 -0.16980721 -0.14589438 -0.13330938 -0.4644267 -0.6399315 -0.21894708
-0.5406534 0.34652987 -0.41605383 -0.19417849 -0.21739948 -0.31670323 -0.19582863 -0.23931478
-0.12728623 -0.1857499 -0.24373786 -1.3951318 -0.29402557 -0.16992915 -0.12063336 -0.13781084
0.14240676 -0.11199838 -0.25191888 -0.68461615 -0.098627165 -0.21751352 -0.41596836 -0.33649278
-0.14259157 4.8309007 -0.7043276 -0.48588422 -0.277738 -0.33821929 0.007955038 -0.039324004
-0.77656364 -0.06670375 -0.66696435 -0.2609076 -0.2104329 -0.2204201 0.44264296 -0.06743461
-0.07958135 -0.24294178 -1.9955909 -0.31423357 -0.2829636 -0.32448396 -0.18946917 -0.40688676
-0.03630694 -0.33229768 -0.31543553 -0.15517451 -0.45173246 -0.26529977 -0.074751176 -0.59060425
-0.26844743 -0.19077724 -0.20178923 -0.24287006 -0.2376705 -0.12652834 -0.48762685 0.92118555
-0.2309113 -0.24091218 -0.21214318 -0.48833218 -0.25981742 -0.22840928 -0.117432825 -0.11670734
-0.049300276 -0.9801566 0.01574357 -0.37236276 -0.3783458 -0.23918003 -0.32103723 -0.39533937
-0.5737089 -0.40731165 -0.07008901 -0.23682459 -0.14603773 -0.4461942 -0.30194375 -0.28237116
0.25257182 -0.23859131 -0.11973309 -0.24310026 -0.13547473 -0.031599738 -0.46390176 -0.7370568
-0.42617923 -0.2570412 -0.0027430612 -0.20938239 -0.18869276 -0.1305701 -0.20082827 -0.52253234
-0.75965387 -0.1118578 -0.2092086 -0.2976994 -0.15916228 -0.3171899 -1.0858281 -0.678285
-0.33738405 -0.25927842 -0.30330905 -0.734521 -0.08855874 -0.19797233 -0.20713402 -0.14633226
-0.16747846 -0.31325328 -0.2224531 -0.04453472 0.055816837 -0.10045082 -0.21329553 -0.21650138
-0.50657797 -0.25995052 -0.3009019 -0.34869853 -0.21769178 -0.34900236 -0.14830695 -0.4273443
-0.10243619 -0.14946498 -0.13641262 -0.33142415 -0.11122607 -0.26712158 -0.13078895 -0.3528081
-0.23165192 -0.293457 -0.64080125 -0.08273137 -0.04548845 -0.17186536 -0.44503182 -0.26165217
-0.13267897 -0.22070247 -0.31514615 -0.24353524 -0.24386789 -0.15324935 -0.048524674 -0.34157228
-0.21388969 -0.3438455 -0.40667763 -0.20629679 -0.3428413 -0.4339322 -1.3614719 -0.3371398
-0.48616675 -0.2518139 -0.10201541 -0.14141448 -0.3293361 -0.08633442 -0.56641275 -0.14517526
-0.2205893 -0.36453947 -0.38344467 -0.38418156 -0.13668334 -0.23549715 -0.016095955 -0.22287251
-0.24562839 -0.4007609 -0.2887854 -0.4204406 -0.7656987 -0.21686396 0.023246778 -0.396982

weight f4 [256, 256]
00000000: 80e1 e2bc f9f3 4ebd 8a92 57bd f665 9d3d
00000010: 970c 683a b29c 56bd 7a39 1c3c 3b2a 42ba
00000020: 969b 3cbd 2811 99bc 003f aabd 0ead 5a3d
00000030: def5 fcbc b1c0 9ebd fae0 5fbd bb07 363d
00000040: f3e8 5f3d 7a2d 1f3d ec8d c5bc 09c2 24bd
00000050: 084c a6bd f8b8 943d c406 333d dfcc 96bd
00000060: a268 843d fb98 45bd fae0 5d3d 2140 c73a
00000070: 00db b0bc 28de 53bc 90dd 9dbd b049 c03c
00000080: ae17 343d cd07 bbbc 23bb b7bd 3033 d6bb
00000090: 5615 ee3c d4ab f2bc 507e 8cbb 84ec e0bc
000000a0: 9cc1 c53c 80eb 07bd a009 bfbc 445f bb3c
000000b0: fe23 a23c 4092 823a c6bc 57bd 69c4 00bd
000000c0: 2ef4 473d d453 c83c 8629 303c 855c 5e3d
000000d0: 982d c6bc 9a81 73bd f842 eabc 23ab 4bbc
000000e0: 20e7 713c 3a38 5abd 1051 873c 6312 143d
000000f0: a099 3c3b 0816 34bd 44cc acbc 4093 f4bb
00000100: 5cb2 0a3d a028 2abd 8ce1 af3c c7e6 8d3c
00000110: ed31 0bbd cb61 2dbd 83fd 30bd cf6c bc3b
00000120: 76c3 7ebd 0206 66bd cbf9 6fbd b63e acbd
00000130: 2895 48bd 5c1c 7e3d 0cc6 41bd 3482 113d
00000140: 784d 8abd 3238 233d a16a 703c 3f8d 8c3c
00000150: 9c87 29bd bfda c6bc 94cb 2cbc 7c81 7ebd
00000160: 675a 043d 2bb0 053c 5689 60bc 6127 703b
00000170: 4fd2 25bd 30dd 12bd d4d0 36bd 04d7 08bd
00000180: aea0 663d e098 babc b73c 1fbd 8af1 5d3d
00000190: 409f a0bc a0ae 7cbc 0066 f53c 2ad4 6abd
000001a0: 6830 4abd 892a 583b 47bd f2bd 9134 87bd
000001b0: 18dc 18bc 8b48 57bc 74a0 6abd 1e1c 3f3c
000001c0: c568 b3bd b4bb 97bb 5280 9abd 3366 44bd
000001d0: 2aea aebd d484 863c f8fc 2bbc 1655 793c
000001e0: 7cd1 04bb bfa9 85bd 60de 8ebb c62d 06bd
000001f0: 80ba ce3c f810 2bbc 1263 76bd e942 15bd
00000200: fef6 a63b 56a4 52bd fc3a 643d d42e a3bd
00000210: 364e 013d 02e8 033d a831 703d baed 80bb
00000220: 74ea 0fbd 60ee 1ebb fc7b 02bd 2ea8 333d
00000230: b5d2 8cbc b46e 96bd 2841 20bc bc50 683b
00000240: 327c bbbc 168e 143d 67d5 39bc 30b3 b8bc
00000250: abc3 57bd 716c 13bc eec0 30bd 74f5 693d
00000260: 4029 44bd e87f 703c 6e5e 86bd ea0d 743c
00000270: 4553 3bbd be30 7f3d a013 bb3c 530e 92bd
00000280: 8616 0e3d 8449 003d dc45 873c b737 95bb
00000290: 606d 6b3d 2ac4 37bd ea56 9c3d ffe6 05bc
000002a0: a487 6bbd fd0b 923c bdc3 53bd 6f4b 713c
000002b0: a80a 263d 8601 72bc a63c 053c 791b 03bd
000002c0: 8e94 7c3d ffd8 8dbd c275 733d ac83 22bc
000002d0: e2e1 643c 17ff 8bbc eb83 cabd eca5 51bd
000002e0: 82ab c8bc 066b 1d3d e2ef d03b 325d e13c
000002f0: d4a7 133d 0031 5ebc cc49 85bc c019 57bb
00000300: 0e61 52bd e05f cb3b d28c 0a3d 412b f43c
00000310: 582e f1bc b19c acbd f8df bdbd 2ef7 4abd
00000320: 4998 373c 4495 dfbc 67a1 6d3d 6de8 a6bc
00000330: 6b1d 153d 8e61 4fbd 0a64 97bc 8c73 ac3c
00000340: d091 7abd 36ab 5d3d 5791 99bc 1808 523c
00000350: da18 263c 2a53 aabb b7a6 a8ba 507f bcbd
00000360: 9040 973b aa0f abbd 3d1d 3dbc 748c 4a3d
00000370: 3ab6 443d 4095 e03a d69d 2abd 009e 38bd
00000380: c4f4 9ebc 4c90 4fbd 60ce 5e3c 388c 673d
00000390: 9d71 cfbc 3026 15bc 2db3 c3bc aa71 4cbd
000003a0: 1dbd 64bd c0ff fdba 002c 523b 6c48 79bc
000003b0: 4e39 34bd bee1 a8bd f753 44bc 88bf 2b3c
000003c0: f08d 59bc e0cc 703c d827 2fb9 002c 393b
000003d0: e881 5e3d 5ce7 b3bc b86e d53c beee 3ebd
000003e0: 5e99 78bd bc1f 82bb e68b 0e3d d4ee e8bc
000003f0: e183 f43b 2a15 253a 9850 b23c be9f 60bd
-0.027695417 -0.05052564 -0.052629985 0.07685463 0.00088519737 -0.05239553 0.009535188 -0.00074068055
-0.046046816 -0.018684939 -0.083127975 0.053387694 -0.030878957 -0.07751597 -0.054657914 0.044440966
0.054665517 0.03886173 -0.024115525 -0.04022411 -0.081199706 0.072618425 0.043707624 -0.07363295
0.064652696 -0.048241597 0.054169632 0.0015201607 -0.021588802 -0.012931384 -0.07708275 0.023472637
0.043967895 -0.022830868 -0.0897124 -0.0065368637 0.029062908 -0.02962295 -0.0042875186 -0.02745653
0.024140172 -0.033183575 -0.02332002 0.022872575 0.019792553 0.0009961799 -0.052670263 -0.03143731
0.048816852 0.024454035 0.010752087 0.054287452 -0.024191663 -0.05944977 -0.028596386 -0.012430939
0.014764577 -0.053276278 0.016518146 0.036150347 0.002877809 -0.043966323 -0.021093495 -0.0074638426
0.033861503 -0.04154265 0.021469854 0.017321957 -0.03398316 -0.04232959 -0.043210518 0.0057502757
-0.062198125 -0.056158073 -0.05858783 -0.08410399 -0.04897037 0.062038764 -0.047308013 0.035524562
-0.06753057 0.039848514 0.01467386 0.017157195 -0.041389093 -0.024274228 -0.010546584 -0.062135205
0.032312777 0.0081596775 -0.013704618 0.0036644565 -0.04048377 -0.035855472 -0.044632748 -0.03340818
0.05630558 -0.022777975 -0.03887626 0.054185428 -0.019607186 -0.015422493 0.029955864 -0.05733124
-0.04936257 0.0032984337 -0.11852508 -0.06601823 -0.009329818 -0.013139854 -0.057281926 0.0116644185
-0.087602176 -0.0046305303 -0.075440064 -0.047949027 -0.08540757 0.01642076 -0.010497324 0.01521804
-0.0020266464 -0.06526517 -0.0043600053 -0.032758497 0.025235415 -0.010441057 -0.060153075 -0.036440764
0.0050953617 -0.051426254 0.055720314 -0.07967916 0.03156873 0.03220368 0.058641106 -0.003934589
-0.0351357 -0.002425097 -0.031856522 0.04386156 -0.017190317 -0.07345334 -0.009781159 0.0035448512
-0.02288637 0.036268316 -0.011342383 -0.02254638 -0.052676838 -0.008998022 -0.043152742 0.057118848
-0.0478909 0.014678933 -0.0656098 0.0148958955 -0.04573371 0.062302344 0.022836506 -0.071316384
0.03468945 0.03132011 0.016512804 -0.004553761 0.057477355 -0.04486481 0.07633765 -0.00817275
-0.057502404 0.017827982 -0.051700342 0.014727457 0.040537506 -0.014770871 0.0081321355 -0.03200862
0.06166511 -0.06926154 0.059438474 -0.009919088 0.01396987 -0.01708941 -0.098884426 -0.051183626
-0.024495844 0.038432144 0.0063762525 0.02751026 0.036048725 -0.013561487 -0.01627054 -0.0032821745
-0.05136209 0.0062064976 0.033825703 0.029805781 -0.029441044 -0.08428324 -0.09271234 -0.049552135
0.011205741 -0.027292855 0.058015253 -0.020374501 0.03640501 -0.050630145 -0.01848032 0.02105119
-0.061174214 0.054118358 -0.018746061 0.0128193125 0.010137761 -0.005197902 -0.0012867068 -0.092039704
0.0046158507 -0.08352597 -0.0115426155 0.049450353 0.048025347 0.0017134324 -0.04165443 -0.045072556
-0.019403823 -0.05067472 0.013599008 0.056530207 -0.02532273 -0.009103343 -0.023889149 -0.049913086
-0.055844415 -0.0019378588 0.0032069683 -0.015215021 -0.043999963 -0.08246182 -0.011982909 0.010482676
-0.013278469 0.0146972835 -0.00016704143 0.0028254986 0.054323107 -0.021960907 0.026053771 -0.0466144
-0.060693137 -0.003971068 0.034801386 -0.028434195 0.0074620103 0.0006297404 0.021766946 -0.054839842

bias f4 [256]
00000000: 5ab7 08be cb37 8bbe 6c85 ecbd eb75 9cbe
00000010: 8908 3ebf 63f7 fcbd f5e5 25be 15b5 a6be
00000020: 45f9 41be 2d50 e0bd bb83 4bbe 23a1 18bf
00000030: b90a 29be 3f8c 1cbf 8e8c 7cbf f7ff 4bbe
00000040: f2ad 12be 63c5 8bbf f391 72be 9d90 b3be
00000050: 70e0 56be 7554 acbe 7d7c e9bd 4623 02be
00000060: 8d21 14be e851 35be 7058 0cbf f98d afbe
00000070: e67e f7be 0e8f 15be d014 10be 43fc cdbe
00000080: 8a17 6cbe 90e7 63bf a0af ddbe 6292 43be
00000090: 7c1d 9bbe 3263 e0be 0aa4 8ebe 19a5 3abe
000000a0: 648e f0bd 4df8 e9be 6e79 03bf 4a7c 15be
000000b0: 7ca7 2abe 04a0 163f e90c b6be 880e e8bd
000000c0: faca 77be 8c0a ccbd c136 9fbe b55f 5fbf
000000d0: 5c1f 0fbf 6399 72be 7fb7 1ebf f7d2 dabd
000000e0: 1abb 523f c7fe 29be afc8 57bf 0d5a 14be
000000f0: d603 0ebe aed1 43be 8783 11be d04a 2abe
00000100: e704 90be c36d cebd e926 5dbf 8e60 9bbd
00000110: fd19 4bbe 29d3 1dbe 1168 00bf 299e 47bf
00000120: efd9 8dbf 9447 f8bd 3dd6 08be ad78 2abe
00000130: 4762 0bbf 6a99 a7bf c518 7dbe bb21 69be
00000140: 73c6 f2bd 02f7 88be b82a 203f 0e27 06be
00000150: 82c2 50be ba58 d4bd b373 8ebe 1cd9 cdbe
00000160: 1986 11be 3609 42be 2277 69be 95e8 bbbd
00000170: 023d 65be 77ab 69be aedd 89bf f120 11be
00000180: 4c14 ccbf b481 f0be 1b38 36bf 58ef 93be
00000190: e8b8 cdbe 43a7 02be 0e76 d6bd a494 c6be
000001a0: 675b 0bbe 9640 22be 6280 85bf d49c 49be
000001b0: 1db5 a6be 2fa4 9ebe 5825 10be f726 01bf
000001c0: 05bb 93be 2b02 80be b45d 77be 099b 95be
000001d0: 7147 36be e88e 21be 486a cbbd 2e64 89be
000001e0: 2cfd 31be 7860 ecbd ca70 b9be 96f9 9dbe
000001f0: b0e0 2ebe 145e babe c5f5 18be 54fe 6bbe
00000200: e706 06bf 7881 1cbe 663d 1dbe 5f26 38be
00000210: bee4 7abe e592 64bf 4bb3 70be 132d 3bbe
00000220: 2b60 7cbf 118f d8be eb29 83be 2919 7abe
00000230: bb6d 3bbe 2da8 6abe dc47 f2bd c6d3 dfbd
00000240: 84d6 edbe fe4c 33be 63a3 2cbf 60af 2dbf
00000250: fcba 3dbf a2f6 cabe c654 9ebe 677f 09bf
00000260: 0844 bebe fc4d c2bf 8104 09bf cc05 b9be
00000270: 3737 85be 8e86 c3bd 1b20 d3be 6ca5 62be
00000280: 5a3e 31be 2933 97be 68ce 33be 24fa 73be
00000290: 0274 86be d564 35be f14b 13be f2f1 23be
000002a0: dcc9 fabe b4fe 13be 06c1 7dbe 28c9 84be
000002b0: 9a8b ebbd 6bbe e9bd 81d6 a5bd 789e 88be
000002c0: e852 18be 4b5d 06bf 2c60 9fbe 4d99 8abe
000002d0: b1d5 c2bd c72d 8bbe 70fa 11be 748f 92be
000002e0: d42d 6ebe 5f56 27bf 9261 14be 5e57 ebbe
000002f0: 3339 9dbe efc5 4cbe 3f01 3bbe c790 f3bd
00000300: bdbe 08bf 471d 1cbe 1619 a8bf 8f4e 0ebe
00000310: 2c38 5ebe a3c4 efbe 61b9 4dbf adf5 dcbd
00000320: d062 83be e7f6 03be 8edd 7dbe 366d 79be
00000330: 3816 b9bd a7eb 47be 93fe a4be 5bf5 1bbe
00000340: 85bf 14bf 62fe 3fbe 6e5f 31bf 8c9a 82be
00000350: 4f8c a7bd 365e 6bbe b726 3abe a9bb 15be
00000360: 6388 c5bd 66f0 efbe f90b 04be 61ca 58be
00000370: 3377 ecbe 55b5 18bf 7721 3fbf f259 89be
00000380: 9ecf d9bd cd3d debd 5932 6abe d31e 113f
00000390: 2314 adbe 0db1 c0bd 3c83 7ebe e07f d7be
000003a0: eb14 1abf be41 0cc0 b0c1 88bf 09a7 fbbd
000003b0: beda 76be 399d e0be fc9a 12bf b7f2 13bf
000003c0: 513b b8be b774 d3bd f071 80be 63bf 89bf
000003d0: f5b2 4fbf 05e0 e43f 9f8d a7be 1d07 86be
000003e0: 228d 17be fb96 0cbe 5676 b0be 438e 6dbe
000003f0: b403 b2be 6e16 88be d0fc 37be 1d99 15bf
-0.13351193 -0.27191004 -0.11548886 -0.30558714 -0.74231774 -0.12351873 -0.16201003 -0.3256003
-0.18942745 -0.10952792 -0.1987447 -0.59620875 -0.16507997 -0.611515 -0.9865197 -0.19921862
-0.14324167 -1.0919613 -0.23688488 -0.3507127 -0.20984054 -0.33658186 -0.114006974 -0.12708768
-0.14465924 -0.17707026 -0.54822445 -0.34288004 -0.48339003 -0.14605352 -0.1407044 -0.40231523
-0.23055854 -0.8902521 -0.43298054 -0.1909881 -0.30295932 -0.4382568 -0.27859527 -0.18227042
-0.11745909 -0.4569725 -0.5135716 -0.14598194 -0.16665453 0.58837914 -0.35556725 -0.113308966
-0.24198523 -0.09962949 -0.3109646 -0.8725541 -0.55907226 -0.23691325 -0.6199874 -0.106847696
0.82316744 -0.16601096 -0.84290594 -0.14487477 -0.13868651 -0.19122955 -0.1421033 -0.16630101
-0.2812874 -0.10079529 -0.863875 -0.07586776 -0.19834132 -0.15412582 -0.5015879 -0.7797571
-1.1082133 -0.121230274 -0.13362975 -0.16647597 -0.54446834 -1.3093693 -0.2471648 -0.22766773
-0.118542574 -0.26750952 0.62565184 -0.13100836 -0.20386699 -0.10368486 -0.27822646 -0.40204704
-0.1421131 -0.18948826 -0.22799352 -0.09175221 -0.22386554 -0.22819315 -1.0770776 -0.14172722
-1.5943694 -0.46973956 -0.7117936 -0.28893542 -0.40180135 -0.12759118 -0.10471736 -0.3878528
-0.13609086 -0.1584495 -1.0429804 -0.19688731 -0.32560053 -0.30984637 -0.14076746 -0.5045008
-0.28853622 -0.25001654 -0.24156839 -0.29219845 -0.1780069 -0.1577717 -0.09932381 -0.26834244
-0.17381734 -0.115418375 -0.36218864 -0.3085448 -0.17077899 -0.363999 -0.14937504 -0.23046237
-0.5235428 -0.15283763 -0.15355453 -0.17983387 -0.2450132 -0.89286643 -0.23505895 -0.18278913
-0.9858424 -0.4229665 -0.25617918 -0.2442366 -0.18303578 -0.22915716 -0.11830112 -0.109290645
-0.46452725 -0.17509839 -0.6743681 -0.67845726 -0.7411344 -0.3964129 -0.30924052 -0.53710026
-0.3716128 -1.5180049 -0.535225 -0.36137235 -0.26018688 -0.09547149 -0.41235432 -0.22133416
-0.17308941 -0.2953122 -0.17559206 -0.2382589 -0.26260382 -0.17714246 -0.14384438 -0.16010264
-0.4898213 -0.1445263 -0.24780664 -0.2593472 -0.11501236 -0.114132725 -0.08097554 -0.26683402
-0.14875376 -0.52486104 -0.3112806 -0.27070084 -0.09513415 -0.27183363 -0.1425569 -0.2862507
-0.2325967 -0.65366167 -0.14490345 -0.45965093 -0.30707702 -0.1999738 -0.18262194 -0.118928485
-0.53416044 -0.15245543 -1.3132656 -0.13897155 -0.21701115 -0.4682971 -0.8036099 -0.107890464
-0.25661325 -0.12887155 -0.24791548 -0.24358067 -0.09037441 -0.19523488 -0.32225475 -0.15230314
-0.58104736 -0.18749383 -0.6928624 -0.25508535 -0.081810586 -0.22985157 -0.18178831 -0.14622368
-0.09645154 -0.46863097 -0.12895192 -0.21170951 -0.46184692 -0.5965169 -0.7466044 -0.26826435
-0.10635303 -0.10851631 -0.22870769 0.5668766 -0.33804426 -0.0940877 -0.2485475 -0.42089748
-0.6018817 -2.1915126 -1.0684109 -0.12287719 -0.24106881 -0.4386995 -0.5726774 -0.5779223
-0.35982755 -0.10324996 -0.25086927 -1.0761532 -0.8113244 1.7880865 -0.32725236 -0.26177302
-0.14799932 -0.1372947 -0.34465283 -0.231988 -0.3476845 -0.26579612 -0.17967534 -0.5843676

weight f4 [4, 256]
00000000: 3421 d9bc fbba 34be 83bc e53c a168 8ebc
00000010: 718c 003e 55f3 bcbb 3484 313d 6c39 dabd
00000020: bf99 dd3c ca5a aa3b 1a59 693d e0d1 a83e
00000030: 7270 d03b b1f9 533d df6a 9dbd 86b8 95bc
00000040: dcb4 0abd 554b 063f b2f8 c93c 5f3d 11be
00000050: 0101 1dbd da22 643d 22db b1bb 4f6c 07bd
00000060: 464a 373c 29f8 6dbd ab3c 00be 8992 dd3d
00000070: d78a 9f3d ddf5 2cbc d230 1bbd a62b 243e
00000080: 1fae 81bd 7c14 a63f 5e9a c6bc e861 033b
00000090: 8754 07bd e4a8 d43c 9bb4 c6bc c41b 023c
000000a0: 31f9 413b ecd5 123e 84e6 0cbe d3ab 183d
000000b0: 038d b4bc 80d3 b2bd 653d c5bc f3e6 6c3c
000000c0: 0d2a da3c 6e19 d5bc 5649 493d 0c3a 503f
000000d0: 7b4d e23d 3871 9bbc 5af1 d8bc ce6a a23c
000000e0: fb52 82bd 4bc0 4f3e 541c 853b 738e 363e
000000f0: 9135 743c 2792 0d3d 5d48 64bb fc33 413d
00000100: f3ac 32bd a2ca 6f3c a532 ed3d 7ced 5a3a
00000110: c695 8c3d b9da 063f 7146 dfbe f9b4 95be
00000120: 0123 0bbf 88c3 143d 9506 4bbb c3b5 3a3d
00000130: 4971 853e 4b51 46bf 41c6 ba3e 7368 3fbe
00000140: bf78 013d 9f46 743c 950e 953f cfab f0bc
00000150: 502b 94bc 3aa9 8d3b 107e 8a3b bff4 18bc
00000160: 080d 103d 0b1c 86bc d7dd 453d 543e bfbc
00000170: 8018 f33d 5c9e 80bc ecca 113e 9c7a 88bc
00000180: 30c0 16be abd8 fe3d ea53 a4bf 060b fbbb
00000190: f4bb 0bbf 0a28 283c 7fcc 28bd f970 89be
000001a0: 47e9 3c3d 011e f4bc c693 af3e 2bdc a93d
000001b0: c361 41bc 0971 d6bb ec9d 6b3d dfb1 aa3c
000001c0: 8b95 84be c4fc f33d 040b 893d 7612 813d
000001d0: 8e50 85b8 2c23 7b3d d356 263b 7077 753c
000001e0: 6a45 8c3d c563 23bd 6614 1e3e 9ab4 90bd
000001f0: 1835 9ebd b8aa a63d 091b 0a3d 46e3 4f3a
00000200: ebac d2bd f339 9bbc abfe d13a 2d85 a83d
00000210: 0194 3e3e 135c 023f 1b1a 223d c0f7 4d3d
00000220: beb3 1a3f 4071 e53d 5146 d9bd 1a5b 613b
00000230: abe8 603d d99d 413e 5658 0d3d ea2c 5a3c
00000240: e5ab 9abe cfe8 06bb f575 e5bd 2b04 0f3e
00000250: d8e5 7ebf e2ee 963d 4486 863d 8814 d9bd
00000260: 5bd5 e3bd 0cf4 b1be c09e 123f 0430 e53c
00000270: 0f0a ba3c f311 e1bc bba5 d53d 2f09 a0ba
00000280: 41ff 143d 21e2 a5bc 447f 363d 2859 82bd
00000290: f99c ae3d 56d3 3cbd b6f6 90bc c5fd 05bf
000002a0: 1615 45bf 80fd 1d3b b2b1 383c 4b7d 01be
000002b0: be1b 403d 02f3 173e efb5 4a3c 80bf d73d
000002c0: d0dc dabb c889 28bd 69aa ecbd 99f1 b13d
000002d0: d682 843c 36a0 22bd 2f24 f3ba d538 31bd
000002e0: 4272 263e eac6 b8bc 8b78 bbbb 4b36 91bd
000002f0: 7b1c 413c 9699 813d 588a 8a3d a74c 403c
00000300: a95b 883f 6654 99bb 4465 e63e f9c6 dbbc
00000310: 8ef3 d03e 6cd5 10bf d20d 753e 577a ea3c
00000320: 0c3b e23d 811d 993d bd68 123c 4ebc 0c3e
00000330: 31c9 56bc fc96 a33c 9de8 f13d 264a e73a
00000340: b865 803d 5814 403e 0eb5 593e 0118 223b
00000350: ced5 843d a19c 8ebc d6fc 4c3d acaa 61bb
00000360: 612a 813d cdf8 6d3e 5aa1 76bc ba7c 9e3b
00000370: 26e2 ca3e 30f8 7d3d 6d41 d4be a415 a63e
00000380: bff9 13bd f501 4b3c 1f0d 86bc 62f6 c1bd
00000390: ec0d a0bd da87 1d3d aa5b 98bd 544f 1cbe
000003a0: 159c e13e 6560 4f3f 030a 99bd 0f98 a23d
000003b0: f6b0 a33b 053c d53c 5763 313e 1ae2 20be
000003c0: 1033 ab3d 2aa5 f3bb 30f0 f43c 661b 3abe
000003d0: bd3d 533e 956b ca3e 7dcb a73d d188 9bbb
000003e0: c901 183d 44bf 803a 0dfe b13e 2a3f 353d
000003f0: 0ae2 613f e750 5d3c 7024 86bc 0fa4 49bd
-0.02650509 -0.17649452 0.028043991 -0.017383875 0.12553574 -0.005766312 0.04333897 -0.106554836
0.02705085 0.005198811 0.05696974 0.32972622 0.006361061 0.051751796 -0.076864 -0.018276464
-0.033863887 0.524587 0.02465472 -0.14183567 -0.038331036 0.0556973 -0.005427734 -0.033062275
0.011187142 -0.058097992 -0.12523143 0.10818965 0.077901535 -0.010556665 -0.037888356 0.16032276
-0.06332039 1.2975001 -0.02424353 0.002004737 -0.033039596 0.02595944 -0.024256041 0.00794119
0.0029597993 0.14339417 -0.1375981 0.03727324 -0.022039896 -0.08731747 -0.024077127 0.014459359
0.02663138 -0.026013102 0.049142204 0.8133857 0.110499345 -0.018974885 -0.026482273 0.019826319
-0.063634835 0.20288198 0.004062215 0.17827778 0.014905349 0.03456321 -0.003483317 0.047168717
-0.04362197 0.014635714 0.11581925 0.0008351428 0.068645045 0.52677494 -0.4360843 -0.29239634
-0.54350287 0.036319286 -0.0030979265 0.045583498 0.26062992 -0.77467793 0.3647938 -0.18692188
0.031609293 0.0149094155 1.1645075 -0.0293788 -0.01808706 0.004323152 0.0042264536 -0.009335696
0.035168678 -0.016370794 0.048307266 -0.02334515 0.118699074 -0.015700512 0.14237565 -0.016660027
-0.14721751 0.1244367 -1.2838109 -0.007661226 -0.5458367 0.010263452 -0.041210648 -0.26844004
0.046120908 -0.029799463 0.3429243 0.08293947 -0.011803093 -0.0065442366 0.057523653 0.020836769
-0.25895342 0.119134456 0.06691554 0.06302349 -6.356939e-05 0.06131284 0.002538134 0.014982089
0.06849177 -0.03989007 0.15437469 -0.07065697 -0.077249706 0.08138031 0.03371719 0.000793029
-0.10286888 -0.01894853 0.0016021332 0.08228526 0.18611147 0.50921744 0.039575677 0.0502851
0.60430515 0.11203241 -0.10609115 0.0034386576 0.05490939 0.1890787 0.03450807 0.013316372
-0.3020927 -0.0020585542 -0.11204139 0.13966434 -0.99569464 0.07369782 0.06568578 -0.10599619
-0.11124679 -0.34756505 0.57273483 0.027976997 0.022709874 -0.02747438 0.10432001 -0.0012209768
0.03637624 -0.020249428 0.044554964 -0.063646615 0.08526034 -0.046099983 -0.017695766 -0.52340347
-0.769853 0.0024107397 0.011272835 -0.12645452 0.046901457 0.14838794 0.012372478 0.105345726
-0.006679155 -0.041147023 -0.11555941 0.08688659 0.016175669 -0.03970357 -0.0018550212 -0.04326709
0.16254523 -0.022555787 -0.005721157 -0.07090434 0.011786575 0.06328122 0.06764668 0.011737025
1.0652972 -0.0046792505 0.44999135 -0.026828276 0.40810817 -0.56575656 0.23931053 0.02862279
0.110464185 0.074763305 0.008936104 0.13743708 -0.013109491 0.019969456 0.118119456 0.0017645999
0.06269401 0.1875776 0.21260473 0.0024733546 0.064860925 -0.01740867 0.05004581 -0.0034434004
0.06306911 0.23239441 -0.015053118 0.004836646 0.39625663 0.06200427 -0.41456166 0.32438385
-0.03612685 0.012390603 -0.016363679 -0.09470822 -0.078151554 0.038459636 -0.074393585 -0.15264636
0.44064394 0.8100646 -0.07472613 0.07939159 0.0049954606 0.026029596 0.17323051 -0.15711251
0.08359349 -0.0074354606 0.029899687 -0.18174514 0.2062902 0.39535204 0.08193109 -0.0047465344
0.037111077 0.0009822627 0.34764138 0.04424969 0.88235533 0.013508058 -0.016374797 -0.049228724

bias f4 [4]
00000000: ce0b d1be 3ade 473f b65f aabc b918 893d
-0.4082932 0.78073466 -0.020797592 0.066941686
