RLSnake/model/model.pth (torch, 17216 bytes, 4 tensors)

linear1.weight f4 [256, 11]
000000 3d 7f 93 3e 60 eb 89 3e a0 0b 8d 3d 11 d2 61 3e
       0.28808013 0.2693739 0.06886983 0.2205279
000010 ea 58 87 3e e0 8c cf bc 26 00 8b be db 1a 92 be
       0.26435024 -0.02533573 -0.2714855 -0.28536114
000020 41 0f a6 bd 3d 1a 70 be 59 4c cd bc b9 91 0c 3c
       -0.08108378 -0.23447509 -0.02506082 0.008579665
000030 52 4f 84 bd 39 d9 82 be a0 1f ca bc e9 fd 19 3e
       -0.06460442 -0.25556353 -0.024673283 0.15038265
000040 3f 26 2c be de 9a 36 3e 0c c2 63 bd d0 88 6c 3e
       -0.16811465 0.17832515 -0.05560498 0.23099065
000050 16 f1 9a 3e 59 7e 76 be 1d 8a f6 bd 28 dd 12 3e
       0.3026206 -0.24071635 -0.12038062 0.14342177
000060 69 99 33 be 83 ef 95 bd b9 8c 98 be cf 35 56 be
       -0.1753899 -0.07321074 -0.29794863 -0.20918964
000070 49 76 9f 3d 9b b4 8c 3e 57 58 ec 3d 1e f0 d1 3d
       0.07786233 0.2748154 0.11540287 0.10250877
000080 5d 98 99 3d 2e c7 59 be 02 23 6b 3e af 84 7d be
       0.07499764 -0.21267387 0.22962573 -0.24757646
000090 38 b1 0d 3e 19 4a 52 3e df 34 79 3e 06 73 fe 3d
       0.13837135 0.20536079 0.24336575 0.12424283
0000a0 cd c0 90 3e b0 18 2e 3e c2 79 e6 3c c3 a2 f2 bd
       0.28272095 0.17001605 0.02813423 -0.118474506
0000b0 23 59 96 3e b8 45 a5 3d ac 87 14 3e f2 a9 4b be
       0.2936488 0.080699384 0.1450488 -0.19889048
0000c0 76 dc 26 be eb ac 49 be 69 c0 d0 3d 2b 58 9f be
       -0.16295037 -0.19694869 0.10192949 -0.31121954
0000d0 b3 f3 23 be fb f4 23 3c 9b 38 33 be dd 06 67 3e
       -0.16010933 0.010007138 -0.17502062 0.22561212
0000e0 4d 08 38 3e 34 2e b3 bd f5 54 8a bd 10 30 ba bc
       0.17971916 -0.08749047 -0.067544855 -0.022727996
0000f0 f8 66 f0 3d 33 b9 b8 3d 11 ec 06 be 80 bb 3d 3e
       0.1173839 0.09019699 -0.1317599 0.18528557
000100 d8 08 50 be d9 9f 46 be 0f 62 8c bd 27 b8 8f be
       -0.20315874 -0.19396915 -0.06854641 -0.28070185
000110 b0 85 40 bd 5d f0 79 3e 62 8f 26 3d 63 e6 40 3e
       -0.047002494 0.24408098 0.040664084 0.18837886
000120 10 32 40 be 8c 5f 96 be 7b 52 86 be bd 3f 9a be
       -0.18769097 -0.2936977 -0.26234803 -0.30126753
000130 6d cb 89 bd b2 cb 29 be f0 06 08 3e 54 28 4c be
       -0.067282535 -0.1658161 0.13283896 -0.19937259
000140 f7 58 85 be d6 b5 70 be ba a7 82 3e f0 7a 84 bd
       -0.26044437 -0.23506865 0.2551859 -0.06468761
000150 56 1b ee 3d 60 32 e7 bd d4 ff 1b 3e 81 c3 f1 bd
       0.11626308 -0.11288905 0.1523431 -0.118048675
000160 88 52 43 3d 65 21 90 3e 46 34 2e 3e 11 03 4b 3e
       0.04768613 0.28150478 0.17012128 0.19825388
000170 52 03 7b be c7 6c 3f 3d 40 c4 07 be a1 3b 71 3e
       -0.24512985 0.046734598 -0.13258457 0.23557903
000180 10 3f 83 bc f9 84 56 3d 6b a0 92 be a0 3e 7b bd
       -0.016021281 0.052372906 -0.28638014 -0.06133902
000190 89 b9 8e be ba 10 86 be 39 9a 05 bd 59 c6 af 3d
       -0.27875927 -0.26184636 -0.03261778 0.08582754
0001a0 14 f6 f1 bc ac 3e 7f bd 28 06 f5 3d a1 ab 58 be
       -0.029536285 -0.062315628 0.11964065 -0.21159221
0001b0 b5 09 cb 3d f4 ea 77 be 38 26 d6 3d cb 18 72 3e
       0.09913961 -0.24210721 0.104565084 0.2364227
0001c0 40 e6 21 bc 54 5b 42 be 31 65 bb bd 81 d9 15 3d
       -0.009881556 -0.18980151 -0.0915016 0.03658438
0001d0 c1 82 d9 bd f2 cf 2d 3d 29 d0 6a be 3d 0a 87 be
       -0.106206425 0.04243464 -0.2293097 -0.26375
0001e0 b5 d4 8a 3d b3 34 83 3e b7 7e 37 be 04 8d 1a be
       0.06778852 0.25626144 -0.17919432 -0.15092856
0001f0 da 33 87 3e ff bd 48 be 5f 92 b0 3d 37 d5 94 be
       0.26406747 -0.19603728 0.08621668 -0.2906892
000200 0c e4 05 be 56 44 2e 3e 8b 36 75 3d 2e a0 67 be
       -0.13075274 0.17018256 0.05986647 -0.22619697
000210 b1 8a 53 bd 28 1e d4 bd 38 d3 7b 3d 20 cd 10 bd
       -0.05164594 -0.10357314 0.06148073 -0.035351872
000220 5a 31 7f 3d a1 e9 b4 3d 1c a4 eb 3d 25 c6 2e 3e
       0.062302925 0.08833624 0.11505911 0.17067774
000230 99 13 94 3e c0 a1 88 3c 25 14 4d be 36 21 06 be
       0.28921202 0.01667869 -0.20027216 -0.13098606
000240 d1 24 aa bc 40 84 e0 3c dc 09 74 3e 59 ff 2a 3e
       -0.020769509 0.027406812 0.23831886 0.1669897
000250 7b fb 32 be 0c 13 c2 3d 57 0f e5 3d 71 cb 44 3d
       -0.17478745 0.09476289 0.111845665 0.04804558
000260 e4 0f b2 bd 00 27 04 3e bb bd e0 bd 0c 6b 91 be
       -0.08694437 0.12905502 -0.10973688 -0.28401983
000270 f4 f7 88 be 57 31 d4 3c ae 35 00 3e a1 39 77 3e
       -0.26751673 0.025902433 0.12520477 0.24143077
000280 da f6 5b 3d 57 2b 86 be a3 4e c8 3c ac 91 8f bc
       0.053702213 -0.2620494 0.02445156 -0.017525516
000290 15 f1 98 3d f8 3d 92 3d 84 c8 a9 bd 14 8f 22 3e
       0.07467858 0.07140726 -0.082901984 0.15874892
0002a0 3d fe ac 3c 64 6d 06 3e c6 70 2e 3e 3d 91 81 be
       0.021117324 0.13127667 0.17035207 -0.2530612
0002b0 7b 1a 80 be 73 34 86 bc a0 35 90 3c c1 b7 24 3e
       -0.25020203 -0.016382432 0.017603695 0.16085722
0002c0 3d aa 9b 3e 28 76 89 be be 88 17 be 79 81 80 3e
       0.3040332 -0.2684796 -0.14798257 0.2509878
0002d0 60 5d 38 bd a1 d0 95 be e3 54 1b 3e 91 97 2d be
       -0.045010924 -0.29260734 0.151691 -0.16952349
0002e0 f1 57 de 3d f5 9d 16 be 65 c5 4f be 74 7a 56 3e
       0.10856617 -0.14708693 -0.20290144 0.2094515
0002f0 1c 0f bd 3d 10 39 1c 3d d9 9e 7b be 14 4d 92 be
       0.092313975 0.038140357 -0.24572314 -0.2857443
000300 d7 7f 4a 3e 05 cf 80 be bd 9c 73 be b2 20 13 be
       0.1977533 -0.25157943 -0.2379026 -0.14367941
000310 fc 5f 3b be 84 99 7c be 7c e9 a4 bd ff bb 2b 3e
       -0.18298334 -0.24667937 -0.08052346 0.16770934
000320 c4 82 63 be 2f 23 86 3e fd 3b 88 be 18 57 6f 3e
       -0.22217852 0.26198718 -0.26608267 0.23373067
000330 4d 70 18 3d 8e 41 81 3e cd 9d 08 3e b1 ac 82 be
       0.037216473 0.25245327 0.13341446 -0.25522378
000340 1c 93 6d 3e 48 76 70 be d1 72 b1 bc be cc 64 be
       0.23200649 -0.2348262 -0.021661194 -0.22343728
000350 30 ac 89 3b de ca ae 3d 1f 75 48 3d 75 2c 8c bc
       0.0042014346 0.085347876 0.04893982 -0.017111043
000360 78 3e 0b 3e 11 f5 53 be e7 ac 5a bd 6d ac 6e be
       0.13598049 -0.20698954 -0.05338755 -0.23307963
000370 a6 78 75 be 21 fc da bd f6 2b 88 3e 8a 48 64 3e
       -0.23971805 -0.10692621 0.2659604 0.22293296
000380 6b 88 96 be 19 f9 31 3d 32 1b 7a 3c e4 f8 49 bd
       -0.29400954 0.04345045 0.015265273 -0.049309626
000390 0c 74 8a bd 52 2f 25 be 20 1c 41 3e bb 61 1b be
       -0.067604154 -0.16131333 0.18858385 -0.15174
0003a0 56 06 20 be 22 9e 27 3e 5c 1e 4a 3c 40 6f b2 bd
       -0.15627417 0.16368917 0.01233634 -0.087126255
0003b0 ff 0e f2 3d 7e ff 26 3e 71 08 46 3e ce 6f d2 3d
       0.118192665 0.163084 0.19339158 0.10275231
0003c0 ba a6 46 be 70 41 6d 3e ac e4 81 3e 73 71 7d bd
       -0.19399539 0.23169494 0.25369775 -0.06187577
0003d0 e0 3c 34 3e 48 3d eb bc 12 7a 05 be e4 bc 5f be
       0.17601347 -0.028715745 -0.13034847 -0.218494
0003e0 2d 40 4d be 54 61 5a 3d 55 ea 42 3d e6 74 52 3e
       -0.20044012 0.053315476 0.047586758 0.20552406
0003f0 d9 6a e8 3d 1d f7 82 be c2 0e 49 3c ae 02 97 be
       0.113485046 -0.25579157 0.012271585 -0.29494232

linear1.bias f4 [256]
000000 c4 e8 90 3d 3b b8 80 be 12 9c 2a 3e d4 da b3 bc
       0.070756465 -0.25140557 0.16661099 -0.021954931
000010 c2 56 68 3e b0 9b 46 bd 50 fc 83 3e 29 77 73 be
       0.22689345 -0.04848832 0.25778437 -0.23775925
000020 7e 0b 86 be b8 1b 71 be b8 55 f3 3d 02 2e 9b 3e
       -0.26180643 -0.2354573 0.11881584 0.3030854
000030 92 c5 2f be a2 3d 45 bc c9 1a 72 3e c1 7a 3f be
       -0.17165211 -0.01203862 0.2364303 -0.1869917
000040 84 bd 06 bc 21 0d 03 3e a4 98 b5 bc ad f2 c4 bd
       -0.008223895 0.12797977 -0.022167511 -0.09616599
000050 f2 d9 0b 3d 5f a7 7a 3e 8e 60 85 bd fc 75 f7 bd
       0.034143396 0.2447791 -0.06512557 -0.120830506
000060 93 88 91 be 68 15 9e be 7e 21 8d 3e 98 3a 34 3e
       -0.2842451 -0.30875707 0.27564615 0.17600477
000070 5b c0 08 3e c4 7a ba bd 9b 46 9a 3d f4 a6 1e 3d
       0.13354628 -0.09105447 0.07532998 0.038733438
000080 8d f9 f8 bd 13 05 ed bd df b5 70 3e 36 2c f7 bd
       -0.12156973 -0.115732335 0.23506878 -0.120689794
000090 b7 62 40 bc 7b 36 29 3c fe a2 9a 3d 35 03 eb 3d
       -0.011742285 0.010327931 0.075506195 0.11475221
0000a0 37 fb 62 be 34 f4 a7 3d b8 6b 17 be 45 98 b2 3c
       -0.22166143 0.08200875 -0.14787185 0.021801123
0000b0 67 3e d3 bd 14 13 99 3e fb 57 d3 3d 5f 07 6a be
       -0.10314637 0.29897368 0.10319515 -0.22854374
0000c0 fb 1a 93 3c cd 90 c3 bd 00 bb 2f 3e 9e 2d 0f be
       0.017957201 -0.09549103 0.17161179 -0.13982245
0000d0 05 a0 82 bd ab bf 08 be 25 4e c2 bd f6 a4 ec bd
       -0.063781776 -0.13354366 -0.09487561 -0.11554901
0000e0 88 ac ed 3d 3a cd 07 be d3 d7 41 be 13 9f 9a 3e
       0.11605173 -0.13261881 -0.18929987 0.3019949
0000f0 aa a9 d4 bd 1b c8 47 3c d5 74 48 bc 1e 6c 35 3e
       -0.10383923 0.012193705 -0.012234886 0.17717025
000100 c7 ab 0e 3e 0a 1a 5b 3e 1a 62 eb bd 17 46 b2 bd
       0.13932715 0.21396652 -0.11493321 -0.08704775
000110 c2 03 d4 3d 59 8f 12 3e 4b d8 7b bd 12 14 55 3e
       0.10352279 0.14312495 -0.06148557 0.20808437
000120 6a 6b e8 3c 20 b9 48 3c 65 31 5e be ef c0 86 3e
       0.028371532 0.0122511685 -0.2169853 0.26319072
000130 24 fa 9b be 81 06 57 bc fb 25 8d bd 88 8a 91 be
       -0.3046428 -0.013124109 -0.0689201 -0.28426003
000140 e4 06 7c 3e 8f 6f 48 be 5d 96 a6 3d b2 d9 8d 3e
       0.24612004 -0.19573806 0.08134148 0.2770515
000150 b4 cd 00 bd d1 5f ac 3d 65 21 4e be e8 b6 5e be
       -0.031446174 0.08416713 -0.20129927 -0.2174946
000160 ae ae 2d 3e 73 bb 8c be 2c cf db bd 0d 86 36 be
       0.16961166 -0.27486762 -0.10732874 -0.17824574
000170 a1 01 59 be 86 a9 2d be 9b 53 98 3e 9c 17 16 be
       -0.21192028 -0.169592 0.29751286 -0.14657444
000180 c6 b5 98 3e be 33 f1 3d fc e1 92 bd ea 5c 60 be
       0.29826182 0.11777447 -0.07172009 -0.21910444
000190 00 c4 83 be ed 7f 86 3e cc 0b 26 3e 25 e6 df 3d
       -0.25735474 0.26269475 0.16215438 0.109325685
0001a0 0f 2b a7 bc 81 53 4b 3e 8a e1 b9 bc 04 d5 0d be
       -0.020406274 0.19856073 -0.022690553 -0.1385079
0001b0 86 eb 04 bd 77 e5 59 be 0f 34 80 be 54 17 07 3e
       -0.032451175 -0.2127894 -0.25039718 0.13192493
0001c0 4c 95 ca 3c ee 09 85 3e 4f 83 83 3e 53 9a 76 3d
       0.024729393 0.25984138 0.25686118 0.06020577
0001d0 b0 a7 00 be 1a ed 90 3d 9f 0f 81 be 7d 17 44 bc
       -0.12563968 0.070764735 -0.2520723 -0.011968491
0001e0 10 ae ff 3d b2 a9 93 3e 74 27 89 3e 2c d9 b2 3d
       0.12484372 0.28840405 0.26787913 0.087328285
0001f0 02 0c a0 bc 3d ff 44 3e 7e 77 8a be 4d e3 4b 3e
       -0.019536976 0.1923799 -0.2704429 0.19910927
000200 41 57 56 be fe 3c d1 3d 9b cd 34 3e 01 22 56 bd
       -0.20931722 0.102167115 0.17656557 -0.052278522
000210 09 a7 4b be 16 5b 47 be 4c 4d 05 3d bf 4f 8d be
       -0.19887938 -0.1946834 0.03254442 -0.27599904
000220 61 31 88 be 31 b6 69 be 52 8f 62 be 9c 3b 5f bd
       -0.26600173 -0.22823407 -0.22124985 -0.054500207
000230 79 30 71 be 18 42 8c 3e a0 20 83 bc e4 fe 9f 3d
       -0.23553647 0.27394176 -0.016006768 0.078122884
000240 8d aa 23 3d 5b 94 0c 3e 21 57 0a be 9f 53 91 3e
       0.03995757 0.13728468 -0.135098 0.2838411
000250 13 62 62 3e 9f 2a ac 3c 20 33 17 bd ed 21 73 3e
       0.22107725 0.021016417 -0.03691399 0.2374341
000260 82 a0 3b bd 08 7d a6 3d 18 4c 47 be 02 a1 6b bd
       -0.04580737 0.081293166 -0.19462621 -0.057526596
000270 eb 0e 8e 3e 75 20 7e 3e 9b 95 4c be a5 92 31 3e
       0.27745757 0.24817069 -0.19978945 0.17341097
000280 a5 99 1d be 34 e5 84 be 8f 7a 12 3e 24 8d 37 be
       -0.15390642 -0.25956118 0.14304565 -0.17924935
000290 30 6d ae bc f5 16 f2 bc 2b 48 10 be e4 cf 4b 3e
       -0.021292299 -0.029551962 -0.1409003 0.19903523
0002a0 20 a0 85 be 10 73 6d 3d e6 ca a2 3d aa 5e 44 be
       -0.26098728 0.05797106 0.07948856 -0.19176736
0002b0 1d 6f 31 3e a0 65 4d 3e db 54 e2 3c da c1 0f 3e
       0.17327543 0.20058298 0.027628353 0.14038792
0002c0 b1 30 7a 3e 76 28 8b 3d 2c a5 f1 3d 4e aa f0 bd
       0.24432637 0.06794827 0.11799082 -0.11751233
0002d0 40 67 bf bd 60 0f 5d bc 07 d7 38 3e 36 0b 95 be
       -0.09345865 -0.013492435 0.18050776 -0.29110116
0002e0 b1 da e4 bd 93 25 ee 3c ad 90 56 be a1 3a 90 be
       -0.111745246 0.029070651 -0.20953627 -0.2816973
0002f0 92 cc 80 be 97 02 5e 3e 66 75 99 3e 1f 9d 47 3e
       -0.25156075 0.21680675 0.2997238 0.1949353
000300 b3 98 1b be 71 7a 06 3e 9e 63 6e 3e 90 47 02 3d
       -0.15194969 0.13132645 0.23280188 0.03180653
000310 42 86 4e 3d 9e 2a bb bb a0 c7 59 bd e0 15 8d be
       0.050421007 -0.0057118675 -0.053168893 -0.27555752
000320 b0 a7 34 3d e4 0f bf bd c6 08 24 bc b6 39 1f bd
       0.04410523 -0.09329203 -0.010011857 -0.038873397
000330 e0 43 9a be fe 7f 1d bd 00 6e 88 3e f1 28 5c 3c
       -0.3012991 -0.03845214 0.26646423 0.013437496
000340 bc 65 d8 3d 36 a7 7b 3e fe 7d 69 be 30 a6 75 3e
       0.10566279 0.24575505 -0.22801968 0.23989177
000350 94 27 f9 3d 13 5e 56 3d 45 36 c0 3b 44 f2 79 3e
       0.12165752 0.05233581 0.0058658444 0.24408823
000360 6f de 73 be e7 4c 28 be f5 96 09 3e e6 eb b7 3c
       -0.2381532 -0.16435586 0.13436492 0.022451352
000370 90 36 63 be de 1e 39 bd 2b 58 94 3e a4 da 3d 3e
       -0.22188783 -0.045195453 0.28973517 0.18540436
000380 da 5d c0 3d c6 cd 84 be d9 82 7d be 8e c1 78 bd
       0.09392901 -0.25938243 -0.24756946 -0.060731463
000390 e5 d9 08 3e 6f 36 0e be 86 de fd bd bf a2 bc bd
       0.1336437 -0.13887952 -0.123959586 -0.09210729
0003a0 97 79 bf bc c6 a7 a3 3d e3 ae 96 3d 7e bd c7 bc
       -0.023373408 0.079909846 0.07357576 -0.02438235
0003b0 c3 cb e4 bc 84 fc 1e 3e 00 a0 38 bd a6 f2 ba ba
       -0.027929192 0.15526015 -0.045074463 -0.0014262989
0003c0 e5 13 8e be 30 da 25 be b1 0c 2b be c7 4b 7b bd
       -0.27749553 -0.16196513 -0.1670406 -0.061351564
0003d0 c2 74 44 3e 1a de 76 be 0a 2f 32 3e d5 09 a1 be
       0.19185165 -0.24108163 0.17400756 -0.31452814
0003e0 6f 45 6a be a1 6c 6f bd 5b e8 d2 bd d5 16 98 bd
       -0.2287805 -0.058453206 -0.102982245 -0.0742623
0003f0 aa 94 36 be 80 e6 79 3e c1 80 5d 3d 33 b9 0e be
       -0.17830148 0.24404335 0.054077867 -0.13937835

linear2.weight f4 [3, 256]
000000 09 31 08 3a c8 61 89 3b 7a 2a 8c ba 69 a6 03 bd
       0.0005195295 0.0041925646 -0.0010693811 -0.032141123
000010 2c 42 cd 3c fc a1 02 bd aa 59 a5 bc 0e d8 76 3d
       0.025055967 -0.03189276 -0.020184357 0.06026464
000020 2f ea bb 3c 04 73 15 bd 18 d8 73 3d b7 1a 93 bd
       0.022938816 -0.03648664 0.059532255 -0.0718283
000030 6a 9d 59 3b ae bd 39 3d a5 c9 08 3d 54 9b 9a 3c
       0.0033205398 0.04534691 0.03339543 0.018872894
000040 1c 38 bc 3c e2 c1 27 3c be 44 a8 39 79 e8 1a 3c
       0.022975974 0.010239096 0.00032094674 0.00945484
000050 c5 32 50 3c 74 bc 2c bd ee 7c 98 bc c9 53 70 bd
       0.012707417 -0.04217191 -0.018614259 -0.058673654
000060 4a bf 6f bd f9 2e 7f 3d b7 16 ed 3b 71 57 00 3d
       -0.058532037 0.062300656 0.007235374 0.03133339
000070 16 11 6e bd 58 58 1d 3d 90 6d 0a 3d 33 b8 95 bc
       -0.058121763 0.03841433 0.033795893 -0.01827631
000080 7b f3 0f 3c b0 96 0f 3d 5c 30 2b bc a8 f1 c3 ba
       0.008786078 0.035055816 -0.0104485415 -0.0014949339
000090 ca 6b b3 bc f0 5c 35 3d 4d 8e 1a bd 48 4e 0a 3c
       -0.021901984 0.044278085 -0.037733365 0.008441515
0000a0 f6 ab 44 bd 68 1d 96 bb 8e 64 60 3c 52 50 9d 39
       -0.048015557 -0.004581142 0.013695849 0.00030005217
0000b0 ef 57 30 bc db e6 67 3d 27 a4 70 bc c8 38 2c 3d
       -0.0107631525 0.056616645 -0.0146875745 0.04204634
0000c0 73 f3 14 3c c3 16 8c bd a1 d4 95 bd de 21 e5 3a
       0.009091246 -0.06840279 -0.07315946 0.0017481407
0000d0 3b af 26 bb c9 91 4b 3a 1f 9e 23 bd 94 e2 7e 3d
       -0.0025434035 0.0007765559 -0.039945718 0.0622278
0000e0 7c 65 16 bc e2 44 2a bc 86 52 43 bd a9 74 bd bc
       -0.009179469 -0.0103923995 -0.047686122 -0.023126917
0000f0 6c 35 a8 bc eb ce 73 bc 4d 58 7b bd 47 c9 44 bd
       -0.020533286 -0.014880876 -0.061363507 -0.048043516
000100 4c ea c1 bc 60 f3 53 3d fe 39 09 3d 33 2a 05 3d
       -0.023671292 0.051745772 0.03350257 0.032510947
000110 33 ad 52 3d 49 ee 8b 3c e8 5c 05 bd e8 68 59 3d
       0.051434707 0.017081397 -0.032559305 0.053078562
000120 24 15 0e bd 60 00 96 bc 5a 2b 6c bd 11 a8 69 bd
       -0.03468813 -0.018310726 -0.05765853 -0.057045046
000130 75 cc cf bb 45 f7 0c bd 3c c4 da 3c 63 d4 41 bc
       -0.006341512 -0.034415502 0.0267049 -0.011830422
000140 83 6e 8b 3b ac a9 79 bd 55 51 40 bd d5 3a 62 bd
       0.0042551174 -0.060952827 -0.046952564 -0.055231888
000150 46 8f 80 bd c6 c0 0a 3d 0a fe a0 3c c5 95 98 3c
       -0.06277327 0.03387525 0.019652385 0.018626103
000160 1f 3a 43 bc 00 1b 02 bc bc 24 cd bb 71 90 2e bc
       -0.011915713 -0.007941008 -0.0062604826 -0.010654555
000170 46 e5 e6 3c 2b d5 0e 3c fc 02 31 3d 84 02 3b 3d
       0.028185498 0.008717815 0.043215737 0.045656696
000180 37 39 01 bd b4 5e 7d bc d2 61 da 3c 45 b2 14 3d
       -0.031548705 -0.0154644735 0.026657972 0.036302824
000190 22 80 20 bd 32 db fc bc 6f 7f 9d 3c a8 fc 5f bc
       -0.039184697 -0.03086624 0.019225804 -0.013671078
0001a0 96 51 fb bc 5a 66 22 3c b4 5c 4d bd c0 48 65 3d
       -0.030678552 0.009912098 -0.050137237 0.055977583
0001b0 ed 2d 6e bd fe 8f 53 bc 0d 04 86 bd eb 4e 1e bd
       -0.058149267 -0.012912748 -0.065437414 -0.03864948
0001c0 dc 4d 0b bd 7f 40 5a bd 5a 4b 55 3d 28 62 32 bd
       -0.0340098 -0.053284165 0.052073814 -0.04355064
0001d0 3a ad 55 3d 8d 33 18 3b 31 8f 79 3c ef da 3a 3d
       0.052167155 0.0023224086 0.015231893 0.045618948
0001e0 35 d7 20 bd 07 1d 1e 3d ef 43 5e bc a9 96 86 bd
       -0.039267737 0.0386019 -0.013566001 -0.06571705
0001f0 bf 12 00 3d 80 b8 8f bc 45 5b 37 3d cc 49 fb 3c
       0.031267878 -0.017544031 0.044764776 0.030674838
000200 01 e2 73 bd 40 8f 68 bd a5 bf 80 bd 0c 6a 80 3d
       -0.059541706 -0.05677724 -0.06286553 0.06270227
000210 59 68 fe 3c e4 38 c6 3b 27 2c 13 bd a1 33 1d bd
       0.031055616 0.0060492624 -0.03593078 -0.038379315
000220 85 a0 81 3c e8 5b d9 3c 32 fc 45 3d 7f 55 8d bd
       0.015823612 0.026533082 0.048336215 -0.06901073
000230 eb fc 4d 3d 92 19 06 bd 92 00 4e 3d 4b 98 79 3c
       0.05029003 -0.03273923 0.050293513 0.015234063
000240 3b eb 80 bd d5 b9 f0 3c af 03 96 3c 52 7b 03 bc
       -0.06294867 0.029385487 0.018312303 -0.008025007
000250 9d b9 ce bb 35 ad e2 bc de c1 1a 3d a1 44 80 bd
       -0.006308748 -0.027670482 0.037782542 -0.0626309
000260 dc 4d 2d bd d7 60 80 3d 00 a0 96 3a 05 70 2e 3c
       -0.04231058 0.06268471 0.0011491776 0.010646825
000270 66 7f 37 bc bd c3 70 bd 38 0d 31 3d c0 79 5e b9
       -0.011199808 -0.05878042 0.043225497 -0.00021216925
000280 22 17 0d bd 74 cb c8 bc d5 37 e6 3b a1 bd 3c 3d
       -0.03444589 -0.024511077 0.0070256987 0.04607928
000290 96 5e 14 bd b4 94 a1 bd be d4 06 bd b3 05 28 bd
       -0.036223017 -0.07889691 -0.03291773 -0.04102106
0002a0 43 eb 25 bd b0 b3 66 bd a5 84 2f bd d9 ba b8 3c
       -0.040507566 -0.056323707 -0.04285111 0.022550033
0002b0 9c 97 6c 3d 5e b9 df bc 1c bb e2 bc 81 88 09 3d
       0.057761773 -0.02731007 -0.027677111 0.033577446
0002c0 1b a4 13 3d cb 6a 5a 3d 34 2f 51 3c 3c 60 12 3d
       0.036045175 0.053324502 0.012767602 0.035736308
0002d0 20 44 b2 3b 55 75 60 bd 43 5d 39 3d 32 a0 6e bd
       0.00544025 -0.054799397 0.045254957 -0.058258243
0002e0 9e 9b 59 bd 14 ea 66 3b 66 5b d4 bc c8 53 79 3c
       -0.053126924 0.0035234736 -0.025922488 0.015217729
0002f0 50 10 0c 3d 70 db 79 3c 67 6b 6e bd 68 ee af bd
       0.034195244 0.015250072 -0.058207896 -0.08590394
000300 2c a3 8f 3c 0b d3 34 bd ce 78 6b 3d 28 f2 08 bc
       0.017533861 -0.04414658 0.057488255 -0.008358516
000310 c0 cd 3a 3d db 63 e7 bc d0 66 77 bd 06 51 b8 bc
       0.045606375 -0.028245857 -0.060400784 -0.022499572
000320 52 4c 74 bd be 28 4d bd ae fc 31 3d 72 f0 98 bb
       -0.059643097 -0.050087683 0.043453865 -0.004667335
000330 48 6e 53 bd 28 69 c2 bc 24 00 eb bb 0e b0 7c 3b
       -0.051618844 -0.023731783 -0.0071716476 0.0038557085
000340 e2 e0 63 bb 00 cd 92 bc f7 b2 15 bd 14 25 d7 bc
       -0.0034771492 -0.017920017 -0.036547627 -0.026262797
000350 27 8e 19 bd 0e 94 0f 3c f5 6e 2d bd 1e 8f 23 bd
       -0.037489083 0.008763326 -0.042342145 -0.03993141
000360 b9 ac 9e bc 3a 90 4d bd c2 7b 9c bb 3a cd fe bc
       -0.01936947 -0.050186373 -0.0047754953 -0.031103719
000370 5a 4b 6d bd c3 c2 fd bc 26 25 41 bd cd 18 b4 3c
       -0.05793319 -0.030976659 -0.047154568 0.021984482
000380 35 ad 29 3d 83 e1 fa 3b 14 35 fe bc 61 67 96 3c
       0.04142495 0.0076562776 -0.031031169 0.018359842
000390 da 6c 7c bc 4c 1f 02 3d ac 35 6f bc 25 f7 02 bc
       -0.015406812 0.03176813 -0.014600199 -0.007993494
0003a0 55 84 07 bd ae 73 60 3d ce 8f 33 3d 83 09 f0 bb
       -0.033085186 0.05479782 0.043838315 -0.0073253526
0003b0 9f ab 3d 3d 13 18 24 bd cc 43 c1 bc 99 b0 84 bd
       0.04630625 -0.04006202 -0.023591898 -0.06478996
0003c0 c8 a3 69 3c e9 3e 58 bd 52 65 73 3d 77 c7 60 3d
       0.01426024 -0.05279437 0.0594228 0.054877724
0003d0 16 10 65 bc 02 cf 1d 3d 88 b7 e7 3c ba 0f 34 3b
       -0.013980886 0.038527496 0.028285757 0.0027475194
0003e0 1a 84 51 bd 43 5a 7f bd 55 6b 18 3d 68 45 55 3d
       -0.051151372 -0.06234194 0.037211735 0.052068144
0003f0 c3 cd 11 bc ac d3 05 bd 01 e9 48 bd e0 2d b2 3c
       -0.008899155 -0.03267257 -0.049050335 0.02175039

linear2.bias f4 [3]
000000 7f 19 fa ba 1c 78 65 bd 28 3d bf 3c
       -0.0019081085 -0.05602275 0.023344591
