RLSnake/model/model.pth (torch, 22272 bytes, 4 tensors)

weight f4 [256, 14]
00000000: 6b0a 23be bb0e dc3c 3a3e d1bb ac1b 0e3e
00000010: 8230 113e 92a4 8ebd dd7d 923c a45d 4dbe
00000020: de8b 343e e0f5 17be a039 6c3e c540 6e3d
00000030: 1a45 6cbe da14 7c3e b24f 05bd 9343 ebbd
00000040: 0950 ef3c 7e61 0c3d 0a7d f9bd fc35 44be
00000050: dc8a 66bd 17be b6bc 0ec4 633e 0424 3cbd
00000060: 9a32 373e c10f 393e 902e da3c 6885 863d
00000070: 75b8 3d3e e217 c5bd e9d3 5fbd 1bdd 11bd
00000080: 3ae2 223e 4a35 0ebe b154 56be baa2 9c3b
00000090: 4cf5 32be 80f0 7fbb a848 f13d f491 50be
000000a0: 9c7c 39bd 980b e5bc 1a53 8fbd 399e 4a3d
000000b0: 3b56 7a3e 877b 86be 52cf 1fbe 28e8 023d
000000c0: e1e9 983d 828f 06be 863f 1c3d f031 80bc
000000d0: 88e1 b63d 89af acbd fabc 29be 94f5 cd3d
000000e0: c207 613e 56a0 e43d 8106 42be e09d 103d
000000f0: f87b 9f3d e6e4 583e baeb 443e 1398 71bd
00000100: fe80 78be c0c5 603c 72ba 51be e35c cc3d
00000110: 7a6c 133e 169a 113e 6f0a 14be 6a4c 743e
00000120: 9678 60be 79dd 49bd 062d 5b3e ee71 a6bd
00000130: d98f 5c3e ea15 a4bb 9f24 8d3d 6c26 c03d
00000140: e8b0 36be 6751 c13a a747 85be fb4f 5cbe
00000150: 60c9 c5bd a9a8 2cbd a11a 32be 0908 86bd
00000160: fc9b 5cbe 488e 353d 5476 443e a2d3 0f3e
00000170: 30fb 4bbe c618 c2bd e803 b43d 90e3 7f3e
00000180: bc4d 133e ea4d 113e 1852 403e 15d5 bcbd
00000190: e087 293e 50f0 4e3e 7c2a adbd dc08 41be
000001a0: 5af3 89bd 1675 223d 9a62 69be a07a c43d
000001b0: 4aaa 313e d087 1ebe ca54 683e 388a b53d
000001c0: 3521 e338 fcc3 393e 028c ab3d 93fb 60be
000001d0: a8b7 353e 20a2 cd3c 5a24 29be 098c e2bd
000001e0: 8c20 65be e36c 33be d9dd 873e 5d46 a23c
000001f0: 642c 013e 3e18 263e 5ce5 773e e3ed 1dbd
00000200: 7608 3c3e edea 703e 2552 6ebe 720e 75be
00000210: 75fd 70be f638 833e 5e91 2cbe b0f6 2f3e
00000220: a565 10be 8c80 3cbe 1adc 46be b6d7 9dbd
00000230: 064d 5abe add2 e1bd 7a8c 6a3e 65ba 57bd
00000240: ed82 0abe 7d23 41be 210a 1e3e dea1 073e
00000250: 8ab3 fc3d 008d 9d3c e850 15bd 4ed3 8bbd
00000260: 18de 533e 8063 0dbc 2a69 c33d fcf0 4c3e
00000270: adb8 763e 3358 3ebd 10fb e0bc d2b5 4e3e
00000280: 857a 1a3e 23f1 3b3e edf1 31be 48e9 e2bd
00000290: 3828 eebd bde8 7bbe 088f d0bd 0e4f d7bd
000002a0: 5ebf 063d ee7c 083b 4fdd c43d fbd6 58bc
000002b0: e8ee cb3d bcd1 ccbd 2bdc ed3d a291 de3d
000002c0: 8437 663e d233 533e c8fb b2bd c0ae ba3d
000002d0: 38b6 403e 6e2e 7fbe 6939 2c3e ca34 2a3e
000002e0: 2341 883e de36 6bbd d093 b3bc 5b3f 55be
000002f0: cd1c 4fbe d6c9 ef3c 3685 01be f2e8 68be
00000300: 5155 80be ed80 743c 405e e03c a4a3 b4bd
00000310: 7889 fc3d e042 933d 550e 51be 0911 2abe
00000320: ba69 163e 0029 b7bd da12 56be a75e 08bd
00000330: 8f02 cd3d 8ee7 113e 8083 273c f3f7 43be
00000340: 5d3a 82be 187e bcbc 5c9c 943d da1c 5f3e
00000350: a628 80be 497e 0e3e 966e 1ebe 2a6a 7cbe
00000360: 16b2 5ebe 55ee d73c a9b1 8b3d 5a58 b0bd
00000370: 77a0 78be 3363 273e 4288 8fbd f0cb fa3d
00000380: 2dde b23b db32 42be ae5f 2f3e 42c1 8dbd
00000390: eaa5 bebd 4092 603e ee27 32be dae9 773e
000003a0: 171d 0dbe 20da 173d aa16 0f3e e4b3 98bd
000003b0: f643 7a3e 5085 2a3d a7c8 acbd 89cd 313d
000003c0: a0c8 963d ba91 94bd 0017 053b d65a 2abe
000003d0: 72af 7abe 2c16 4fbd 2bc6 5b3e e055 603c
000003e0: 9c52 f2bd 1f75 02be ac48 653e f2a9 783e
000003f0: 19f7 763c b0f5 363e 2a4a 01bc 864a 74be
-0.15921943 0.026862493 -0.006385592 0.13877743 0.1417866 -0.06964983 0.017882282 -0.20055252
0.1763148 -0.14839888 0.23068857 0.058167238 -0.23073235 0.24617329 -0.032546706 -0.11487498
0.029212968 0.034272663 -0.121820524 -0.19161218 -0.05628477 -0.022307439 0.22242758 -0.045932785
0.17890397 0.18072416 0.02663353 0.06568414 0.18527396 -0.09623696 -0.054645453 -0.035611253
0.15906611 -0.13887516 -0.20930745 0.0047801407 -0.17476386 -0.0039053261 0.11781436 -0.20368177
-0.045284852 -0.02795963 -0.06998272 0.0494673 0.24446957 -0.2626612 -0.1560643 0.031959683
0.07466484 -0.13140681 0.03814652 -0.015648812 0.089297354 -0.08431918 -0.16575995 0.10056606
0.21975616 0.11163394 -0.18947794 0.03530681 0.07787317 0.21181068 0.19230548 -0.05898292
-0.24267957 0.013719022 -0.2048128 0.09978654 0.1439685 0.14218935 -0.14457105 0.23857275
-0.21921 -0.04928348 0.21403894 -0.08127199 0.21539249 -0.005007495 0.068917505 0.093823284
-0.17840922 0.0014748991 -0.2603123 -0.21514885 -0.0965755 -0.042153034 -0.1739297 -0.06544501
-0.21543878 0.044325143 0.19185764 0.14045575 -0.19920039 -0.094773814 0.087898076 0.24989152
0.14385122 0.14189878 0.18781316 -0.0922033 0.16555738 0.2020886 -0.08455369 -0.18851036
-0.06735869 0.039662443 -0.2279152 0.09593701 0.17350116 -0.15481496 0.22688594 0.08864254
0.00010830389 0.18141168 0.08376314 -0.21970968 0.1774584 0.025101721 -0.16517773 -0.11061866
-0.22375697 -0.17522006 0.26536444 0.019808942 0.1261459 0.16220185 0.24208587 -0.038556945
0.18362603 0.23527117 -0.23273523 -0.23931292 -0.23534186 0.25629395 -0.16852328 0.17183948
-0.14101274 -0.18408412 -0.194199 -0.07707159 -0.21318445 -0.11026511 0.2290515 -0.052667994
-0.13526507 -0.18861194 0.15433551 0.13245341 0.12338932 0.019232273 -0.03645411 -0.068274125
0.20690191 -0.00862968 0.09541543 0.20013803 0.24093886 -0.046470832 -0.027463466 0.20186546
0.150858 0.18353705 -0.17377444 -0.11079651 -0.11628765 -0.24600501 -0.10183531 -0.10513125
0.032897346 0.0020826417 0.09612524 -0.013234849 0.09957677 -0.10000941 0.11614259 0.10867621
0.22482115 0.20625237 -0.0873943 0.09115362 0.18819511 -0.24920055 0.16818775 0.166217
0.26612195 -0.057425372 -0.021921068 -0.2082495 -0.2022583 0.029271048 -0.12648472 -0.22745112
-0.2506509 0.014923316 0.027388692 -0.088202745 0.123309076 0.0719049 -0.20415623 -0.16608061
0.14688769 -0.08943367 -0.20905629 -0.033293393 0.10010254 0.14248487 0.010224223 -0.19137554
-0.25435153 -0.023009345 0.07256386 0.2178835 -0.25031012 0.13915361 -0.15471873 -0.24649873
-0.21747622 0.026358763 0.06820995 -0.08610602 -0.24279962 0.16346435 -0.07008411 0.12245929
0.0054586143 -0.18964712 0.17126343 -0.069216266 -0.09308989 0.2193079 -0.17398044 0.24210301
-0.13780628 0.037073255 0.1397349 -0.074561864 0.24439988 0.041631043 -0.08436709 0.043408904
0.07362485 -0.07254358 0.0020307899 -0.16636214 -0.2448099 -0.050558254 0.21462314 0.013692349
-0.11832163 -0.1273999 0.22391003 0.24283579 0.015073561 0.1786716 -0.007891217 -0.23856553

bias f4 [256]
00000000: 8946 263e 0f58 a03d 748d a3bd cee0 33bd
00000010: 9482 293e 0c97 d23d db49 bfbc 0775 e6bc
00000020: 6417 d43c 2b7a 893e d255 203e 50d5 02be
00000030: a07e 41be 3f37 c93d deaa d13d 8b0e 0c3e
00000040: e402 ebbd 8897 d4bd aa96 313e e750 953d
00000050: b73a a2ba bad8 56be c7ed 50be d6cd 0bbe
00000060: ff34 f43c 0e7d a1bd c329 d03c 1d7d 1d3e
00000070: 4a82 ed3d 2db3 2fbe 007c 6cbe d6b3 61be
00000080: 0a70 d6bd 066f a9bd 7f04 c3bd 08a0 523e
00000090: 5fdf 4f3e 78dd 1a3e 40b2 4dbe 218a 063e
000000a0: 0583 65be f398 67be e68d df3d 60ad adbd
000000b0: c035 f23d d5bd 84bd 9743 673e 5ede 333e
000000c0: 07c0 ae3c 9c2c 6ebe 9dcf 76bd 85f6 25be
000000d0: e022 463c b224 7dbe c159 e93d 55ae 563e
000000e0: 091a 473e 9f18 b03c d619 82bd 7168 fdb9
000000f0: 2297 bb3d 4bd2 4a3c c39f 7f3e 5c3a 9cbc
00000100: 8e37 83bd c2ec 2e3e 5f74 b6bd 72e7 21bd
00000110: af2a cfbd 952d 0d3d 3b52 153e f08e 41bd
00000120: 68e3 58be a49e 463e b293 4b3d 8f5f 0d3d
00000130: 4166 fb3d 2dd0 18be 377f b5bd f3ed bd3d
00000140: 1183 bfbc 0045 ccbd a3d9 cabd dfac 7f3e
00000150: e9b9 823e 23f3 053e f35b e6bc 5c8a b33d
00000160: d867 f5bd f084 4abe 41a0 babd efe9 fc3d
00000170: 05a4 30be 8556 483e 9603 97bd bad5 39bc
00000180: 5294 de3d 528c fdbd ed27 5abe 0901 f5bb
00000190: 1c2d 73be 6f57 0a3d 04f2 5e3e 8439 78be
000001a0: fb83 7abe fabb 0f3d dfdb 683e f497 6e3e
000001b0: 9ce9 82bd 77cd 8dbd 0d2b 11be fc64 f83d
000001c0: 215e 07bd 8a91 043e 3707 bd3d 52cf 8e3d
000001d0: e93d 0abe a985 7bbd 272f 83bd 3bd3 793e
000001e0: 7ca3 1ebe 937c af3d 9578 1f3e 9a73 833e
000001f0: b818 77be f089 5bbe 5064 d3bd 8a81 4b3e
00000200: 43c1 313d 105f 0d3e c919 a63d 150e bfbc
00000210: fda4 e03d e773 d83d 4d35 fdbb 4a2c 90be
00000220: f4ff 0c3e 5972 763e 3cae a6bc c60b 4cbe
00000230: 1c69 44bc d45e 6dbe 385e 073d c7f1 4ebd
00000240: d319 313e 49e1 17bd dc72 693e eb58 9fbc
00000250: a7bb dd3d 1891 463c ae9c c13d 9489 57be
00000260: 7fc6 dbbd 4987 6b3c b0e0 eb3d 30d1 363e
00000270: 7565 5c3e ed71 873e 6471 eb3d 7e86 a53c
00000280: adc3 303e 8990 dabd 26b1 023d e87f 26be
00000290: 64a2 43be 1849 2dbe 655f 23be e8cc 49bd
000002a0: 7b52 4e3e 99b4 7abe 9792 82be 3e68 863e
000002b0: 21f1 5c3d 642a 7ebd a1fd cb3d b60d 99bd
000002c0: 0f5c 013c 3b9c d9bb 5f07 40bd 3d07 45bd
000002d0: 361b a03d 6bc4 3f3e f158 96bd 040b 033d
000002e0: 22bf 713e 25d8 a8bd 0fa4 f83d 36b8 993b
000002f0: a073 d1bd 5498 b43d 6a24 a33d def7 c13d
00000300: a98b c33c 50ef 6d3e 79d5 4abd 50e6 86be
00000310: 1f91 ce39 e107 68be 9853 2bbe 2878 773e
00000320: f4fb 75bd 028d babd b55c d3ba fc36 cd3d
00000330: 7f2f 553c 0293 cebd 23e2 a3bd 18b2 baba
00000340: 4692 28be b077 72bd 40b7 85bd f19a c43d
00000350: 772f 1fbe 3c5e bebd dcf0 ac3d fa6c 213e
00000360: 6964 5b3e 16b5 24be 330a f9bd d928 3a3e
00000370: 4831 84be 2707 8a3d b6db 8fbc 1569 a23d
00000380: f5f6 17bc d0f9 2abd e038 1cbb ffc8 853e
00000390: 6fab 43bd 7c3f 1fbe bf1d 02be 98a4 97bd
000003a0: e409 35be 3425 323c a652 79be ce49 bc3d
000003b0: fa6e 733d 70c9 e23d c95a 42be 5dae e9bd
000003c0: 9b45 813e 3c1d fa3d 81ec 153a f45d 8d3d
000003d0: 253a 32be 2d67 b93d 8a52 d7bd 7b85 7e3d
000003e0: deb8 34be 2fd4 503e 5b5f 36ba a82c d83d
000003f0: e302 88bc ab3c 243e 69c7 0d3e 7992 5dbe
0.16237845 0.07829296 -0.079859644 -0.043915562 0.16553718 0.10282716 -0.023350647 -0.028131975
0.02589006 0.2685102 0.15657738 -0.12776685 -0.1889596 0.098249905 0.102376685 0.13677423
-0.11475161 -0.10380465 0.1734263 0.072908215 -0.0012377118 -0.20981112 -0.20403205 -0.13652739
0.029810427 -0.078851804 0.025410539 0.15379758 0.11597116 -0.17158194 -0.23094177 -0.22041258
-0.104705885 -0.08273129 -0.09522342 0.2056886 0.20300053 0.15123546 -0.20087528 0.1313863
-0.22413261 -0.22616939 0.10915737 -0.08480334 0.11826658 -0.0648152 0.22584377 0.17565295
0.0213318 -0.23259205 -0.06025659 -0.16207321 0.012093276 -0.2472103 0.11394072 0.2096494
0.19443525 0.021496115 -0.06352584 -0.00048333735 0.09159686 0.012379239 0.24963288 -0.019070797
-0.064070806 0.17082503 -0.08908915 -0.039527364 -0.10115563 0.0344673 0.1458215 -0.047255456
-0.21180499 0.19396454 0.0497014 0.03451496 0.12275363 -0.14923163 -0.08862155 0.09273901
-0.023377927 -0.09974098 -0.09904792 0.24968289 0.25532463 0.1308103 -0.028120017 0.08766624
-0.11982697 -0.19777274 -0.09112597 0.12349307 -0.17250068 0.19564255 -0.07373731 -0.01134246
0.108681336 -0.123802796 -0.21304293 -0.00747693 -0.23747677 0.03377479 0.21772009 -0.2424069
-0.24464409 0.035091378 0.22740124 0.23300153 -0.06392214 -0.06923955 -0.14176579 0.12128636
-0.033048753 0.12946144 0.09229892 0.06973137 -0.1350018 -0.061406765 -0.06405478 0.24396984
-0.15492052 0.085686825 0.15573342 0.25674134 -0.24130523 -0.21439338 -0.103218675 0.19873634
0.0433972 0.13805795 0.08110387 -0.023322145 0.10968969 0.105689816 -0.007727301 -0.2815879
0.13769513 0.24067058 -0.020346753 -0.19926366 -0.011987951 -0.23180705 0.03304884 -0.050523546
0.17295007 -0.037080083 0.22797722 -0.01945158 0.108268075 0.012119554 0.094537124 -0.21048576
-0.107312195 0.014375516 0.11517465 0.17853236 0.21523078 0.26454106 0.11496237 0.020205732
0.17262144 -0.10672099 0.031907223 -0.1625973 -0.19104916 -0.16922414 -0.15954359 -0.04926768
0.20148651 -0.24482955 -0.25502464 0.26251405 0.053940896 -0.062052146 0.09960485 -0.07473318
0.007895484 -0.0066409386 -0.04688203 -0.048102606 0.0781769 0.18727271 -0.07341183 0.031992927
0.23608068 -0.08244351 0.12140667 0.004691149 -0.10227132 0.08818117 0.0796593 0.09471105
0.023870306 0.23235822 -0.04951999 -0.2634759 0.00039399505 -0.22659256 -0.16731107 0.2416693
-0.060054734 -0.09108926 -0.0016125651 0.10020253 0.013011812 -0.10086633 -0.080021165 -0.001424375
-0.16462049 -0.059196174 -0.06529093 0.09599865 -0.1554545 -0.092953175 0.08444378 0.15764228
0.21425022 -0.16084704 -0.121601485 0.18179645 -0.2581885 0.067396455 -0.017560821 0.07930199
-0.009275188 -0.041742146 -0.002383761 0.2612991 -0.047770914 -0.15551561 -0.1270666 -0.07404441
-0.17679554 0.010873128 -0.24347934 0.091937646 0.059432007 0.110735774 -0.18979944 -0.1141021
0.25248417 0.12212607 0.0005719141 0.06902686 -0.17404993 0.09052882 -0.1051379 0.062139016
-0.17648646 0.20393442 -0.0006956958 0.105553925 -0.016602939 0.16038768 0.138456 -0.21637906

weight f4 [4, 256]
00000000: 7177 9ebc 242d cbbb 7e13 893d 2ab0 d038
00000010: 78e0 1cbd cd83 163d e114 a23a 2edd 50bd
00000020: d02d 173d 471b e53c 6aeb 23bd 9631 e53c
00000030: 5c49 503c 783c 79bd d511 963b 8d7f 863c
00000040: 01f1 52bd 91c9 a43c c1c1 2d3d 9205 34bd
00000050: 3958 1e3c 4f92 293d 8021 6abd 3611 573d
00000060: 6f29 1fbd b181 afbc da47 e53c c361 04bd
00000070: f12a 09bd 6698 6fbd b9d3 bfbc a3e3 143d
00000080: 82dc 3bbd 268a a8bc 3efe cabb 73a3 54bd
00000090: d565 733c 0199 543c bfb1 51bd 2f5f debc
000000a0: d8a8 653d 1268 623d bbab 113c 790e 72bd
000000b0: b66b 55bc 0f12 5e3d 35ba fa3c 552a 1abd
000000c0: bee6 41bd 002a 5d39 64f5 54bd ce9e 433d
000000d0: 68c3 a63c 03df bb3b 02f8 533d 467c 87bc
000000e0: 2c61 35bd a524 283c f210 093d 19f4 e4bc
000000f0: 2be5 34bd 8991 dfbc 2620 f8bc 1db2 503b
00000100: 3c7f 773d c431 10bb 2060 06bc 1221 1cbd
00000110: 8bc6 013d b7f0 9bbc c076 4ab9 2aa7 6a3d
00000120: 7c1a 2a3d 65bf 103d 79aa 5dbd d51b 443d
00000130: 75be ad3c 6eff e6bc cce9 32bd f5ed f9bc
00000140: 86b4 2e3d 5a40 653d ac6b 21bd 90f7 2b3a
00000150: 98dd 38bd 0eb9 38bd 308b 743d c000 8dbb
00000160: 7a0b 083d 6e79 b03c 634a 6cbc 2e3d 913c
00000170: 3490 23bc b4d6 463b a9a5 4f3d e378 3e3d
00000180: 1ad7 093d 1e72 243d d1f9 833d 98d7 12bd
00000190: a951 04bc ba91 6e3d 0947 7cbd 5f41 443c
000001a0: 305f fb3b 3064 27bd bee0 72bc 6d29 62bd
000001b0: c0e4 2e3b 77ed 6bbc 0cce 27bd e14a 473d
000001c0: 8ef3 3dbd 9583 ec3c 46a6 a53c 1dde a13c
000001d0: a920 32bd e2e5 7dbd 4d4d 69bd f668 04bd
000001e0: a3d9 54bd b1e4 c0bc 7503 c13c 1581 b0bc
000001f0: b120 30bd 5c2a 3bbd 409f bb3c 6cf7 613d
00000200: 7fc8 483d b471 52bd e1b3 c23a f37e a5bc
00000210: c831 693b 5c13 79bd c23f 233d 414e 82b8
00000220: f2ed f33c 41de 6bbc 2f22 b5bb 0f5c 00bc
00000230: 8b48 fe3c 3a59 e13c 33b2 13bd c151 393d
00000240: fe16 7fbc 8a99 c8bc 3175 d33c 0be7 f53c
00000250: bc50 7c3b f186 7c3d 38d7 3abd 716c 91bd
00000260: 5cc7 563d d7ad 51bc df6c 20bd af28 81bc
00000270: 86d6 7bba ea86 633d c3d8 673d 6864 c03b
00000280: a2dc e9bc fa65 20bd cd12 f2ba ce77 5e3d
00000290: 4dee 3e3c b027 aabb ac41 2b3d 4689 4d3d
000002a0: d74e 05bc fa77 18bd 9623 0dbd 9e0d 7abc
000002b0: a41f 3ebd f0d8 033d c6c5 663c fe05 0b3d
000002c0: fa06 e0bc c851 003d ba30 9fbc d930 08bd
000002d0: 5f8f 033d bb2a 39bd b902 04bd 88a3 04bd
000002e0: d31e 553d cfc3 82bc b210 05bd 60fc c1bc
000002f0: 83f8 e83c 56e2 77bd 0300 1bbd 8f0f 303d
00000300: 7b09 833c 8b7b 62bd 3eed 233d 9843 963c
00000310: f042 d6bb 189a 633c 5d31 4cbd 3d3e 54bd
00000320: 00da d5b9 e721 3d3d 3450 49bd 9e92 cc3b
00000330: a9cb 203d c982 523d e228 153d 227c dd3c
00000340: e2e6 453d 6e5b 913c f3a8 9bbc 33de a23c
00000350: e466 b73c 9247 0a3c 435b e03c e2b2 793c
00000360: 80fe 883d a468 babc 44de 8f3c 7eec 9cbb
00000370: 16dd 3ebd e84e d93c 3d0b 733d b7e7 a9bc
00000380: b07d 343d cb56 6cbd 6a71 523d 6f90 06bd
00000390: 427c 21bd a5ac f6bc c9c3 e83c aa85 10bd
000003a0: ffa9 673d c61b 47bd 1575 353d 3213 113b
000003b0: aede 3b3d 1eb5 a43c a0ac 3f3c c2e6 333d
000003c0: d2ea 2cbd 633e adbc 012a c33c 540a 483d
000003d0: 6011 cd3c 8eef f03c b8c1 c53b 1b51 383d
000003e0: cf42 173d 6ff0 cf3c c54d 173d f721 bebc
000003f0: 34c2 1e3d d5c1 9dbc f810 303d 30e0 653c
-0.019344063 -0.0062004495 0.06693171 9.951026e-05 -0.038300008 0.03674679 0.0012365842 -0.050992183
0.036908925 0.027967108 -0.04001943 0.027977746 0.012712803 -0.060848683 0.0045797625 0.016418243
-0.05149937 0.020115646 0.042421106 -0.043950625 0.009664589 0.041399296 -0.057160854 0.052506648
-0.038857874 -0.021424146 0.027988363 -0.032319795 -0.033488218 -0.058494948 -0.023416387 0.036349904
-0.04586459 -0.020573687 -0.006194859 -0.05191369 0.014855822 0.012975932 -0.051194903 -0.027144996
0.056069225 0.05527503 0.008891041 -0.059095833 -0.013026169 0.05421644 0.030606369 -0.037638027
-0.047339194 0.00021091849 -0.051991835 0.04775887 0.020356849 0.005733372 0.05175019 -0.01653875
-0.044282123 0.010262643 0.033463426 -0.027948426 -0.044163864 -0.027291076 -0.030288767 0.0031844445
0.060424075 -0.002200232 -0.008201629 -0.038117476 0.031683486 -0.01903568 -0.00019308459 0.057288326
0.041529164 0.035338778 -0.054117654 0.047878105 0.021208981 -0.02819797 -0.043679997 -0.030508975
0.04265263 0.055969574 -0.039409325 0.0006560022 -0.045133203 -0.045098357 0.059703052 -0.004303068
0.03321407 0.021542277 -0.014422032 0.017729368 -0.009983111 0.0030340375 0.050695095 0.046502005
0.033652402 0.040147893 0.06444133 -0.035850137 -0.00807611 0.058244444 -0.061591182 0.011978476
0.0076712593 -0.04086703 -0.0148240905 -0.055215288 0.0026686639 -0.014399878 -0.040967986 0.048655394
-0.04637485 0.028871337 0.020220887 0.019759232 -0.04348818 -0.06198681 -0.056958485 -0.03232666
-0.051965367 -0.023546549 0.023561219 -0.021545926 -0.042999927 -0.045694694 0.022903085 0.0551676
0.049019333 -0.051377967 0.0014854633 -0.020202136 0.003558265 -0.06080948 0.039855726 -6.213459e-05
0.029776547 -0.014396251 -0.0055277566 -0.0078344485 0.03104045 0.027508367 -0.036058616 0.045243982
-0.015569447 -0.024487276 0.025812717 0.030017396 0.003850027 0.061652128 -0.045615405 -0.07100762
0.052436218 -0.012797794 -0.039166328 -0.01576647 -0.00096068566 0.055548586 0.056603204 0.0058713444
-0.028547589 -0.039159752 -0.0018468738 0.054313473 0.011653495 -0.0051927194 0.041810676 0.050179742
-0.008136473 -0.037223794 -0.034457766 -0.015262036 -0.046416894 0.03218931 0.014085239 0.03394126
-0.027347077 0.031327993 -0.019432414 -0.03324971 0.03211915 -0.045206767 -0.03222916 -0.032382518
0.05203135 -0.01596251 -0.032486625 -0.023679912 0.028438812 -0.060518585 -0.037841808 0.042983588
0.015995732 -0.0552936 0.040021174 0.018342778 -0.0065387413 0.013891719 -0.049851764 -0.051817168
-0.00040788949 0.04617491 -0.049148753 0.006243064 0.039256725 0.051394258 0.036415942 0.02703673
0.04831589 0.017743792 -0.01900146 0.019881343 0.02238793 0.008439915 0.027387267 0.015240403
0.06689167 -0.022754975 0.01756204 -0.0047889343 -0.046597563 0.026526883 0.05933689 -0.020740373
0.044065177 -0.05769996 0.05137769 -0.032852586 -0.039425142 -0.03011162 0.02841367 -0.035283722
0.056558605 -0.04861047 0.04430111 0.0022136685 0.04586666 0.020105895 0.011698872 0.04392124
-0.04221613 -0.021147912 0.02382374 0.048837975 0.0250327 0.029411104 0.006035056 0.044999223
0.036928948 0.025383202 0.0369394 -0.023209555 0.038759425 -0.019257465 0.042984933 0.014030501

bias f4 [4]
00000000: 5a82 5b3d 8ffb dd3c da41 ec3b 18d1 7d3c
0.05359111 0.027097492 0.0072099986 0.015491746
