RLSnake/model/samo_mapowanie.pth (torch, 102542 bytes, 6 tensors)

weight f4 [128, 59]
000000 35 03 e0 3c 26 3d a5 3d c2 61 cc bd 45 ea 00 be
       0.02734528 0.08068304 -0.09979583 -0.12589367
000010 00 c0 74 39 77 52 d3 bd cf 22 f9 bd fa e3 b6 bd
       0.00023341179 -0.10318463 -0.12164842 -0.08930202
000020 10 fe 16 3c 11 9d 18 3d fa 42 9e bd c9 78 ae bd
       0.009215847 0.037259165 -0.077276185 -0.08519132
000030 34 9c 28 3d b6 35 e5 bc 75 2b 95 3c eb 04 02 3d
       0.041164592 -0.027979713 0.018209198 0.03174297
000040 6a 32 aa bb 85 b4 6e 3d c9 84 d2 3d 6b 4a e4 bd
       -0.005193998 0.058277626 0.10279233 -0.111470066
000050 2f 7b 2c 3c 47 03 99 bc 12 ae c1 3d e4 e7 80 bd
       0.010527416 -0.01867832 0.094570294 -0.062942296
000060 75 05 02 be eb 92 0c 3d 6d d3 d1 3d df 6b 1e be
       -0.12697394 0.0343198 0.102454044 -0.15470837
000070 bd 3c 89 bd 6e 66 b3 3d a2 0d f4 bd 7b a0 71 bd
       -0.06701038 0.08759771 -0.11916663 -0.058990937
000080 80 4e 36 bd af 4f c0 3d a9 df c4 bd d8 d5 83 3c
       -0.044508457 0.093901984 -0.09612972 0.01609318
000090 f2 7d 8d 3d 98 37 be bc 76 1d 4b 3d d3 4f 8e bb
       0.06908788 -0.023219869 0.049588643 -0.004343012
0000a0 9d 3d 4a bc 76 86 d5 3d 3b fe 00 be 48 a3 ab 3d
       -0.012343791 0.10426037 -0.12596981 0.08380753
0000b0 27 86 b8 bd 15 70 74 bd 8f 4b 1b bd f1 e2 b4 bd
       -0.090099625 -0.059677202 -0.037913855 -0.08832348
0000c0 32 a5 2b bd b6 7e ac bd 74 8f 69 bd f0 f0 96 3c
       -0.04190559 -0.08422606 -0.057021573 0.018425435
0000d0 75 dd 8c 3d 96 bb a1 bd e4 2d 77 3d 30 86 c0 3d
       0.06878177 -0.07897107 0.0603465 0.09400594
0000e0 68 3f a0 bc 42 eb f3 3d 44 80 28 3d fa 0f fe bd
       -0.019561484 0.11910106 0.04113795 -0.12405391
0000f0 3a 99 37 bd 32 b9 1c bd 1c 64 8f bc ec 79 8d bd
       -0.044823863 -0.038262554 -0.01750379 -0.069080204
000100 65 36 c0 3d a3 fc 71 bd c8 5b 53 bd fd 70 03 be
       0.09385375 -0.059078824 -0.0516012 -0.1283607
000110 5e 1a 51 3b 78 d0 0d be 0e e6 e9 bd 90 fc 7d 3d
       0.0031906585 -0.13849056 -0.114208326 0.06200844
000120 a2 c4 ad 3d c8 64 04 be eb 96 14 be ff 73 af bd
       0.0848477 -0.1292907 -0.14510696 -0.085670464
000130 69 e0 7c bd b5 d3 c5 bb 36 5d 75 3d 2c b2 30 3d
       -0.06173745 -0.0060372003 0.059903346 0.043138668
000140 e2 41 b5 bd 7c 67 fb bc 4a 83 b2 bb d0 fe c1 3c
       -0.08850457 -0.030688994 -0.00544778 0.023681074
000150 de 5e a4 3a 91 b9 1b be 7e 88 3d bd ba c3 a0 3c
       0.001254048 -0.15207507 -0.046272747 0.01962458
000160 d7 d0 dd 3b 8f ce 69 3d 64 69 c4 bd ce 0d d6 bd
       0.0067692804 0.057081755 -0.09590414 -0.10451852
000170 0b df f7 bc 75 77 0c 3c c5 8c e7 bd 2e 2a 00 bd
       -0.030257722 0.008573403 -0.113061465 -0.031290226
000180 38 9f 61 3d a6 b6 cf 3d b9 4f 13 bd c2 3e 7c bc
       0.055083483 0.10142259 -0.0359647 -0.015395822
000190 98 52 26 bd 2b 7f 85 bd f8 d4 be 3d 74 aa 77 3d
       -0.04060611 -0.06518396 0.09317964 0.06046529
0001a0 52 cb 9c bd 3e 41 f5 bd 86 28 a3 3d 10 30 83 3c
       -0.07655968 -0.119753346 0.079667136 0.016014129
0001b0 b4 11 95 3d 00 1c 92 3a 40 60 64 bc e2 a2 91 3d
       0.07278767 0.0011147261 -0.013938963 0.071111456
0001c0 ce a6 96 3d de 0d db bd 90 6a 00 3e fc 3b e6 3d
       0.07356034 -0.10696004 0.1254065 0.1124191
0001d0 4c 40 fd bd 44 32 0e bd d6 b0 6b bd c1 30 2e be
       -0.12365779 -0.034715906 -0.05754169 -0.17010786
0001e0 21 1a a6 bd 27 a5 4a 3d de 1f bb 3d ee 94 7d be
       -0.081104524 0.049473908 0.091369376 -0.24763843
0001f0 3f 26 0e 3d 50 3c 93 be 9e f9 b2 bc e3 97 97 bd
       0.034704443 -0.28756952 -0.021847542 -0.07402017
000200 ac bf 25 3d 87 80 db bd 32 de 5d 3a f9 be 5e bc
       0.040465996 -0.10717874 0.00084635906 -0.013595336
000210 f5 b7 0b 3e 77 cb b1 3b 79 08 91 bd 32 05 b0 3c
       0.13644393 0.005425866 -0.07081694 0.021486852
000220 c4 44 84 bd ee 37 12 3d 54 86 8d bd 75 13 08 3e
       -0.064584285 0.03569787 -0.06910387 0.13288672
000230 8d 2c d0 3d b8 35 9d bc d6 a9 05 bd 24 93 2e 3d
       0.101647474 -0.019190654 -0.03263267 0.042620793
000240 d5 43 f0 bd f9 19 be bd 30 b5 e5 bc 23 ca ab bd
       -0.11731688 -0.09282298 -0.028040498 -0.08388164
000250 28 ca e6 3c 17 42 10 bd ad 34 60 bd 12 8b 18 be
       0.028172567 -0.03521928 -0.054737736 -0.14896801
000260 88 35 58 3d c0 fd 77 3d 79 c2 c3 bd 5c 60 b3 bc
       0.052785426 0.06054473 -0.09558577 -0.021896534
000270 88 5c 34 be 2c 7d 2a be fc 7f 23 be 00 e1 69 3d
       -0.17613423 -0.16649312 -0.15966791 0.057099342
000280 00 c0 6e bd 2e b4 00 bd 60 02 f8 bd 37 71 e3 bd
       -0.058288574 -0.031421833 -0.12109828 -0.111055784
000290 ae fa 07 be ce ae 3b be e2 e5 aa 3d 74 a0 b6 3d
       -0.1327922 -0.18328401 0.08344628 0.08917323
0002a0 a7 4c f0 bd 7e 26 6c bd 22 cc 41 be 91 9c e3 3c
       -0.1173337 -0.057653897 -0.18925527 0.027784618
0002b0 9a bf 2c bd 40 2f 0b bb 9c 27 5f 3d 86 65 d6 3d
       -0.042174913 -0.002123788 0.054481134 0.10468583
0002c0 fc 98 8d bc 05 f9 86 bd dc 8b a7 bb b3 6b 87 bc
       -0.017284863 -0.065904655 -0.005113108 -0.016530847
0002d0 b3 e8 27 3d 53 35 8a bc 80 35 30 3c f8 9c 5f bd
       0.040993404 -0.01687113 0.010754943 -0.054593056
0002e0 be 99 91 3d d0 38 73 bd 53 01 af bd c4 1b f3 bc
       0.07109402 -0.059380352 -0.085451744 -0.029676326
0002f0 20 8f 18 bc cc 20 b6 bd d3 13 e9 bd f8 46 58 3d
       -0.009311467 -0.08892974 -0.11380734 0.052802056
000300 fb 1c d1 bd 00 89 4a bd b0 f4 9a 3c f0 8a ee bc
       -0.10210606 -0.04944706 0.018915504 -0.029118985
000310 00 37 d8 bb b4 de 46 bd 57 b9 d5 bd 00 58 22 bb
       -0.0065983534 -0.04855223 -0.104357414 -0.002477169
000320 14 91 92 bd de 54 1b bd c6 24 46 bd 4a 61 de 3d
       -0.07156578 -0.037922733 -0.048374914 0.108584
000330 9e 2b 9f bd 38 24 f8 3d 77 84 d5 bd 8e 1a af 3d
       -0.07771991 0.12116283 -0.10425656 0.08549987
000340 d0 eb f9 3d c8 d9 92 3c 6c bd ca 3d 4d 95 88 bd
       0.12203181 0.017926112 0.098994106 -0.06669102
000350 0e ca 0a bd 0c 76 95 bd 0c 02 4d bd f2 21 01 3e
       -0.0338841 -0.07297906 -0.05005078 0.12610605
000360 1e 13 a4 bd 64 6d 95 bd 6c df b4 3d 50 06 7e 3d
       -0.08011459 -0.07296255 0.08831677 0.06201774
000370 0e a9 26 bd 1e 78 9e 3d 96 9e f9 bd 88 0b 03 bc
       -0.040688567 0.07737754 -0.12188451 -0.007998355
000380 c0 15 b7 3d 00 6f 55 3b ce fc 47 bd 80 54 b3 bd
       0.08939695 0.0032567382 -0.048825078 -0.087563515
000390 b8 37 4f bd 36 2c d1 bd 9e c0 00 be 18 27 68 bc
       -0.050590247 -0.10213511 -0.12573478 -0.014169477
0003a0 78 e8 aa 3c 40 a0 14 bb 38 8d 42 3d d2 3f e9 3d
       0.020862803 -0.0022678524 0.047497958 0.11389126
0003b0 ce 49 92 3d 3c 4f 00 3c 7d d5 91 3d 16 56 f7 bd
       0.071429834 0.007831391 0.07120798 -0.120769665
0003c0 84 e5 44 3d ce 75 96 bd b5 18 f4 bd 75 c9 98 bd
       0.048070446 -0.07346688 -0.11918775 -0.074603
0003d0 bb 07 f2 bd fe d2 c9 bd 34 b9 eb bd a2 b2 a1 bd
       -0.11817881 -0.09854697 -0.11509934 -0.078954
0003e0 e4 4a b0 3d 4e 41 cf 3d 0e d0 b5 3d 6a 7d 04 3e
       0.08608034 0.10119878 0.08877574 0.12938467
0003f0 90 87 ad bb 40 d0 3b bb fe db af bd b6 93 ad 3d
       -0.0052957013 -0.0028658062 -0.08586882 0.08475439

bias f4 [128]
000000 46 31 f2 bd 8f d1 8e bd a6 4e 76 be 04 13 14 be
       -0.118258044 -0.06973564 -0.2405344 -0.14460379
000010 17 d9 14 be b4 fb f0 be 8e dc ad be e7 0d 0d be
       -0.14535938 -0.47067034 -0.33957332 -0.13774835
000020 dc 29 05 be 17 69 c5 be 4c a5 63 bd 89 c9 ef bd
       -0.1300425 -0.3855674 -0.05557756 -0.11708362
000030 15 2c 17 3f 1b d4 bb 3c 27 71 ef be d7 38 4f be
       0.5905164 0.022928288 -0.46766016 -0.20236526
000040 1f 71 3d 3e 3d f6 4a be 6b 29 d9 bd d6 3b dc bd
       0.18500184 -0.19820495 -0.10603603 -0.107536
000050 5b 79 13 bd 79 95 ba be 04 da 9d bd ec d7 47 be
       -0.036004405 -0.36442164 -0.07707599 -0.19515961
000060 2b f4 84 be fa cc d9 bd 1c e1 99 bd 88 98 c3 bd
       -0.25967535 -0.10634799 -0.07513639 -0.095505774
000070 4d 64 9c be 6a ad 4f be fd ac 55 be 16 14 bb be
       -0.30545273 -0.20280996 -0.20866771 -0.36538762
000080 c2 84 31 be 39 f5 cb be 0d 81 c6 be d0 38 9b be
       -0.173358 -0.39835528 -0.38770333 -0.30316782
000090 8a ce 2c be 5a ad 9a bd da 92 55 be 05 ed a7 be
       -0.16875663 -0.075525954 -0.208568 -0.3279802
0000a0 bd 2c 95 bd b6 90 b0 be cd 0a 16 be 2f e6 64 bd
       -0.07283924 -0.34485406 -0.14652558 -0.055883583
0000b0 7c 43 8e be 3f 1d 80 bc 0e ed 9e bd 5c 8f 97 be
       -0.27785861 -0.015638946 -0.07760058 -0.29601562
0000c0 73 04 f7 3e 96 02 0f bf 3c d2 9a bd bb d8 26 be
       0.48245582 -0.5586332 -0.0755963 -0.16293614
0000d0 f5 57 02 be ce cc 63 be db 09 c5 be da fc 8e bd
       -0.12728865 -0.22246096 -0.38484082 -0.06981821
0000e0 af 96 82 bd fb 69 de be ce f8 49 be 60 ed 10 be
       -0.06376397 -0.43440232 -0.19723818 -0.14153051
0000f0 fc 23 0b be 7c e7 4a bd 16 ab 9b bd 15 ab 07 bd
       -0.13587946 -0.049537167 -0.076009914 -0.03312214
000100 fa 0c d7 be e4 ef 78 be f2 ae 24 be 79 ea 03 be
       -0.42002088 -0.24310261 -0.16082361 -0.12882413
000110 4e 3e b2 bd 0b ac d4 3d 62 42 bd 3c c1 59 8d be
       -0.0870329 0.10384377 0.023102943 -0.2760754
000120 96 b1 bd be 0b 0c 49 be 0a 0c ea be 83 d1 36 bd
       -0.3704955 -0.196335 -0.4571231 -0.0446334
000130 23 4d 9a be 81 3c 3c bd 08 7b 2d be cf 4a 89 be
       -0.30136976 -0.04595614 -0.16941464 -0.26814887
000140 de 6c b7 bd 54 cf 1f be dd b6 16 bd 59 ee f3 be
       -0.08956312 -0.15606433 -0.036795486 -0.47642782
000150 ec 43 d4 be 42 42 0c be b7 a7 35 be 91 14 c8 be
       -0.4145807 -0.1369715 -0.1773976 -0.3907819
000160 98 d1 d2 be 41 5e 25 be d8 52 ed 3c b5 19 32 3e
       -0.41175532 -0.16149236 0.028970167 0.17392619
000170 52 35 71 be c5 68 af be b5 15 ba be d6 df 5c be
       -0.23555496 -0.3425962 -0.36344686 -0.21569762
000180 6e f6 63 be ba 0c e5 be e1 63 65 bf 62 2a ca bd
       -0.22261974 -0.44736272 -0.8960553 -0.09871365
000190 b0 a8 90 bc e3 8a e7 bd a4 02 ad be e5 81 93 be
       -0.017658561 -0.113057874 -0.33791077 -0.2881004
0001a0 67 df dd bd e7 f1 82 bd 02 ba 96 3e 6d 64 73 bd
       -0.10833626 -0.063937955 0.29438788 -0.059421945
0001b0 c1 01 0e be f1 fa ef be 26 9c 09 bf 8f 80 15 bd
       -0.13867857 -0.4687114 -0.5375389 -0.036499556
0001c0 db 4e ad be 2c fc 1f bf 6c 0a 96 bd 30 cd 90 bc
       -0.33849224 -0.6249416 -0.073262066 -0.017675966
0001d0 0b 80 03 3d fd b0 1c be 6c b9 85 be dd 53 73 3d
       0.032104533 -0.1530189 -0.26118028 0.05940615
0001e0 38 4e d1 bd 10 3e 72 be 36 31 06 be 5e 65 4a bf
       -0.10219997 -0.23656487 -0.1310471 -0.79060924
0001f0 d7 b6 24 be ae 9a 21 be 44 4c cf bd e6 f9 a7 be
       -0.16085373 -0.15781662 -0.101219684 -0.32807845

weight f4 [128, 128]
000000 42 80 01 3c 2d 27 2c bd a2 b7 16 be b0 4c 33 bc
       0.007904114 -0.04202955 -0.14718488 -0.010943577
000010 9b b2 9d 3d 07 d8 53 be 1e 92 a1 bd 87 e4 03 be
       0.07700082 -0.20687877 -0.07889198 -0.12880145
000020 62 a5 54 bd ce e0 2d 3a 89 0f 47 3c 5a 33 ef bd
       -0.051915534 0.0006632925 0.0121497 -0.116797164
000030 9b ca cf bd 0e 87 00 3d 40 21 26 be 04 f1 d4 bc
       -0.10146066 0.0313788 -0.16223621 -0.025993831
000040 18 d7 f7 bd c7 fe 37 bc 02 3b 74 bc ad 71 b4 3c
       -0.12101573 -0.011230177 -0.014906647 0.022026861
000050 1b ca 12 bd b1 8e b3 bc 20 b5 0f bc d5 c9 ab 3d
       -0.035837274 -0.021918627 -0.008771211 0.08388106
000060 d1 cc 5b be 36 99 80 3b 4a 28 8a bd e0 af 8c bc
       -0.2146485 0.003924514 -0.06745966 -0.017173707
000070 29 4d 22 be c7 fd 99 be 5e 33 cf bd cb 85 90 bd
       -0.15849747 -0.3007643 -0.101172194 -0.07056769
000080 e7 c4 1f 3e a8 6b 22 be f5 70 83 bd 63 3c 20 3c
       0.15602456 -0.1586138 -0.06418029 0.009780022
000090 3b 15 8d bd 74 d7 29 bd 32 27 8a be 28 c7 2b 3d
       -0.06888815 -0.041465238 -0.2698303 0.041937977
0000a0 1f 1f 44 bd cd 47 35 be 42 a8 32 3d a6 46 d6 bc
       -0.047881242 -0.17703171 0.043617494 -0.026156735
0000b0 0c 1d 71 3c 4a 71 8f bd 0b 04 73 bd bb ae 53 be
       0.014716398 -0.0700403 -0.059330028 -0.20672123
0000c0 ec 84 74 bd 41 e8 91 bd 1c e9 dd 3b 98 46 07 3e
       -0.059697077 -0.07124377 0.0067721736 0.13210523
0000d0 8d 7e 73 bc 45 03 b2 bc f2 96 87 be 28 4b 94 bd
       -0.014861715 -0.021730075 -0.2648235 -0.072408974
0000e0 bc cb e9 3c 5c 20 ee bd f0 31 4f bc 88 a8 60 be
       0.028539531 -0.11627266 -0.012646183 -0.2193929
0000f0 b2 74 9c 3c df 21 8c 3c c0 84 30 3b 42 19 3e 3d
       0.019098613 0.017105995 0.0026934594 0.046410806
000100 84 85 e1 3d 0d 34 1d 3d 70 e3 b0 bd ec 7e 9c 3d
       0.11011794 0.038379718 -0.0863713 0.07641396
000110 17 88 ad 3d 9c ce c4 bd e4 3d d2 bd ae 6c 63 3e
       0.08473223 -0.0960972 -0.10265711 0.22209427
000120 ba 47 a2 bd 8c 27 ed bd 02 c8 98 be cc 81 92 3d
       -0.07923837 -0.115798086 -0.29840094 0.07153663
000130 cb 88 0e be 5f b4 6c 3d 1e 60 cb bc db e1 f3 3d
       -0.1391937 0.057789203 -0.024826106 0.11908313
000140 62 04 ae bd 83 c4 44 bd 5d 7e 75 3d 54 5a c4 bc
       -0.0849693 -0.04803897 0.059934963 -0.023968853
000150 46 c5 ba bd 02 f7 4d be e6 82 94 bd 9b b4 1d bd
       -0.09119658 -0.20113757 -0.072515294 -0.038502317
000160 37 e8 1d be 20 5c d9 3c a8 3c 95 3c 81 b5 39 be
       -0.15420614 0.026533186 0.0182174 -0.18135644
000170 6e 86 f6 bd a9 54 b0 3d 54 e8 77 be a8 51 05 be
       -0.12037359 0.08609898 -0.2420972 -0.1301943
000180 55 01 d5 bd c9 3d 56 be fe ce 63 be 8d 89 29 3b
       -0.10400645 -0.20922007 -0.2224693 0.002586934
000190 83 7d 22 be 34 ba d1 bc 84 7c ea bd 17 1a 09 be
       -0.15868191 -0.025601484 -0.11449531 -0.13388859
0001a0 de 74 54 be 61 9a d1 bd 16 5f fa bd c2 4f 5e 3d
       -0.20747706 -0.102345236 -0.122251675 0.05427528
0001b0 15 d1 75 3d b6 94 0c be d7 f9 c8 bd 23 ba ea 3b
       0.06001385 -0.13728604 -0.09813278 0.0071633025
0001c0 5e 77 b8 bd 04 d7 94 3d 40 af 0c bb a5 44 f8 3b
       -0.090071425 0.072675735 -0.0021466762 0.0075765424
0001d0 8d aa 95 3d 8a 49 93 bc 72 e9 d5 3d cb 44 39 be
       0.073079206 -0.017979402 0.10444917 -0.18092649
0001e0 58 16 9e 3c af ff 09 be 90 ca 70 bc 5c a3 3c be
       0.019297764 -0.13476442 -0.014696732 -0.18421692
0001f0 1a 54 58 3d 51 32 3e bd f5 14 46 bd 94 81 80 bd
       0.05281458 -0.046434704 -0.04835983 -0.06274715
000200 2c 02 9a bd c0 29 43 3b 13 0b 47 bc 95 2e fe 3c
       -0.075199455 0.0029779524 -0.012148636 0.031028071
000210 a3 63 f3 ba eb 2c f2 be c0 28 8b 3d 19 53 9d 3d
       -0.0018569123 -0.47299895 0.06794882 0.07681865
000220 60 a0 dc 3c 01 e1 50 bd fc c9 3f bc de d3 dc 3d
       0.026931942 -0.05099583 -0.011705872 0.10782598
000230 58 ba ba 3d ff 9c 84 3d 54 8a 62 be 3e 2c 49 3f
       0.091175735 0.06475257 -0.2212308 0.78583133
000240 dd bd a9 be 68 79 a2 3d 52 fe a8 3d 84 9d d6 3c
       -0.33152667 0.07933313 0.08251633 0.026198156
000250 0e 49 ab 3c a2 27 3a 3e 7d b9 32 bd e3 f4 46 bd
       0.020908859 0.18179181 -0.043633927 -0.048573386
000260 44 6b 7c bd 8c d5 5c bd 06 51 a0 bc 80 18 31 bd
       -0.061625734 -0.05391459 -0.019569885 -0.043236256
000270 7b 97 1a 3d 97 ac 44 be 31 64 e4 bd 55 9b c3 bd
       0.03774212 -0.19206463 -0.111519225 -0.095511116
000280 32 bb 9f be bf ce 89 bd ab e1 b3 3d 01 2c 74 bd
       -0.31197506 -0.06728887 0.08783277 -0.059612278
000290 9a 08 bb bd 86 c4 00 be c4 37 e4 be 3f 7c d3 be
       -0.091325 -0.12574968 -0.44573796 -0.4130573
0002a0 58 c0 21 3c 65 c3 0d be 02 c1 fd bc 04 f0 23 be
       0.0098725185 -0.13844068 -0.030975822 -0.16009527
0002b0 37 ff b7 3d 59 09 7d bd 13 14 11 3e a9 a4 64 be
       0.08984225 -0.061776493 0.14167814 -0.22328438
0002c0 e8 d2 8c be a3 bb ed 3c b1 e4 9c bc 06 f4 c9 3d
       -0.2750466 0.029020136 -0.019152017 0.09860997
0002d0 5e 5e 2a bd 5b 79 b0 bd e0 4e c7 bd 30 80 c4 bd
       -0.0415939 -0.08616897 -0.09731841 -0.09594762
0002e0 b7 4a d3 bd d4 1d 2f 3f bd 12 ce 3d d3 94 64 3d
       -0.10316985 0.6840489 0.10062168 0.055805992
0002f0 c8 d5 02 bd e0 89 b2 bd 72 c8 6b 3c ab b3 2a 3e
       -0.03194216 -0.08717704 0.014391052 0.166701
000300 58 cb 9e be cb a5 19 3e 53 d6 8d 3d f2 34 f4 3c
       -0.31014514 0.15004651 0.06925645 0.029810403
000310 30 64 ad bd ea 77 d0 be 9f c5 e9 bc 33 1d 24 bd
       -0.08466375 -0.40716487 -0.028536616 -0.04006691
000320 e7 8b 9b be 53 1d 04 3b b2 9b 00 3c 17 b5 01 3d
       -0.30380175 0.002015908 0.007849621 0.03166684
000330 c8 06 83 be a6 89 79 bc dc 73 e1 3d 2d 94 bf bd
       -0.2559111 -0.015230572 0.110084265 -0.09354434
000340 d7 ea cd 3d 91 c1 52 bd a4 d0 c1 bd 1b ad da 3e
       0.10054558 -0.05145413 -0.09463623 0.42710194
000350 47 b9 e9 be 09 31 5c bd ac 5e e5 be 68 9a 20 3e
       -0.45649168 -0.0537577 -0.4479879 0.15683901
000360 c6 42 1f bb 14 a6 65 bc 7a db 69 3b 63 75 86 3e
       -0.0024301275 -0.014016647 0.0035683797 0.26261434
000370 6a 4d 3d be 05 44 ae 3d e8 ac 7d be 54 8c 05 be
       -0.18486562 0.085090674 -0.2477299 -0.13041812
000380 0e ea 50 be 31 26 e3 3c 10 56 d4 bd 9f 4f a6 bd
       -0.20401785 0.027728172 -0.103679776 -0.08120655
000390 9b c3 b7 bd df 45 ee bd e6 5b 0a be 0b 6c 13 be
       -0.08972856 -0.116344206 -0.13511619 -0.14396684
0003a0 7e 72 40 be 0e a1 70 bd 3d 14 5a 3e a8 19 4a bc
       -0.18793675 -0.058747344 0.21296783 -0.0123352185
0003b0 9a d6 91 bd 5e 8a 88 bd 80 76 43 be 44 f6 ce bd
       -0.0712101 -0.066670164 -0.19088173 -0.10105565
0003c0 5a 83 1a be d4 39 81 3e ac dc 16 bd 7b 35 95 3d
       -0.15089169 0.25239432 -0.036831543 0.07285591
0003d0 73 49 09 3e 28 78 ee bd 2d 12 89 3d fc f3 45 3e
       0.13406925 -0.11644012 0.0669292 0.19331354
0003e0 70 d5 01 bc cb f0 cd bd 3f 28 1d bd ee 01 f2 bd
       -0.007924423 -0.10055693 -0.03836846 -0.11816774
0003f0 54 7e dc bb d8 07 51 bd 8d 1d f2 bd 7a 7e 99 3e
       -0.0067289267 -0.05103287 -0.118220426 0.29979306

bias f4 [128]
000000 73 b3 44 bd f7 65 fc be 1a cd 16 be 46 3e 4c be
       -0.0480227 -0.49296543 -0.14726678 -0.1994563
000010 4a ff 91 be c6 cf 1a be 48 eb f7 bd 82 dd 11 be
       -0.28515083 -0.15118322 -0.12105423 -0.14244655
000020 b7 25 0c bd e8 d6 c9 bd 71 cc 6a be 6a bb ff 3b
       -0.034215655 -0.09855443 -0.2292955 0.007804324
000030 0b 62 fe bc 99 aa d8 bd 3f 1c db bd 31 32 27 be
       -0.03105261 -0.10579414 -0.10698747 -0.1632774
000040 86 6a a8 be a9 02 73 be bb 2f cd bd 05 ee 99 bd
       -0.3289377 -0.23731484 -0.100188695 -0.07516102
000050 cc bd 14 bf 2a e3 c5 3e 18 ee 2a bd 80 9d 40 be
       -0.5810211 0.38649875 -0.04173097 -0.18810081
000060 e2 40 f0 bd 31 ab 4b be 71 08 a5 bd ab 94 9b bd
       -0.117311254 -0.19889523 -0.08058251 -0.075967155
000070 30 69 06 bf 86 49 c6 be 55 d5 e8 be 0f 66 10 3e
       -0.52504253 -0.3872797 -0.4547526 0.14101432
000080 a6 16 37 be 1f bc 51 be b7 94 f6 be 83 29 32 be
       -0.17879733 -0.20481919 -0.48160335 -0.17398648
000090 8b ca a8 bd f1 5a 24 bd 13 c3 54 be 3d ee e3 bd
       -0.08241757 -0.04012579 -0.2077754 -0.11129425
0000a0 22 cf 3b be bf 32 93 be 09 ac 46 be 3d 52 b3 bd
       -0.18340734 -0.28749654 -0.19401564 -0.0875592
0000b0 78 5b df bd 2c 09 be bc 1f 30 a1 be 33 fa f2 bd
       -0.10906118 -0.023197733 -0.31482026 -0.11864128
0000c0 b0 7a d6 bc 33 a3 14 be 17 b2 ee be 7a c5 fd bd
       -0.026181549 -0.1451538 -0.46620247 -0.12391181
0000d0 19 52 31 be c3 d3 e9 bd b4 ca 91 be 11 04 9f 3d
       -0.17316474 -0.114173435 -0.28474963 0.077644475
0000e0 4b 97 c9 be 43 db 37 be a4 a4 33 bf 2b f1 45 be
       -0.3937324 -0.17954735 -0.70173097 -0.1933028
0000f0 7b 4a 04 be ae e6 01 be fd f6 70 bd 2e df 1e be
       -0.12919037 -0.12685654 -0.058829296 -0.15514824
000100 8f 0a 5c bd a9 ca 5b be 17 ba ef be 3c 4f 3f 3e
       -0.053721007 -0.21464027 -0.46821663 0.1868257
000110 03 11 3d be 44 ca 91 be 5b ea b5 be 6c 7d 32 be
       -0.1846352 -0.2847463 -0.35530362 -0.17430657
000120 5d 72 05 bf 3b 4f 80 be 81 49 4b bc 49 15 f3 bd
       -0.5212763 -0.25060448 -0.012407661 -0.11869294
000130 c7 01 c3 bb dc 1e 37 be 55 f8 5e be 5a 0c 5e be
       -0.0059511396 -0.17882866 -0.21774419 -0.21684399
000140 9d 1a ce bd 80 43 bb bd 44 30 7d be e6 73 cf be
       -0.1006367 -0.09143734 -0.24725443 -0.4051811
000150 83 2c 5a bd ab 57 6b be ae 11 14 be a5 17 d6 bd
       -0.053265106 -0.22982661 -0.1445987 -0.104537286
000160 ff 0b 62 be d4 c5 0f be a6 4d a5 bd 79 3f 25 be
       -0.22074889 -0.14040309 -0.08071451 -0.16137494
000170 b7 e8 68 be c3 88 19 bf f4 89 2c 3f fb 98 61 be
       -0.22745024 -0.59974307 0.67398 -0.22031014
000180 9a f7 69 be 83 ee 2e be e9 a7 18 be ec 92 1c 3f
       -0.22848359 -0.17083173 -0.14907803 0.61161685
000190 d8 40 ba be 7a d7 a8 bd b5 ae 56 be 2e ea 2a be
       -0.36377597 -0.08244224 -0.20965083 -0.16690895
0001a0 a4 04 96 be 76 6b c8 bd a6 cf ca bd 08 bd 77 bd
       -0.29300416 -0.097861215 -0.09902887 -0.06048301
0001b0 f9 b1 1a be 94 fc 94 bd 83 95 9c bd cc ad a8 bd
       -0.15106954 -0.07274738 -0.076457046 -0.08236274
0001c0 de bb 93 be 23 0b ac be 1e 52 b8 be c7 e3 26 be
       -0.2885427 -0.33602247 -0.3600015 -0.16297828
0001d0 ca 6e 72 bd bc 43 91 be cd 66 6c be a4 a5 2f bd
       -0.059187688 -0.2837199 -0.2308609 -0.042882577
0001e0 06 b7 4e be 8b 73 88 be 5c 31 d1 3e a7 93 96 be
       -0.20187005 -0.26650652 0.4085797 -0.29409525
0001f0 d3 fc a6 bd 81 4d d0 bd 69 35 67 be 89 4e 21 3e
       -0.08153691 -0.10171033 -0.22578968 0.15752615

weight f4 [4, 128]
000000 3e 0a 8d be 0b f2 e6 bc c6 87 a3 bd e6 45 ef 3c
       -0.27546877 -0.028191587 -0.07984881 0.029208135
000010 b9 e5 60 bd 90 1a a6 3d 54 ec 3b 3d 8f 5c e6 bc
       -0.05490658 0.08110535 0.045879677 -0.028120307
000020 80 a0 6d bd 6c 52 0b bc 9f a4 9a bc 0c 0a d7 bd
       -0.058014393 -0.008503538 -0.018877326 -0.10499963
000030 f6 f9 09 3a 05 c6 6b bd 90 ad 30 be 38 d8 16 3d
       0.00052633823 -0.057561893 -0.17253709 0.036827296
000040 19 d5 98 3f 50 14 ac bc 18 ac b1 3c 00 5b 8e bc
       1.1940032 -0.02100578 0.021688506 -0.017377377
000050 dd 98 3f 3f 82 f3 23 3e ab 5b 25 3d 7a 86 51 3f
       0.74842626 0.1601086 0.040370625 0.8184582
000060 46 34 6e bc 6f 20 85 b9 ec f8 cc 3b f5 e9 3c 3d
       -0.01453883 -0.00025391902 0.0062552597 0.046121556
000070 75 88 4d 3f bc 27 70 3e c1 f1 f8 be 81 9f a1 bd
       0.8028634 0.23452657 -0.48621944 -0.07891751
000080 d6 85 a3 3c 9e 64 47 bc fd 58 38 3e a6 3b 07 3c
       0.019961279 -0.012169985 0.18002696 0.008253967
000090 f2 47 07 3d 29 06 a6 3d 33 66 c0 3d d4 3f d4 3c
       0.033027597 0.08106644 0.09394493 0.025909342
0000a0 96 06 d8 3a ef c1 f2 3c c5 56 fc bd 54 5c 20 3e
       0.0016481455 0.02963349 -0.123212375 0.1566022
0000b0 79 ed 4a 3d 1a 5d f4 3a bb af 37 bb 30 8b d1 bd
       0.049542878 0.0018643469 -0.0028028328 -0.10231626
0000c0 eb 49 02 bd 0a aa 40 3d 1b 3c 82 be ef da 5a bc
       -0.031808775 0.047037162 -0.25436482 -0.013357862
0000d0 25 8e 0a 3d 72 7d af 3c 91 97 f6 b9 bd 5f a7 3e
       0.033826966 0.021422122 -0.00047033702 0.3269023
0000e0 07 fe d3 3e 72 23 77 bc 1f 07 05 3f 8d 6a dc ba
       0.41404745 -0.015084134 0.5196399 -0.0016816423
0000f0 cd c7 fe 3b 30 7c a1 bc 1f a6 9b 3d 7d ac 28 be
       0.007775283 -0.019712538 0.076000445 -0.16472049
000100 65 49 d2 3d 41 f9 07 3f 6b a5 a9 3d ae a6 c1 be
       0.10267905 0.53114706 0.08283504 -0.3782248
000110 cc d9 54 3b 48 ab d7 3d c5 68 ae 3e a9 57 3d 3c
       0.003247845 0.10530716 0.34064308 0.011556544
000120 73 8f 80 bd b0 48 2d 3d 79 71 2e bd 83 d8 00 3d
       -0.06277361 0.04230565 -0.042588685 0.03145648
000130 80 92 a2 3c 25 11 d9 3d 00 a3 ae bb 82 e7 6d 3e
       0.019845247 0.10598973 -0.0053294897 0.23232844
000140 94 78 d3 3b 36 75 d8 3c a4 10 b7 bc 60 b0 1b be
       0.006453583 0.026423078 -0.022346802 -0.15204
000150 a6 d6 70 bb 0b c2 96 be 33 f5 e3 bc be 85 96 be
       -0.0036749034 -0.29444918 -0.027826881 -0.29398912
000160 6f 71 89 3d 56 04 bd 3d c4 4f 92 bc 06 d0 83 3d
       0.06711089 0.09229343 -0.0178603 0.06436162
000170 51 69 0d 3f d7 c6 ff bd 25 13 6c 3e 6f 28 da ba
       0.55238825 -0.124890976 0.23054178 -0.001664413
000180 ec 14 2e 3e 7f 01 5b 3c de a9 95 bd 44 2c b3 be
       0.17000169 0.013367056 -0.0730779 -0.3499471
000190 62 c0 c3 3e 46 ae bd bd 57 f1 a5 3d c0 b0 75 3e
       0.38232714 -0.09261756 0.081026725 0.23993206
0001a0 98 d3 a8 3d 88 6a 74 bb 51 48 26 bb a9 b4 97 bb
       0.08243483 -0.0037294943 -0.0025372694 -0.0046296907
0001b0 bc 11 25 bf b2 1d 98 3b 6c 6b 65 3c 31 cb 00 3d
       -0.64480186 0.004642212 0.014002662 0.03144378
0001c0 10 90 04 3e a3 4c 05 3e 21 ef 10 3f 70 92 a6 3b
       0.1294558 0.13017516 0.5661488 0.0050833747
0001d0 39 d6 b5 be 77 24 83 be 72 cc 36 3d 7a f4 e2 be
       -0.35515 -0.25613758 0.044628568 -0.44327146
0001e0 f9 76 12 3e ff c1 e4 3c 47 be 3d 3c 7d 1d fe bc
       0.14303197 0.027924536 0.01158101 -0.03101992
0001f0 2c ac fc 3c fd 31 86 3c fb ae d2 3c f3 3f e7 be
       0.030843817 0.016381258 0.025718203 -0.45165977
000200 cf 29 4c 3d 3f 2a c3 be 3f 5f 95 3d 04 c7 b1 3c
       0.04984456 -0.3811817 0.072935574 0.021701343
000210 18 8b d4 3e ec e6 03 3a a2 64 2a 3d 21 37 a9 bc
       0.4151237 0.00050316635 0.041599877 -0.02065617
000220 00 c4 9b 3c 1d 24 3a bd c4 36 8f bc 9b 2b fd bb
       0.019014359 -0.045444597 -0.017482169 -0.0077261454
000230 91 d3 49 bd 34 82 23 bd c8 63 a5 bd 70 16 ea bc
       -0.04927403 -0.039919093 -0.080756724 -0.028575152
000240 c3 f4 d9 3e 10 52 a6 bc e1 d5 7b bc 7d 6f d3 3b
       0.4256955 -0.020302802 -0.015370817 0.0064524994
000250 f0 81 84 bf bc 52 a1 be 09 ba 77 3d 3f d0 4c bc
       -1.0352154 -0.31508434 0.06048015 -0.012500822
000260 36 75 ae 3c ea e3 ba bd c3 d9 c0 3c 03 84 44 3d
       0.021296125 -0.091255024 0.023541337 0.04797746
000270 c3 f0 9c 3d 57 34 7b 3b de 4e 3a 3f be 34 65 bc
       0.07663109 0.0038330758 0.7277659 -0.0139896255
000280 57 ec 8c 3d bc be ac bc 0e 56 89 3c d8 ac a7 bd
       0.06881016 -0.021087043 0.016764667 -0.08187264
000290 f5 ff 28 3d f6 91 95 3d 64 ea 88 bd 64 12 c0 bd
       0.041259725 0.073032305 -0.066853315 -0.09378508
0002a0 bd d1 62 3b c9 04 39 bd 0b f9 da 3c 3a b6 58 3e
       0.0034609877 -0.04517058 0.026730081 0.21163264
0002b0 fa 27 0c 3d c8 4c 1f bd 07 42 cf 3e f0 44 84 bd
       0.034217812 -0.038891584 0.40480062 -0.06458461
0002c0 f9 ce a4 3c 03 74 4b 3d 17 42 bb 3f 23 95 08 bd
       0.020118224 0.049671184 1.4629544 -0.033345353
0002d0 01 5a fd 3b e1 5b 17 bc d0 75 e2 3a 29 12 0c 3e
       0.0077316766 -0.009238214 0.0017277543 0.13678803
0002e0 8e 42 48 3d b5 ed 08 bd 8a 71 05 ba 15 c0 d8 3c
       0.048891596 -0.03342982 -0.0005090466 0.02645878
0002f0 ef e8 d7 bc 9f 3a 29 3e 2c 13 c6 3b 56 bd e7 bc
       -0.026356189 0.16526268 0.006044766 -0.028288525
000300 b5 e2 43 3d bf 85 17 3d 4e 97 c2 3e 64 b6 45 3f
       0.047823627 0.036992785 0.3800606 0.7723143
000310 20 7e 00 bd e6 c9 50 3d 46 da 17 bf e5 da 41 3c
       -0.031370282 0.050973795 -0.59317434 0.011831974
000320 a2 1a 7d bf 76 d8 9e 3c 47 72 a2 bd 90 b7 b4 3a
       -0.98868763 0.019390326 -0.07931953 0.0013787616
000330 b4 52 ef bc 36 69 db 3c 02 70 5e bd 7f e9 4f bc
       -0.02921424 0.026783567 -0.054306038 -0.012689947
000340 85 16 12 bd 2f ab 8a bc d8 59 c6 3d 49 d0 3a 3b
       -0.035666008 -0.01692733 0.09685105 0.0028505495
000350 5c 32 50 bc b6 27 ad 3e be ba 8b 3d 5c c8 ae 3c
       -0.012707319 0.3381936 0.068227276 0.021335773
000360 4c 7e 48 3e 0a ea dd 3d b9 95 9b bc bd 92 bf 3c
       0.19579428 0.10835655 -0.018992292 0.0233854
000370 67 3c 16 3d eb 99 87 3f a4 39 9b be 94 66 9d 3e
       0.036678698 1.0593847 -0.30317414 0.30742323
000380 56 51 2d 3e 19 fe 09 bd a8 a3 bf bc 2f 79 91 be
       0.16925558 -0.033689592 -0.023393467 -0.28412768
000390 6a 53 6f 3e ac bd 86 3d 77 a7 f7 bc 47 c6 de bb
       0.23371664 0.06579146 -0.03023122 -0.006798539
0003a0 13 56 3e 3e 0a 5e ed bc f1 db 2d 3b d6 ff e0 3d
       0.18587522 -0.028975505 0.00265288 0.10986297
0003b0 08 f7 dc bc 46 31 01 3d 6e ae 67 3d 98 92 42 bc
       -0.026973262 0.03154113 0.056562833 -0.011875771
0003c0 a7 5b e4 be 9a b1 37 bf 6a 1e de bd a3 05 31 3c
       -0.44601175 -0.71755373 -0.10845645 0.010804567
0003d0 1f 82 06 3e 43 c9 e3 3e e6 0d 08 3b dd 21 90 3e
       0.13135575 0.44489488 0.0020760237 0.28150836
0003e0 c4 9a 51 3a 3c 10 ed 3e c7 71 07 be 32 61 cf 3b
       0.0007995779 0.46301448 -0.13226996 0.0063287253
0003f0 a8 e3 20 3d ec 15 91 3d 8f be 7a bd 08 9d 47 be
       0.03927961 0.070842594 -0.061216887 -0.19493496

bias f4 [4]
000000 44 f3 00 3f 32 24 0c 3f cb 98 21 3f 1f 8b 4b be
       0.50371194 0.5474273 0.6312377 -0.19877289
