RLSnake/model/snake_model.pth (torch, 22512 bytes, 4 tensors)

weight f4 [256, 14]
0	0xbd39a4be	-0.045323126
1	0xbcc338ed	-0.023830855
2	0x3a4688cd	0.00075734855
3	0xbe8e0755	-0.2773997
4	0xbe613e8f	-0.2199652
5	0xbe98cf89	-0.29845837
6	0xbe258326	-0.1616331
7	0xbe3d0337	-0.18458258
8	0xbd467f63	-0.04846133
9	0xbe12f687	-0.14351855
10	0x3d310113	0.043213915
11	0x3d8cf9b5	0.06883565
12	0xbe711993	-0.23544912
13	0x3d31586e	0.043297224
14	0xbe6bcb1f	-0.23026703
15	0xbdfd91b4	-0.12381306
16	0xbe854af0	-0.26033735
17	0xbe41a786	-0.18911561
18	0xbd5ea5d0	-0.05435735
19	0xbe44a945	-0.19205196
20	0xbe29db4f	-0.16587566
21	0xbdfcf4ef	-0.12351405
22	0xbe349db1	-0.1763828
23	0xbeb2b67d	-0.34904853
24	0x3e27b3ba	0.16377154
25	0x3e1cb89b	0.15304796
26	0x3e0b1581	0.13582422
27	0xbe617a6a	-0.22019354
28	0xbc1e6f30	-0.009670064
29	0x3c6b015f	0.014343589
30	0xbd9a17c5	-0.07524065
31	0xbdf70140	-0.12060785
32	0x3da430e8	0.080171406
33	0xbd5ecfd9	-0.054397438
34	0x3dfdc17a	0.12390418
35	0xbd4a76d8	-0.049429744
36	0x3e8c70da	0.2742985
37	0xbe52b3f8	-0.20576465
38	0x3d2d1b3b	0.042262297
39	0x3d9822a7	0.074284844
40	0x3ece1e59	0.40257528
41	0xbdedfd20	-0.116205454
42	0x3d395b88	0.045253307
43	0xbf3195f5	-0.6936944
44	0x3d84efbf	0.064910404
45	0xbd03cb00	-0.032176018
46	0xbedf5477	-0.4361913
47	0x3e8db6f1	0.27678636
48	0x3e9ca9cf	0.30598304
49	0xbea167cf	-0.31524512
50	0xbd689448	-0.056782037
51	0xbe9119b2	-0.28339916
52	0x3e30de6f	0.17272352
53	0xbdfc97da	-0.12333651
54	0xbe8d64d8	-0.27616
55	0x3d0d29ba	0.03446362
56	0xbe0b06d8	-0.1357683
57	0xbe005ae3	-0.1253467
58	0x3cde6724	0.02714879
59	0x3d206134	0.0391552
60	0x3d914833	0.07093849
61	0x3dbf92ce	0.09354173
62	0xbe338d5c	-0.17534393
63	0xbe858333	-0.2607666
64	0xbeb2959a	-0.34879762
65	0xbe8e3522	-0.27774912
66	0xbe77bac5	-0.2419234
67	0xbe643774	-0.22286779
68	0x3e3fa73b	0.18716137
69	0x3cff864e	0.031191971
70	0xbe061a61	-0.13096
71	0xbe791176	-0.24323067
72	0xbe28f7ae	-0.16500732
73	0xb839c59f	-4.4291486e-05
74	0xbe4382b1	-0.19092824
75	0xbe84a201	-0.2590485
76	0x3e19e7e4	0.15029866
77	0xbdb32a88	-0.087483466
78	0xbe07502d	-0.13214178
79	0x3de3e559	0.11127729
80	0xbe13ed94	-0.14446098
81	0xbe59f414	-0.21284515
82	0x3dfc7eb6	0.12328856
83	0xbe08d2a4	-0.13361603
84	0xbe4d8c06	-0.20072946
85	0xbe28b875	-0.16476615
86	0x3e03b3b9	0.12861528
87	0xbe1549b0	-0.14578891
88	0x3e04f99f	0.12985848
89	0xbe093589	-0.13399328
90	0xbddacec7	-0.10683971
91	0xbcd54c3e	-0.026037332
92	0xbed718e8	-0.4201119
93	0xbdec627b	-0.11542221
94	0x3dacf83a	0.08445783
95	0xbe3b9521	-0.18318607
96	0xbe762dec	-0.24040955
97	0xbe1c0008	-0.15234387
98	0xbdc46592	-0.095896855
99	0xbe4d70be	-0.20062539
100	0xbd55e70e	-0.052222304
101	0x3d52e593	0.05148847
102	0xbd3d0a42	-0.04615236
103	0xbc7dac52	-0.015482979
104	0xbcf55dac	-0.029951893
105	0x3d01c7fc	0.03168486
106	0xbdae553a	-0.085123494
107	0xbe8227d0	-0.25421
108	0x3e330581	0.17482568
109	0xbe968f19	-0.2940605
110	0x3d93b0af	0.07211434
111	0x3d966cec	0.07344994
112	0xbec31121	-0.38099006
113	0xbcd1f3f3	-0.02562902
114	0xbe2d0a97	-0.16898571
115	0xbdbf6aed	-0.09346566
116	0xbdb56c9f	-0.088586085
117	0x3df751c5	0.12076143
118	0xbe306baf	-0.17228578
119	0x3deb94d0	0.11502993
120	0xbe79bf53	-0.2438939
121	0x3c42edaf	0.0118974885
122	0xbea59533	-0.32340392
123	0xbe4e19fb	-0.20127098
124	0x3da567f9	0.08076472
125	0x3d89d4f4	0.06730071
126	0x3d3162e6	0.043307208
127	0xbd9af915	-0.0756704
128	0xbdc7b047	-0.09750419
129	0xbe2d33a2	-0.16914228
130	0xbe3f8e59	-0.18706645
131	0xbeaf421b	-0.34230122
132	0xbd61cee5	-0.05512895
133	0xbd48bdba	-0.049009062
134	0xbd2f3e94	-0.04278429
135	0x3d7ebd19	0.062192056
136	0xbe33c061	-0.17553855
137	0xbe922f14	-0.28551543
138	0x3f7ebb0c	0.9950416
139	0xbe87bbb3	-0.2651039
140	0xbea5ef8a	-0.32409316
141	0x3dc69b45	0.09697584
142	0xbe9524b2	-0.2912956
143	0xbe2e114b	-0.16998784
144	0x3cf991c5	0.030465016
145	0x3e77c454	0.24195987
146	0xbf0260ba	-0.50928843
147	0x3d8447cd	0.064590074
148	0xbdfaded2	-0.12249531
149	0x3e2c1a27	0.16806851
150	0x3e9df95c	0.3085431
151	0xbe8d2b3b	-0.27572045
152	0xbe9f09b8	-0.31062102
153	0xbcdbb0ab	-0.02681764
154	0xbe7a0485	-0.24415787
155	0xbe92b184	-0.2865106
156	0xbc415633	-0.011800337
157	0xbe7006c0	-0.23440075
158	0x3e955015	0.2916266
159	0x3d160224	0.036623135
160	0xbdec9021	-0.11550928
161	0xbd81189a	-0.063035205
162	0x3b7ed56c	0.0038884534
163	0xbec6b3d2	-0.38809067
164	0xbec0e4b4	-0.37674487
165	0x3ed11ada	0.408408
166	0xbde61c62	-0.11235882
167	0xbd3e0442	-0.04639078
168	0xbde4e1a0	-0.11175847
169	0xbde2bccc	-0.110711664
170	0xbd1780d8	-0.03698811
171	0x3cd430a7	0.025902105
172	0xbdeb3eda	-0.11486597
173	0xbe72a032	-0.23693922
174	0x3cb9b4ac	0.022669159
175	0x3d94c386	0.07263856
176	0x3d209368	0.039203078
177	0xbe7d9e10	-0.24767327
178	0xbe3caee6	-0.18426093
179	0x3c8c0566	0.017092418
180	0x3d20a4a5	0.039219517
181	0xbe72daba	-0.2371625
182	0xbdd98cd9	-0.10622568
183	0xbe603cda	-0.21898213
184	0xbdf9e5d9	-0.12202043
185	0xbe132eb5	-0.14373286
186	0xbe670c18	-0.22563207
187	0xbdca8a14	-0.098896176
188	0xbcfa27c8	-0.030536547
189	0x3defb420	0.11704278
190	0xbe19b320	-0.15009737
191	0x3de1f216	0.11032502
192	0xbde34224	-0.110966
193	0x3a027ca7	0.0004977681
194	0xbe3f12b5	-0.1865948
195	0x3dffebd2	0.12496151
196	0xbed2ec0f	-0.41195723
197	0x3e183405	0.14863594
198	0xbe43c389	-0.1911756
199	0xbf1f873b	-0.6231572
200	0xbda8a197	-0.08233946
201	0x3e451412	0.19245937
202	0x3daa1853	0.08305421
203	0xbeafb117	-0.34314796
204	0xbe4e4a30	-0.20145488
205	0xbe6a9fef	-0.22912572
206	0xbe2b2ebb	-0.16717045
207	0x3ee07f3d	0.43847075
208	0x3e1fff55	0.15624745
209	0xbdf4f810	-0.11961377
210	0xbe20d727	-0.15707074
211	0x3e846ac4	0.25862706
212	0xbea45d72	-0.32102543
213	0xbc078282	-0.008270862
214	0xbec06cea	-0.37583095
215	0x3bfac451	0.0076527973
216	0xbe461a66	-0.19346008
217	0x3eb4fe5f	0.3535032
218	0xbe7614a9	-0.24031319
219	0xbd5feaac	-0.05466716
220	0x3e1a57a1	0.1507249
221	0x3e830277	0.25587818
222	0xbdbf284d	-0.09333859
223	0x3e71ede1	0.236259
224	0xbe8ef06c	-0.27917802
225	0xbdd30f61	-0.10305668
226	0x3dd26d4c	0.10274753
227	0xbe50952d	-0.20369406
228	0xbe3357fa	-0.17514029
229	0x3d9aa7f8	0.07551569
230	0x3d709085	0.058731575
231	0xbe433804	-0.19064337
232	0x3e370697	0.17873608
233	0xbd9b41b5	-0.07580892
234	0x3e0f08ee	0.1396825
235	0xbd7ba157	-0.061433163
236	0xbe137146	-0.14398679
237	0xbcad1e3f	-0.021132587
238	0xbd1f4245	-0.03888156
239	0xbe3f5d61	-0.18687965
240	0x3d770b7b	0.060313683
241	0xbbc26d9c	-0.0059334766
242	0xbe771ff6	-0.24133286
243	0x3de52285	0.11188225
244	0xbe40bb05	-0.18821342
245	0xbdb85c8d	-0.09002028
246	0x3d601a56	0.054712616
247	0xbbba4da3	-0.0056855245
248	0xbdef82c1	-0.11694861
249	0x3d26d9df	0.04073512
250	0xbe92a033	-0.28637847
251	0xbdc0c619	-0.09412784
252	0xbe0e0ce9	-0.13872112
253	0xbd95520f	-0.07291042
254	0xbda199e5	-0.07890681
255	0xbe81d82f	-0.25360247

bias f4 [256]
0	0xbdba2d00	-0.09090614
1	0xbcd5fe2a	-0.026122171
2	0xbea9b651	-0.3314691
3	0xbd9b49f1	-0.075824626
4	0xbe393684	-0.18087202
5	0xbea191d6	-0.31556576
6	0xbeb3644c	-0.35037458
7	0xbe6271f5	-0.22113784
8	0xbe95a438	-0.2922685
9	0xbd64f92b	-0.055901688
10	0xbe213b82	-0.15745357
11	0xbe10cb4c	-0.14140052
12	0xbe9240a8	-0.28564954
13	0xbca37434	-0.01995287
14	0xbe48c8ac	-0.196078
15	0xbe5e955f	-0.21736668
16	0xbeb6b3a9	-0.35683945
17	0xbe80cce7	-0.25156328
18	0xbe7f09ff	-0.24906157
19	0x3b88b031	0.0041713943
20	0xbe947622	-0.28996378
21	0x3c282388	0.010262378
22	0xbe827b42	-0.25484663
23	0xbe230992	-0.1592162
24	0xbe9b916c	-0.30384386
25	0xbec8a49e	-0.39188093
26	0xbdf1b00b	-0.11801156
27	0xbe8766a6	-0.26445502
28	0xbcc0de82	-0.0235436
29	0xbe472075	-0.19445975
30	0xbd717126	-0.058945797
31	0xbdc92913	-0.098222874
32	0xbe42f954	-0.19040424
33	0xbec8c5fa	-0.39213544
34	0xbe94fb8b	-0.29098162
35	0xbea6aa84	-0.32551968
36	0xbe3e991e	-0.18613097
37	0x3d4b9eb2	0.04971189
38	0xbb7acf1b	-0.0038270417
39	0xbe36f533	-0.17866974
40	0xbe9679ea	-0.29389888
41	0xbd4d6e77	-0.050154176
42	0xbea7e535	-0.3279206
43	0xbead2331	-0.3381591
44	0xbea9ac8a	-0.3313945
45	0xbec9271f	-0.3928766
46	0xbda8a01b	-0.08233663
47	0xbe5b63d4	-0.214248
48	0xbc0c577f	-0.008565783
49	0xbe913793	-0.28362712
50	0xbf097573	-0.5369484
51	0xbe0f360e	-0.13985464
52	0xbebd8876	-0.37018174
53	0xbe246604	-0.16054541
54	0xbd208722	-0.039191373
55	0xbd86af16	-0.06576364
56	0xbeaec983	-0.34138116
57	0xbe0cc9df	-0.13748883
58	0xbdebf37c	-0.1152105
59	0x3e0833d9	0.13301028
60	0xbecc9dd9	-0.39964178
61	0xbe79a3ab	-0.2437884
62	0xbe4c8f2d	-0.19976492
63	0x3d804a49	0.06264169
64	0xbe21e7b3	-0.15811042
65	0xbe144081	-0.14477731
66	0xbe47fbb0	-0.19529605
67	0xbeb3c421	-0.35110572
68	0xbed22d43	-0.41050157
69	0xbe947d74	-0.29001963
70	0x3d28cd21	0.04121125
71	0xbe9972dd	-0.29970446
72	0xbde03cde	-0.109491095
73	0xbe423e27	-0.18969022
74	0xbda6a9c3	-0.08137848
75	0xbeb4ee34	-0.35337985
76	0xbe3075d1	-0.17232443
77	0xbe5ab292	-0.21357182
78	0xbdfef4e6	-0.124490544
79	0xbdf461c1	-0.119327076
80	0xbd4b9e3b	-0.049711447
81	0x3d2d089f	0.04224455
82	0xbe8884a7	-0.26663706
83	0xbe066578	-0.13124645
84	0xbf06d960	-0.5267544
85	0xbc545d98	-0.012961768
86	0xbeb1c3c4	-0.3471967
87	0xbdcf2eac	-0.10116324
88	0xbea42c4e	-0.32065052
89	0xbcc99879	-0.024608837
90	0xbe914a4e	-0.28377002
91	0x3baba835	0.0052385577
92	0xbe083183	-0.13300137
93	0xbe26a82d	-0.16275091
94	0xbe83400d	-0.25634804
95	0xbd4d0282	-0.05005122
96	0xbe7146a9	-0.23562111
97	0xbc9c58db	-0.019085338
98	0xbe8ffb0d	-0.28121224
99	0x3def160f	0.11674129
100	0xbe076f07	-0.13225947
101	0xbea4fedb	-0.3222569
102	0xbe56e356	-0.2098516
103	0x3e9c60c9	0.3054259
104	0xbeab0f24	-0.3340999
105	0xbe2cf4f6	-0.1689032
106	0xbe8280fa	-0.25489026
107	0xbda1273a	-0.0786881
108	0xbd479505	-0.0487261
109	0xbea4833f	-0.32131383
110	0xbd77019f	-0.06030428
111	0xbe822bd4	-0.25424063
112	0xbdd7cfb8	-0.10537666
113	0xbe95f6f2	-0.29289967
114	0xbe9735fa	-0.29533368
115	0xbdbe313b	-0.09286734
116	0xbe516f2d	-0.20452566
117	0xbe17d77b	-0.14828293
118	0xbe17abb1	-0.14811589
119	0xbea81e8b	-0.32835802
120	0xbe58c18c	-0.21167582
121	0xbe62f965	-0.22165449
122	0xbe94dbed	-0.2907404
123	0xbed8c94c	-0.42341077
124	0xbe9667bd	-0.2937602
125	0xbe337e7d	-0.1752872
126	0xbe085aed	-0.13315935
127	0xbeac70ea	-0.33679897
128	0xbe82ec6d	-0.25571004
129	0xbde6b1d1	-0.112643845
130	0xbe8a81c9	-0.27052143
131	0xbe81c152	-0.25342804
132	0xbee3deb8	-0.44505858
133	0xbea4eecf	-0.32213446
134	0xbda2a004	-0.07940677
135	0xbea0bb6b	-0.3139299
136	0xbea7ea35	-0.32795873
137	0xbe993e53	-0.29930362
138	0xbe097578	-0.13423717
139	0xbeaebe71	-0.3412967
140	0xbdf334e7	-0.11875325
141	0xbd81bf02	-0.0633526
142	0xbdcbc2b3	-0.09949245
143	0xbe1e07c4	-0.1543265
144	0xbe0c3144	-0.13690668
145	0xbe9700d4	-0.2949282
146	0xbd2db6fb	-0.042410832
147	0xbd1df58f	-0.03856426
148	0xbc595b80	-0.013266444
149	0x3cb040b7	0.021515233
150	0xbe12b997	-0.1432861
151	0xbea55f99	-0.32299498
152	0x3e9ac936	0.30231637
153	0x3d7004df	0.058598395
154	0xbb286f80	-0.0025701225
155	0x3c4eb8eb	0.01261733
156	0xbe84c4b9	-0.25931337
157	0x3c9cc50a	0.019136924
158	0x3c1f18fc	0.009710547
159	0xbe8ef191	-0.27918676
160	0xbe8fc7b3	-0.28082046
161	0xbcf167f0	-0.029468507
162	0xbe85508a	-0.2603801
163	0x3de35352	0.110998765
164	0xbe1f00be	-0.15527627
165	0xbd097c84	-0.033566013
166	0xbe262faa	-0.1622912
167	0xbe47b496	-0.19502482
168	0x3e1854e1	0.14876129
169	0xbbdb558e	-0.0066935485
170	0xbe4f2e10	-0.20232415
171	0xbe7a24f9	-0.24428166
172	0x3d86cc76	0.065819666
173	0xbdf9b5f5	-0.12192909
174	0xbdac225b	-0.0840499
175	0xbdd93cac	-0.10607275
176	0xbca54856	-0.020176094
177	0xbc274844	-0.010210101
178	0xbd5feb13	-0.054667544
179	0xbe93ae8e	-0.28844112
180	0xbd66e204	-0.05636789
181	0xbd67624f	-0.05649024
182	0xbe3b2894	-0.18277198
183	0x3c6ee526	0.014581
184	0xbe6e0047	-0.23242293
185	0xbe1defc3	-0.15423493
186	0xbe99a922	-0.3001185
187	0xbc503c0c	-0.012709629
188	0xbe502d21	-0.20329715
189	0xbdb38908	-0.08766371
190	0xbeb9c70d	-0.36284676
191	0xbed4d3fa	-0.41567975
192	0xbea7670b	-0.32695803
193	0xbd07e280	-0.03317499
194	0xbe20b6fd	-0.15694804
195	0x3e391d30	0.1807754
196	0xbeb09dfd	-0.34495535
197	0xbdc1788f	-0.09446823
198	0xbe9073bf	-0.28213307
199	0xbe2ef636	-0.1708611
200	0xbd46f221	-0.048570756
201	0xbe31488b	-0.17312829
202	0xbd5be34f	-0.053683575
203	0xbe82cfb2	-0.25549084
204	0xbe6708f2	-0.22562006
205	0xbe6c3628	-0.23067534
206	0x3e1330a8	0.1437403
207	0xbea262b6	-0.31715935
208	0xbe6893df	-0.22712658
209	0xbecb6ff8	-0.39733863
210	0xbe6edaac	-0.23325604
211	0xbe661bb5	-0.22471507
212	0xbe869395	-0.2628447
213	0x3c7c74c0	0.015408695
214	0x3c755815	0.014974614
215	0xbebaaec0	-0.3646145
216	0xbe26bede	-0.16283748
217	0x3d3d76e7	0.046255972
218	0xbec1876c	-0.3779863
219	0xbe2b0263	-0.16700129
220	0xbdd01c59	-0.10161657
221	0xbe085eab	-0.13317363
222	0xbcfabbc3	-0.03060711
223	0xbe852e36	-0.2601182
224	0xbd1bd415	-0.038044054
225	0xbdc02286	-0.09381585
226	0xbe6d5673	-0.23177509
227	0xbe05f09c	-0.13080066
228	0xbe4597ee	-0.19296238
229	0xbe94eb61	-0.2908583
230	0xbec35130	-0.3814788
231	0xbebd46c1	-0.36968043
232	0xbe87c35f	-0.26516244
233	0xbe5f7335	-0.21821292
234	0xbde85dee	-0.11346041
235	0x3c21c387	0.0098732775
236	0xbe82418c	-0.25440633
237	0xbd26e921	-0.040749673
238	0xbda740c5	-0.08166651
239	0xbe8825dd	-0.26591387
240	0xbe73674e	-0.23769876
241	0xbea135c5	-0.31486335
242	0xbd985b90	-0.07439339
243	0xbed1092d	-0.40827313
244	0xbe865e08	-0.26243615
245	0xbe7d2316	-0.24720415
246	0xbe2dda6d	-0.16977854
247	0xbc28fcf1	-0.010314212
248	0xbcd56c78	-0.026052698
249	0x3d4769b4	0.04868479
250	0xbd98de1f	-0.07464241
251	0xbb0cfe92	-0.002151404
252	0xbf0573ee	-0.5213002
253	0xbdf27ca8	-0.118401825
254	0x3e6e8331	0.23292233
255	0xbe2181e3	-0.15772204

weight f4 [4, 256]
0	0x3b7159f4	0.0036827298
1	0xbd85a22e	-0.06525074
2	0x3e843dfb	0.25828537
3	0x3e818490	0.2529645
4	0xbc0d1acf	-0.008612349
5	0xbc484ab0	-0.012224838
6	0xbe0ef5d4	-0.13960963
7	0xbccf9b47	-0.025342597
8	0x3d768c14	0.060192183
9	0x3e122617	0.14272343
10	0xbd48845c	-0.048954353
11	0xbde49b7c	-0.11162469
12	0x3b08a90c	0.0020852713
13	0xbc2cd59a	-0.010548973
14	0xbdf8834e	-0.121344194
15	0x3f34f403	0.7068483
16	0xbc64eb99	-0.0139721865
17	0xbc156113	-0.009117383
18	0x3ea47e15	0.32127443
19	0xbc97a44d	-0.018510962
20	0x3cac9100	0.021065235
21	0x3cfd31d7	0.030907555
22	0x3e35ecae	0.17766067
23	0x3cec064c	0.028811596
24	0xbdaa085d	-0.083023764
25	0x3bda583d	0.006663351
26	0x3e359fd0	0.17736745
27	0x3c39f275	0.01134931
28	0xbd9bba00	-0.07603836
29	0x3dab4379	0.08362479
30	0x399e83e7	0.00030234383
31	0xbdfa4e98	-0.12222022
32	0xbdc66795	-0.096877255
33	0x3d1dae89	0.038496528
34	0x3d6c2713	0.05765445
35	0x3e387295	0.1801246
36	0xbd9498bf	-0.072556965
37	0xbd8b79c5	-0.06810335
38	0xbd1537b6	-0.036430083
39	0xbd8254aa	-0.06363805
40	0xbcb578de	-0.02215236
41	0xbd98b6b2	-0.07456721
42	0xbb6ca107	-0.0036106722
43	0xbd4cdd70	-0.050015867
44	0xbc4b6855	-0.012415011
45	0x3ea76b69	0.32699135
46	0xbe3b7ab8	-0.18308532
47	0x3b01ffcf	0.0019836312
48	0xbf18f2c0	-0.5974541
49	0x3c393ec5	0.011306469
50	0x3efaed24	0.4900905
51	0x3c7a6cdd	0.015284744
52	0xba4785e4	-0.0007611199
53	0xbd5a7d13	-0.053341936
54	0x3b8e337d	0.004339634
55	0x3d8ee4c9	0.06977231
56	0x3b6561f3	0.003500101
57	0x3accff4f	0.0015640053
58	0xbdf77906	-0.1208363
59	0x3c5962f5	0.013268222
60	0xbe26d694	-0.16292793
61	0xbe72e24b	-0.23719136
62	0xbd37a7c5	-0.044837732
63	0xbdb5c448	-0.08875328
64	0xbddc8a50	-0.107685685
65	0x3e056613	0.1302722
66	0xbd6a7d4a	-0.05724839
67	0x3cec0a18	0.028813407
68	0x3ef54fc4	0.4791242
69	0x3b2080ea	0.0024490901
70	0xbd703409	-0.058643375
71	0xbde12a23	-0.10994365
72	0xbd74e0f3	-0.05978484
73	0xbd3b5924	-0.045739308
74	0x3d616e9a	0.05503712
75	0x3e95b34d	0.29238358
76	0xbcbd8a9f	-0.023137389
77	0x3ce86cd3	0.028372204
78	0xbd2df7b4	-0.042472556
79	0xbe151ec8	-0.14562523
80	0x3e1ae589	0.15126623
81	0x3d0c4a37	0.034250464
82	0x3d83f101	0.06442452
83	0x3de57128	0.112032235
84	0xbd6fe147	-0.05856445
85	0xbdce47af	-0.10072266
86	0xbd0504bb	-0.032475214
87	0x3e0b1572	0.135824
88	0x3e2bc6b7	0.16775022
89	0x3be7fb45	0.007079514
90	0x3c6a6bfc	0.014307972
91	0x3e34b320	0.17646456
92	0xbc1cc8ae	-0.00956933
93	0x3c53446e	0.012894733
94	0xbadb9d83	-0.0016755316
95	0x3caf3aa3	0.021390265
96	0xbc34b741	-0.011030019
97	0x3e346406	0.17616281
98	0x3e94cffd	0.29064932
99	0xbd0a22d0	-0.033724606
100	0x3ddb0c91	0.10695756
101	0x3b93ed99	0.004514408
102	0xbc3e3aee	-0.01161073
103	0x3f0dbae4	0.553633
104	0xbd3ed76f	-0.046592172
105	0x3c6009c4	0.013674203
106	0x3d92fe1b	0.07177373
107	0x3be92b31	0.0071157445
108	0x3c2187d2	0.009859042
109	0xbca22d6b	-0.019797048
110	0xbee915d5	-0.4552447
111	0x3a80c1ca	0.0009823379
112	0x3e864dee	0.2623133
113	0x3c5f85de	0.013642756
114	0xbe136109	-0.14392485
115	0xbd87c413	-0.06629195
116	0x3db07229	0.08615524
117	0xbe169af9	-0.14707555
118	0xbea2feb1	-0.3183494
119	0xbdcac51b	-0.09900876
120	0xb982ea9b	-0.00024970327
121	0xbb7a2131	-0.0038166756
122	0x3cfd4767	0.030917836
123	0xbc65c608	-0.014024265
124	0xbc68b836	-0.014204076
125	0x3cb9b1dc	0.022667818
126	0x3ca3163f	0.019908069
127	0x3d3d36e9	0.046194945
128	0x3bda7bc7	0.0066675874
129	0x3cdbda77	0.02683757
130	0xbd9d1b5f	-0.07671236
131	0x3e3ec01c	0.18627971
132	0x3e486309	0.19569029
133	0x3db52e13	0.088466786
134	0xbd4a7449	-0.049427304
135	0xba6af1e7	-0.0008962438
136	0xbd1610af	-0.036637004
137	0xbe9847e1	-0.2974234
138	0x3da6d34e	0.08145772
139	0x3d7c08e7	0.061531927
140	0x3cadfe44	0.021239407
141	0x3cf5e066	0.030014228
142	0x3e377042	0.17913917
143	0xbdfeffbb	-0.124511205
144	0xbc0ac637	-0.00847011
145	0xbd926c51	-0.07149566
146	0xbc25d15d	-0.010120717
147	0xbc9a3f8a	-0.018829126
148	0xbcbcd25c	-0.023049526
149	0x3c8cdbc9	0.017194645
150	0x3d950172	0.07275666
151	0xbd5244bd	-0.051335085
152	0x3eac174b	0.3361152
153	0x3d0453a1	0.032306317
154	0x3d7e01e6	0.06201353
155	0x3da7f224	0.082004815
156	0x3f34d123	0.7063162
157	0xbe1e775c	-0.1547522
158	0x3e2abf58	0.16674554
159	0xbc45cea4	-0.012073193
160	0x3d06251d	0.032750238
161	0xbbc2473f	-0.0059289034
162	0x3ea9e9dc	0.33186233
163	0xbe90be6a	-0.28270274
164	0xbc09f6f2	-0.008420693
165	0xbd3708da	-0.044686176
166	0xbcadd957	-0.0212218
167	0x3dc3119c	0.09524843
168	0xbe226059	-0.15857066
169	0xbe9e5e1e	-0.3093118
170	0x3dfc649a	0.12323876
171	0x3dd482e0	0.10376525
172	0xbe3ec3ef	-0.1862943
173	0x3e1fd673	0.1560915
174	0x3b526d04	0.0032108435
175	0x3d70f161	0.058823947
176	0xbaaeec31	-0.0013345537
177	0x3e49b2d7	0.19697128
178	0xbc1a5832	-0.009420441
179	0xbbce8121	-0.0063020145
180	0x3e6cbfea	0.23120084
181	0xbe2ef510	-0.17085671
182	0xbd6ac95c	-0.057320938
183	0x3d3d52a9	0.04622141
184	0xbd01beae	-0.031675987
185	0x3dac5c5c	0.08416054
186	0xbc75eb50	-0.015009716
187	0x3af8b04b	0.0018973438
188	0xbbe375a0	-0.006941512
189	0x3cea2bf2	0.028585408
190	0x3eb2088c	0.34772146
191	0xbd365d5b	-0.044522624
192	0x3ce0f5d7	0.027460976
193	0x3e03cc86	0.12870988
194	0xbca4b70d	-0.020106817
195	0xbe9ec095	-0.31006303
196	0xbd7097bf	-0.058738466
197	0xbc48052c	-0.012208264
198	0xbd0d2e7c	-0.03446816
199	0xbd68ba51	-0.05681831
200	0x3d4ad918	0.049523443
201	0x3efe557b	0.4967459
202	0xbd3e657e	-0.04648351
203	0x3f26c25a	0.65140307
204	0x3e7e3600	0.24825287
205	0x3ee97fcb	0.4560531
206	0x3e4a0229	0.19727387
207	0x3cf89dd9	0.030348705
208	0xbd3d6667	-0.046240237
209	0x3d59e972	0.053201146
210	0xba6116a7	-0.00085864443
211	0x3e5d9152	0.21637467
212	0xbd19552b	-0.037434738
213	0x3d00b4f1	0.03142256
214	0x3d2d64dd	0.04233252
215	0x3dc31eef	0.095273845
216	0xbc971e31	-0.018447014
217	0x3ed4c801	0.4155884
218	0x3de7acb0	0.113122344
219	0xbd0506d0	-0.0324772
220	0x3c072bc0	0.008250177
221	0x3d3248be	0.043526404
222	0xbb8a8353	-0.004227081
223	0xbc82422c	-0.015900694
224	0x3c77ae74	0.015117276
225	0xbd24babb	-0.040217143
226	0x3c884472	0.0166342
227	0x3e424c83	0.189745
228	0x3e2ab003	0.16668706
229	0x3e1449a0	0.1448121
230	0x3d90db66	0.07073097
231	0xbe984d6c	-0.29746568
232	0x3ce70bd5	0.028203884
233	0xbe635974	-0.22202092
234	0x3d097894	0.033562258
235	0xbeec7bbe	-0.46188158
236	0x3e0a437b	0.13502304
237	0x3bed6539	0.0072447327
238	0x3b96cda9	0.0046021533
239	0xbce2a55b	-0.027666738
240	0x3d0c4db8	0.034253806
241	0xbc5f2b0b	-0.013621102
242	0x3dba4aaa	0.09096272
243	0xbceec92a	-0.029148657
244	0xbbc476e8	-0.00599562
245	0x3d836604	0.06415942
246	0xbac6a11b	-0.0015154214
247	0x3edd5690	0.43230104
248	0xbd937596	-0.07200162
249	0xbd7cbb1b	-0.061701875
250	0xbe3a23bf	-0.18177699
251	0x3d23038b	0.0397983
252	0x3e1cf274	0.15326864
253	0x3e4b2193	0.19837026
254	0xbe7f52f5	-0.2493399
255	0xbe6ff29a	-0.23432389

bias f4 [4]
0	0xbe2e9110	-0.17047524
1	0xbe7bb7e3	-0.24581866
2	0x3d10f67e	0.035391323
3	0xbe447922	-0.19186834
