RLSnake/model/version1.pth (torch, 302860 bytes, 8 tensors)

weight f4 [128, 63]
-0.091550566 -0.034834877 -0.05155722 -0.09878214 -0.06093869 -0.041491628 0.13482839 0.03782263
0.040274195 0.04665302 -0.18764327 -0.15199423 -0.03399457 -0.058015518 -0.107655264 0.00084742904
0.070539296 -0.02462364 0.06910728 0.020498186 -0.0056562275 0.047983095 -0.09863232 0.08149436
0.029623643 -0.09502074 -0.0675734 0.12585887 -0.12562808 -0.06801918 0.11079413 0.01809083
0.071607575 0.046200648 -0.11200675 0.039272577 0.09747434 0.041074023 -0.045716483 -0.0518995
0.08481875 0.08530061 -0.05323443 0.02599062 0.07453737 -0.03087832 0.06887521 -0.027976789
-0.054030895 0.016471326 -0.07640658 0.015685052 -0.03435321 0.042347312 0.07272038 -0.014047623
0.07636547 -0.078804806 -0.069350116 -0.077310055 -0.12549599 0.11624019 0.03252554 -0.104717515
-0.014482903 -0.019865787 -0.17666 0.0034894526 0.00077272515 0.094115816 0.080625914 -0.0006389883
0.13503388 -0.11856506 -0.02923844 -0.0926605 0.121379375 0.11464873 -0.051827155 0.09344785
0.0286697 0.056865707 -0.09135812 0.04165131 0.031569213 0.023433134 0.015214786 0.0703076
-0.105412096 -0.115506336 -0.017176539 0.07681027 -0.12039188 -0.02336549 0.117390186 -0.09881064
0.122033864 0.036271602 0.0504743 -0.0009034574 -0.0359103 -0.001924588 0.08472401 -0.0007735044
-0.034409545 -0.05609273 0.11499947 0.08873978 -0.053865887 0.014127582 -0.08591288 -0.02994474
0.043122083 0.027135938 0.02764292 0.059001133 0.09456937 -0.08424635 0.07402907 0.092570186
-0.014343016 -0.06364865 -0.124123536 -0.09099293 -0.029541194 0.04340431 -0.006465615 -0.06668796
-0.0016225484 -0.030352918 -0.08507943 -0.08188464 0.009671959 0.020722315 -0.1240054 0.09785296
0.03183067 -0.0124074 -0.0493111 0.022338927 0.10388054 0.02005963 0.072874516 0.113858014
0.07161288 0.11808127 -0.02198112 0.068633914 -0.10340885 0.07565035 0.08556238 -0.026737906
-0.07986544 -0.12540956 0.12151414 -0.018417403 -0.087740034 0.061285228 0.115572065 -0.031236611
0.12072016 0.022380084 -0.08790751 -0.10722841 -0.06617704 -0.023227267 -0.11499354 0.09906112
-0.090663746 0.069466606 -0.08173134 0.10230391 0.047461823 -0.021868326 0.071048856 0.076596394
0.01652141 -0.120278776 0.081328735 0.058863953 0.047627017 -0.05379449 0.09364143 0.039770603
-0.00020979345 -0.10641509 0.09215012 0.07750501 -0.006897025 -0.28030303 -0.11086555 -0.19015282
0.056593064 -0.119355366 0.07687514 -0.14697982 -0.016768442 -0.10894098 -0.031317152 -0.03582553
-0.26288858 0.049381822 0.117724374 0.06656578 0.0009253919 0.06987031 -0.05672814 -0.035190217
-0.007373333 -0.021214642 0.10375798 0.072603494 0.056100518 -0.045604676 0.09955467 -0.09279722
-0.021220185 0.003612116 0.022022694 0.019043356 -0.08538072 -0.07033074 0.12392609 0.0067663193
-0.08765867 0.06286882 0.019121885 0.16620152 0.06867169 -0.12370009 -0.085363194 0.05413565
0.028839692 0.030430123 -0.03279818 0.11144498 -0.044187807 0.0025814623 -0.014453642 -0.02750653
-0.08793415 0.07315983 0.078564435 -0.106816396 -0.08014729 0.059721753 0.004411295 -0.016007327
0.03131683 -0.06531811 0.025763214 0.026141018 0.10015073 0.037151493 -0.112376444 0.118064746
00000000: dd7e bbbd 04af 0ebd aa2d 53bd 4a4e cabd
00000010: d99a 79bd 20f3 29bd 7410 0a3e e7eb 1a3d
00000020: 8ef6 243d 3d17 3f3d 8f25 40be 60a4 1bbe
00000030: e43d 0bbd aea1 6dbd 5d7a dcbd 0026 5e3a
00000040: e876 903d 84b7 c9bc 1e88 8d3d d0eb a73c
00000050: e057 b9bb ec89 443d beff c9bd 84e6 a63d
00000060: 48ad f23c 3c9a c2bd ec63 8abd 26e1 003e
00000070: a6a4 00be a44d 8bbd 08e8 e23d 3833 943c
00000080: fea6 923d e43c 3d3d cc63 e5bd 48dc 203d
00000090: a0a0 c73d 3c3d 283d 3541 3bbd 9294 54bd
000000a0: 74b5 ad3d 16b2 ae3d 580c 5abd 48ea d43c
000000b0: 0ca7 983d 88f4 fcbc 720e 8d3d 942f e5bc
000000c0: 804f 5dbd e0ee 863c 0e7b 9cbd f07d 803c
000000d0: f4b5 0cbd 6074 2d3d 6cee 943d 0028 66bc
000000e0: 8065 9c3d 6a64 a1bd 6f07 8ebd bc54 9ebd
000000f0: 0582 00be 560f ee3d 8039 053d 2376 d6bd
00000100: b349 6dbc 93bd a2bc 5ce6 34be 4daf 643b
00000110: b590 4a3a cbbf c03d 331f a53d c781 27ba
00000120: 5246 0a3e 3dd2 f2bd 7485 efbc cac4 bdbd
00000130: c095 f83d f4cc ea3d b648 54bd 9661 bf3d
00000140: b8dc ea3c 04ec 683d f719 bbbd 909a 2a3d
00000150: b84e 013d d8f6 bf3c 7047 793c 6efd 8f3d
00000160: 4ce2 d7bd 968e ecbd d0b5 8cbc b44e 9d3d
00000170: 0590 f6bd fc68 bfbc 446a f03d 3c5d cabd
00000180: e4ec f93d 8891 143d 24be 4e3d 00d6 6cba
00000190: ae16 13bd 7542 fcba c883 ad3d 00c5 4aba
000001a0: 06f1 0cbd 7ec1 65bd d884 eb3d 34bd b53d
000001b0: 7aa2 5cbd 6077 673c 18f3 afbd ac4e f5bc
000001c0: c8a0 303d 304c de3c 6873 e23c 2cab 713d
000001d0: 96ad c13d 5a89 acbd 8e9c 973d 7095 bd3d
000001e0: f8fe 6abc 395a 82bd 7b34 febd 805a babd
000001f0: 6000 f2bc b8c8 313d 82dd d3bb b293 88bd
00000200: b1ab d4ba afa6 f8bc 203e aebd 22b3 a7bd
00000210: 2377 1e3c d8c1 a93c 8bf6 fdbd 2267 c83d
00000220: e060 023d 6848 4bbc 70fa 49bd 2000 b73c
00000230: 52bf d43d 1854 a43c 3c3f 953d 642e e93d
00000240: c6a9 923d 98d4 f13d c011 b4bc f08f 8c3d
00000250: 05c8 d3bd 92ee 9a3d 543b af3d 7409 dbbc
00000260: 7e90 a3bd 5d6b 00be 68dc f83d 18e0 96bc
00000270: 0cb1 b3bd 3806 7b3d 0cb1 ec3d ece3 ffbc
00000280: 223c f73d 7056 b73c da08 b4bd 929a dbbd
00000290: d487 87bd 1c47 bebc bc81 ebbd 8ee0 ca3d
000002a0: eaad b9bd 8244 8e3d c362 a7bd b684 d13d
000002b0: 5467 423d 3425 b3bc 1082 913d 92de 9c3d
000002c0: e857 873c b854 f6bd ae8f a63d 541b 713d
000002d0: 8c14 433d 9c57 5cbd 14c7 bf3d 80e6 223d
000002e0: 00fc 5bb9 28f0 d9bd 34b9 bc3d f2ba 9e3d
000002f0: 7000 e2bb e183 8fbe 7a0d e3bd 6cb7 42be
00000300: 21ce 673d 9670 f4bd b770 9d3d e181 16be
00000310: f95d 89bc 731c dfbd 6a46 00bd cabd 12bd
00000320: 5599 86be 9844 4a3d 7a19 f13d a453 883d
00000330: 0096 723a 2a18 8f3d c45b 68bd 9e23 10bd
00000340: 009c f1bb 54ca adbc 107f d43d 24b1 943d
00000350: a8c9 653d f8cb 3abd 52e3 cb3d 780c bebd
00000360: f4d5 adbc 40b9 6c3b f068 b43c d000 9c3c
00000370: 16dc aebd 9009 90bd f6cc fd3d 00b8 dd3b
00000380: 6486 b3bd 5ec1 803d 80a5 9c3c bb30 2a3e
00000390: bea3 8c3d 7956 fdbd e6d2 aebd 58bd 5d3d
000003a0: 3841 ec3c 9848 f93c 6257 06bd 443d e43d
000003b0: 46fe 34bd c02d 293b f8ce 6cbc 6055 e1bc
000003c0: d216 b4bd d2d4 953d 64e6 a03d 8ec2 dabd
000003d0: 4324 a4bd cc9e 743d a08c 903b cc21 83bc
000003e0: 1446 003d 80c5 85bd 600d d33c b025 d63c
000003f0: d31b cd3d 2a2c 183d 9f25 e6bd eecb f13d

bias f4 [128]
-0.075746894 -0.1265207 -0.10352702 -0.15466762 -0.2202431 -0.11225041 -0.57836735 -0.2964283
-0.13257478 -0.18662497 -0.0775058 -0.12378187 -0.28998923 -0.2580383 -0.1586683 -0.087064505
-0.12747265 -0.2054306 -0.100840054 -0.112194 -0.43213773 -0.16708471 -0.14187734 -0.34259093
-0.19075054 0.055458363 -0.11132031 -0.080805816 -0.14271773 -0.16871728 -0.04917393 -0.099301815
-0.13692814 -0.10984182 -0.115799375 -0.20005162 -0.13707024 -0.17335694 0.03022265 -0.37270892
0.048232794 -0.13679925 -0.090091005 -0.26483753 -0.10813178 -0.077620536 -0.12142651 -0.062428236
-0.24471804 -0.31824332 -0.06932258 -0.08812395 -0.20734008 -0.23615761 0.019353392 0.39776412
-0.054468542 -0.09397723 -0.20508927 -0.09625637 -0.2327397 0.014674028 -0.2087975 -0.00060823694
-0.08174743 -0.2399641 -0.3442504 -0.22283861 -0.07728636 -0.650477 -0.22238614 -0.19001304
-0.2115534 -0.3874474 -0.21984719 -0.16989373 -0.14683808 -0.041496694 -0.06602448 -0.19037524
-0.18300195 -0.013955264 -0.15622051 0.003122887 -0.0744668 -0.035430506 -0.665951 -0.08809432
-0.053441506 -0.1381993 -0.08407692 -0.48884487 -0.1549692 -0.1660758 -0.17124967 -0.11348711
-0.21951559 -0.39243084 -0.19050625 -0.2763872 -0.21988952 -0.1922212 -0.098925985 -0.08173982
-0.44273165 -0.19911224 -0.152821 -0.24527279 -0.10868981 -0.12146057 -0.110706866 -0.023436112
-0.3455812 -0.13740134 -0.18585935 -0.10642175 -0.024460621 -0.2646519 -0.07555244 -0.39354715
-0.4312075 0.041404247 -0.110734954 -0.27463847 -0.1635607 -0.10386298 -0.22926994 -0.07456915
00000000: 3021 9bbd a48e 01be f905 d4bd 3061 1ebe
00000010: 6887 61be 8be3 e5bd e20f 14bf 73c5 97be
00000020: afc1 07be 9e1a 3fbe 5cbb 9ebd 5981 fdbd
00000030: 7879 94be 991d 84be f179 22be e04e b2bd
00000040: 3188 02be 665c 52be 3b85 cebd f8c5 e5bd
00000050: 2841 ddbe 4118 2bbe 4b48 11be 1468 afbe
00000060: 1c54 43be 4f28 633d e7fb e3bd 857d a5bd
00000070: 9924 12be 39c4 2cbe 9a6a 49bd c05e cbbd
00000080: e436 0cbe c0f4 e0bd 3928 edbd 55da 4cbe
00000090: 245c 0cbe 7b84 31be 7e95 f73c b4d3 bebe
000000a0: c08f 453d 1a15 0cbe a281 b8bd c998 87be
000000b0: 3274 ddbd 84f7 9ebd 76ae f8bd c0b4 7fbd
000000c0: 5e97 7abe caf0 a2be fff8 8dbd 547a b4bd
000000d0: f550 54be 4dd3 71be 018b 9e3c bda7 cb3e
000000e0: 681a 5fbd 2277 c0bd ec02 52be 0f22 c5bd
000000f0: 5153 6ebe 566b 703c 03cf 55be 1772 1fba
00000100: 326b a7bd 26b9 75be 9741 b0be ce2f 64be
00000110: 5048 9ebd a985 26bf 31b9 63be c792 42be
00000120: 74a1 58be 815f c6be 9f1f 61be 9ff8 2dbe
00000130: b95c 16be 70f8 29bd d837 87bd baf1 42be
00000140: dd64 3bbe 9fa4 64bc 45f8 1fbe 5aa9 4c3b
00000150: 0d82 98bd 941f 11bd c47b 2abf cb6a b4bd
00000160: 7be5 5abd 1e84 0dbe 8530 acbd e049 fabe
00000170: 3fb0 1ebe c60f 2abe 135c 2fbe ee6b e8bd
00000180: b2c8 60be b2ec c8be 1214 43be a082 8dbe
00000190: b82a 61be a2d5 44be b599 cabd 3567 a7bd
000001a0: b9ad e2be 14e4 4bbe 1c7d 1cbe ca28 7bbe
000001b0: c398 debd 52c0 f8bd 48ba e2bd 17fd bfbc
000001c0: 05f0 b0be f0b2 0cbe ea51 3ebe a5f3 d9bd
000001d0: a461 c8bc 7480 87be 3dbb 9abd 037f c9be
000001e0: 3bc7 dcbe 8097 293d 02c9 e2bd 6a9d 8cbe
000001f0: 757c 27be 1db6 d4bd bdc5 6abe b6b7 98bd

weight f4 [256, 128]
0.009563591 0.0024292262 -0.04551734 -0.03676414 -0.037850436 0.047873188 0.02427998 -0.041812968
0.049681336 0.06253093 -0.027282467 -0.0075975787 0.02510598 0.07506774 0.06530934 0.019158859
0.04271773 -0.07637358 -0.087466694 0.008668694 -0.060783334 -0.077656366 0.030509654 0.06656674
0.06636089 -0.07975335 0.020164918 0.08583467 -0.026308447 -0.040098116 -0.014325643 0.039090183
0.05025026 0.008498158 0.006169434 -0.09432331 -0.06896585 0.085308015 0.029559573 -0.075268075
-0.026701115 0.07749766 -0.10364591 -0.020904996 0.024182964 -0.022596281 0.013774955 0.07796088
-0.084577635 0.030912356 -0.039613515 0.06454645 0.08503567 -0.10061735 -0.07491017 0.03746311
0.034809463 0.03784174 -0.051845264 0.08192804 -0.023787256 -0.023842704 -0.025388233 0.0775096
0.018789634 -0.050719153 -0.1169051 0.054036982 -0.04807445 -0.03435906 0.022033487 0.036980186
0.007146176 0.034513626 -0.085957386 0.044695698 -0.02542805 -0.08252642 -0.08787854 -0.068300396
-0.07533613 -0.080278344 0.042668108 0.0135849025 0.042520188 0.0057754093 -0.0869765 0.037368413
0.060797017 -0.039835643 -0.07988109 -0.09435726 0.024843253 0.059475444 0.0027807367 -0.00517477
-0.06774627 -0.009838893 -0.06693943 -0.078798756 -0.036175165 0.08518535 0.025464222 -0.03141359
0.06233986 -0.035354733 -0.060448777 0.037745222 -0.013574348 -0.067877136 -0.05220479 0.024735913
0.032853793 -0.018633844 -0.014916705 0.08917038 0.06379241 -0.00062290195 -0.07038566 -0.10185474
-0.08762022 -0.076691054 0.026539655 -0.069726415 0.03537982 0.00048581086 0.0631394 -0.03849398
-0.08581878 -0.06693548 0.06693465 -0.043881666 -0.07662675 0.063432194 -0.22369559 -0.15362175
-0.016681956 -0.063260466 -0.06126583 0.05672162 -0.14951289 -0.057751928 -0.03945376 -0.0881297
-0.059466626 -0.063173056 -0.07798432 -0.008465338 -0.1917755 0.038466766 0.00034422823 -0.22444245
-0.011620108 -0.040847808 -0.17860201 0.0951234 -0.03914434 -0.07114739 -0.048848346 0.00822132
0.06658921 0.03278453 -0.14428821 -0.09739685 -0.018450027 -0.03902552 0.072830945 0.0022880896
-0.044267204 0.016487522 -0.06507058 0.03933106 0.040929653 -0.13333955 -0.14275111 -0.05916898
-0.008091017 -0.16278923 0.0846998 -0.06613933 0.11707093 0.0175644 0.03706799 -0.011480499
-0.021511078 -0.013542547 -0.1381114 -0.022041464 -0.051748898 -0.00809177 -0.047917802 0.024328377
0.040495593 -0.088766105 -0.0339445 0.0050730566 -0.028691318 -0.16997148 0.026111003 -0.046487663
-0.15270996 -0.19622625 -0.048274647 -0.06577079 0.02655691 -0.07719092 0.057230555 0.06002884
-0.14958456 -0.01933583 -0.0063998406 -0.11015288 -0.029588785 -0.03125377 -0.117350005 -0.008495352
-0.04628315 -0.07086178 0.010444418 -0.02293762 -0.10351626 0.03197148 0.05007187 -0.10352617
-0.022189539 -0.000800243 0.09262641 -0.12464769 -0.036384393 0.0075166444 0.010019563 0.097557575
0.00012945851 -0.07784062 -0.035131052 -0.081969075 -0.00020947232 -0.4007299 0.10894636 -0.13112631
0.16117416 0.063648336 -0.0053083748 -0.02958606 -0.054691456 -0.06704759 -0.03577415 -0.037909295
-0.16701035 -0.15651233 0.035591833 0.010020557 0.016969707 -0.06712175 -0.10951251 0.075573795
00000000: 9cb0 1c3c a733 1f3b 6470 3abd ff95 16bd
00000010: 0f09 1bbd ad16 443d cfe6 c63c 1344 2bbd
00000020: a87e 4b3d 3710 803d 7b7f dfbc 1cf5 f8bb
00000030: 0eab cd3c 1ebd 993d e7c0 853d 0af3 9c3c
00000040: c9f8 2e3d c069 9cbd bd21 b3bd 2307 0e3c
00000050: f2f7 78bd 4d0a 9fbd 62ef f93c 2554 883d
00000060: 38e8 873d b955 a3bd e630 a53c 16ca af3d
00000070: d084 d7bc ec3d 24bd 1ab6 6abc 071d 203d
00000080: 37d3 4d3d dc3b 0b3c f728 ca3b 942c c1bd
00000090: f83d 8dbd f8b5 ae3d eb26 f23c 2626 9abd
000000a0: 4cbc dabc 18b7 9e3d 4f44 d4bd f440 abbc
000000b0: 5a1b c63c d61b b9bc 59b0 613c f4a9 9f3d
000000c0: 0a37 adbd e93b fd3c c841 22bd ee30 843d
000000d0: 2e27 ae3d 7810 cebd 816a 99bd eb72 193d
000000e0: 5e94 0e3d f1ff 1a3d b35b 54bd e3c9 a73d
000000f0: 7edd c2bc c651 c3bc fcfa cfbc 5abd 9e3d
00000100: b8ec 993c e3be 4fbd f16b efbd e255 5d3d
00000110: b7e9 44bd 16bc 0cbd 927f b43c 8978 173d
00000120: 782a ea3b 295e 0d3d 6d0a b0bd d612 373d
00000130: 7c4e d0bc 9d03 a9bd aaf9 b3bd 14e1 8bbd
00000140: d449 9abd f968 a4bd c1c4 2e3d 3693 5e3c
00000150: a629 2e3d a53f bd3b bc20 b2bd 9f0f 193d
00000160: 4b06 793d b32a 23bd b298 a3bd 613e c1bd
00000170: 1484 cb3c 869c 733d 053d 363b 1e91 a9bb
00000180: 8ebe 8abd 4f33 21bc 8a17 89bd 3e61 a1bd
00000190: 692c 14bd a875 ae3d 589a d03c 89ab 00bd
000001a0: 1558 7f3d 20d0 10bd 2399 77bd bc9a 1a3d
000001b0: f166 5ebc 2b03 8bbd b1d4 55bd f8a2 ca3c
000001c0: b391 063d 01a6 98bc 3265 74bc f69e b63d
000001d0: 98a5 823d 3e4a 23ba 5b26 90bd 3899 d0bd
000001e0: 3b72 b3bd 3310 9dbd b169 d93c b9cc 8ebd
000001f0: 6eea 103d 6eb4 fe39 3b4f 813d ddab 1dbd
00000200: c2c1 afbd 7815 89bd 0915 893d 43bd 33bd
00000210: 7cee 9cbd bde8 813d 7510 65be 054f 1dbe
00000220: 99a8 88bc b48e 81bd e1f1 7abd ee54 683d
00000230: e819 19be 498d 6cbd 449a 21bd 587d b4bd
00000240: 4793 73bd e060 81bd 3eb6 9fbd 33b2 0abc
00000250: cc60 44be 548f 1d3d 8879 b439 3ed4 65be
00000260: 4462 3ebc 0850 27bd 72e3 36be 0fd0 c23d
00000270: d155 20bd b9b5 91bd 3415 48bd b7b2 063c
00000280: ec5f 883d 1249 063d 4ac0 13be 0078 c7bd
00000290: 8324 97bc 39d9 1fbd 6428 953d c6f3 153b
000002a0: 8751 35bd d710 873c b943 85bd 9b19 213d
000002b0: daa5 273d 2a8a 08be 592d 12be 2c5b 72bd
000002c0: 2f90 04bc 38b2 26be 1777 ad3d 0f74 87bd
000002d0: e2c2 ef3d 37e3 8f3c 9bd4 173d b418 3cbc
000002e0: 0038 b0bc 8fe1 5dbc 136d 0dbe 4d90 b4bc
000002f0: a7f6 53bd 5893 04bc 7545 44bd 4e4c c73c
00000300: b5de 253d 01cb b5bd 6309 0bbd e23b a63b
00000310: 0e0a ebbc 010d 2ebe bee6 d53c d969 3ebd
00000320: 0060 1cbe 89ef 48be a3bb 45bd d6b2 86bd
00000330: e08d d93c 4616 9ebd 966a 6a3d cde0 753d
00000340: b22c 19be 2d66 9ebc c1b5 d1bb d597 e1bd
00000350: 2e64 f2bc f403 00bd 3355 f0bd 1730 0bbc
00000360: 6693 3dbd fb1f 91bd 101f 2b3c ade7 bbbc
00000370: 5500 d4bd 87f4 023d 2918 4d3d 8705 d4bd
00000380: d6c6 b5bc 66c7 51ba eab2 bd3d 4a47 ffbd
00000390: cd07 15bd 2f4e f63b 1829 243c 44cc c73d
000003a0: 41bf 0739 e76a 9fbd 94e5 0fbd 67df a7bd
000003b0: cca5 5bb9 782c cdbe 451f df3d fa45 06be
000003c0: d70a 253e 0f5a 823d e0f1 adbb 775e f2bc
000003d0: 2604 60bd 3f50 89bd ea87 12bd c746 1bbd
000003e0: c304 2bbe c544 20be bec8 113d 432d 243c
000003f0: 0e04 8b3c 2177 89bd 1848 e0bd 6fc6 9a3d

bias f4 [256]
-0.12741295 -0.13129169 -0.10153553 -0.09529511 -0.12712662 0.2499108 -0.13056205 -0.047339164
-0.21360387 -0.03103464 -0.19888124 -0.15734755 0.4557129 -0.3773355 -0.21622747 -0.18000652
0.01692943 -0.16766632 -0.04651599 -0.14493683 -0.08104856 -0.33870387 -0.14963964 -0.43650687
-0.22787477 -0.0318251 -0.124160714 -0.109674506 -0.0440252 0.57317215 -0.44200888 -0.012934566
-0.14061129 -0.17235413 -0.13563584 -0.15487474 -0.111974984 -0.15049426 -0.28069845 -0.065157145
-0.12758996 -0.20283303 -0.35836464 0.12076374 -0.2077632 -0.0822097 0.27027413 -0.14173087
-0.03483938 -0.24306141 -0.13305895 -0.06373886 -0.08358652 -0.4183462 -0.23193972 -0.2058507
-0.31663984 -0.11089142 -0.061499067 -0.17375846 -0.10066516 -0.029016055 -0.10189919 -0.21252094
-0.07910592 -0.13336861 -0.13295652 -0.35445398 -0.36789846 -0.16083516 -0.30392396 -0.24684235
-0.029920863 -0.10792823 -0.14820659 -0.060390778 0.0134080695 -0.020385323 -0.07534964 -0.07964382
-0.2717836 -0.07870999 -0.13957576 -0.20247136 -0.10492395 -0.33246884 -0.14045496 -0.08237162
-0.12004898 -0.14674596 -0.08868962 0.09650205 -0.17959513 -0.029053513 -0.10030044 -0.11914718
-0.38626269 0.29513845 -0.07041834 -0.074261695 -0.14606684 -0.09909418 -0.1978336 -0.39336202
-0.08378642 0.1351613 0.4946477 -0.06832785 0.0010332629 -0.10552588 -0.13569762 -0.06472093
0.15929602 -0.16866349 -0.13539489 -0.32511115 -0.10811913 -0.11637862 0.28907454 -0.2155356
-0.07120736 -0.09002448 -0.3296412 -0.14811662 -0.11611555 -0.12927091 -0.074360095 -0.068661034
-0.59802496 -0.19323035 -0.09004399 0.043390717 -0.119958505 -0.070090175 -0.022095067 0.46053267
-0.11327957 -0.105418704 -0.16168688 -0.34890828 -0.113510855 0.6545719 -0.13576064 0.07088944
-0.11353301 -0.08150411 -0.12442161 -0.18983707 -0.22075234 0.42758387 -0.083397426 -0.1163056
-0.10982697 0.30759084 -0.030487956 -0.076704785 -0.111364655 0.14158167 -0.10443713 -0.47252277
0.0119514605 -0.10070472 0.18387511 0.5341466 -0.14937527 -0.24645026 -0.08563216 -0.093413375
-0.08594976 -0.06837645 -0.053354487 -0.025624916 -0.043754812 -0.07574271 -0.3394875 -0.1298232
-0.35533327 -0.24724348 0.6250484 -0.033226363 -0.2535903 -0.10958629 -0.31020793 0.09182739
-0.12543319 -0.080122605 -0.28817865 -0.37982807 -0.2486457 0.11152516 -0.1472937 -0.22292697
-0.24017198 -0.11502722 0.042542987 -0.028646002 -0.0733177 -0.033868738 -0.109518 -0.505439
-0.30158573 -0.35272884 -0.16146447 -0.0797357 -0.22189069 0.09191269 -0.09733863 -0.090729915
-0.058267612 -0.123358004 -0.21454448 -0.08048976 -0.30049407 -0.18924262 -0.14096755 -0.18090339
-0.26846498 -0.13185179 -0.2744287 -0.25344148 -0.058257543 0.10825523 -0.20163015 -0.122463025
-0.3829735 -0.1321998 -0.19311823 -0.108388074 -0.049352784 -0.15336086 -0.1402081 -0.14337018
-0.1546063 -0.20306331 -0.11414019 -0.10999061 -0.07808764 -0.10297489 -0.15258175 0.05182681
-0.11420473 -0.11581279 -0.41792673 -0.06993972 -0.06864366 -0.2610138 -0.27814922 -0.24411032
-0.05617537 -0.05809173 -0.079794966 -0.12137453 -0.121006675 -0.112805605 -0.09626394 0.0718609
00000000: 8a78 02be 5471 06be dcf1 cfbd 152a c3bd
00000010: 7b2d 02be 9ee8 7f3e 0fb2 05be b6e6 41bd
00000020: f9ba 5abe 5b3c febc 86a7 4bbe b71f 21be
00000030: 3453 e93e 1e32 c1be bc6a 5dbe a153 38be
00000040: 97af 8a3c b8b0 2bbe 8d87 3ebd 526a 14be
00000050: cafc a5bd 986a adbe 223b 19be d47d dfbe
00000060: 0158 69be 095b 02bd f947 febd 079d e0bd
00000070: c553 34bd 69bb 123f fd4e e2be 80eb 53bc
00000080: 68fc 0fbe 9a7d 30be 1fe4 0abe 7c97 1ebe
00000090: 2453 e5bd 2b1b 1abe b5b7 8fbe 1c71 85bd
000000a0: f1a6 02be 76b3 4fbe 927b b7be fb52 f73d
000000b0: e0bf 54be 8f5d a8bd 5f61 8a3e e621 11be
000000c0: bdb3 0ebd 17e5 78be 9b40 08be 8589 82bd
000000d0: 692f abbd 7931 d6be 9b81 6dbe 87ca 52be
000000e0: 9e1e a2be 0a1b e3bd 72e6 7bbd bded 31be
000000f0: 8929 cebd 14b3 edbc 86b0 d0bd 179f 59be
00000100: 4902 a2bd c891 08be c125 08be fe7a b5be
00000110: 305d bcbe f9b1 24be ec9b 9bbe 3ec4 7cbe
00000120: 991c f5bc 7a09 ddbd 78c3 17be 525c 77bd
00000130: 85ad 5b3c 1fff a6bc e950 9abd 4d1c a3bd
00000140: 3827 8bbe b432 a1bd f3ec 0ebe a754 4fbe
00000150: 5ee2 d6bd 5b39 aabe 6dd3 0fbe 74b2 a8bd
00000160: 3ddc f5bd 9344 16be e7a2 b5bd dea2 c53d
00000170: c9e7 37be a201 eebc 516a cdbd 7003 f4bd
00000180: 39c4 c5be 631c 973e 7e37 90bd 8416 98bd
00000190: 8c92 15be e4f1 cabd e494 4abe bf66 c9be
000001a0: 3798 abbd b967 0a3e 7742 fd3e 79ef 8bbd
000001b0: 8d6e 873a f41d d8bd 51f4 0abe 688c 84bd
000001c0: 7f1e 233e 1fb6 2cbe f5a4 0abe f874 a6be
000001d0: 906d ddbd ea57 eebd 9401 943e 5db5 5cbe
000001e0: 2ad5 91bd c15e b8bd bbc6 a8be e2ab 17be
000001f0: fdcd edbd 985f 04be 1b4a 98bd 289e 8cbd
00000200: 2a18 19bf 2dde 45be fc68 b8bd 77ba 313d
00000210: ceac f5bd 708b 8fbd b700 b5bc f0ca eb3e
00000220: 1fff e7bd c3e5 d7bd 3f91 25be 1ba4 b2be
00000230: 6178 e8bd 0692 273f d604 0bbe 7c2e 913d
00000240: ff83 e8bd a0eb a6bd c2d0 febd a664 42be
00000250: e70c 62be 46ec da3e 45cc aabd a131 eebd
00000260: f6ec e0bd 8c7c 9d3e e1c1 f9bc 6617 9dbd
00000270: 2713 e4bd c9fa 103e 22e3 d5bd 81ee f1be
00000280: 0fd0 433c 473e cebd c249 3c3e d5bd 083f
00000290: d5f5 18be 755d 7cbe ea5f afbd 834f bfbd
000002a0: 6e06 b0bd f408 8cbd 3c8a 5abd 58eb d1bc
000002b0: 3f38 33bd fe1e 9bbd 4ed1 adbe 5ff0 04be
000002c0: 3eee b5be 652d 7dbe 2c03 203f 5e18 08bd
000002d0: 96d6 81be c76e e0bd 93d3 9ebe 0010 bc3d
000002e0: 8f71 00be 5217 a4bd 278c 93be d378 c2be
000002f0: fa9c 7ebe 4e67 e43d 29d4 16be f846 64be
00000300: a5ef 75be 6493 ebbd 8e41 2e3d 05ab eabc
00000310: 9727 96bd f2b9 0abd f94a e0bd 7364 01bf
00000320: 7269 9abe e098 b4be f156 25be 784c a3bd
00000330: 5037 63be b83c bc3d 7a59 c7bd 9bd0 b9bd
00000340: 05aa 6ebd 1fa3 fcbd 8cb1 5bbe d1d7 a4bd
00000350: 5cda 99be d1c8 41be cc59 10be bd3e 39be
00000360: 3e74 89be 2804 07be eb81 8cbe 15c3 81be
00000370: 769f 6ebd ebb4 dd3d 2278 4ebe e5cd fabd
00000380: 1a15 c4be 625f 07be c9c0 45be 91fa ddbd
00000390: 2526 4abd a10a 1dbe b692 0fbe a2cf 12be
000003a0: 1d51 1ebe d4ef 4fbe 55c2 e9bd c242 e1bd
000003b0: 6aec 9fbd 80e4 d2bd 643e 1cbe 5948 543d
000003c0: 2be4 e9bd 422f edbd 7efa d5be 8e3c 8fbd
000003d0: 0c95 8cbd 9aa3 85be 9369 8ebe 0ef8 79be
000003e0: 2518 66bd 98f1 6dbd 8b6b a3bd 3693 f8bd
000003f0: 59d2 f7bd a006 e7bd 0726 c5bd cf2b 933d

weight f4 [128, 256]
-0.00073807186 -0.038623966 0.044924982 0.052272316 -0.025190528 -0.12006172 -0.030700644 -0.038005818
0.0117668845 0.017170217 -0.021932837 -0.08720881 -0.454484 -0.1573198 -0.19009076 -0.043476265
0.14324495 -0.20650229 0.008839266 -0.26438636 0.02532028 0.29653323 0.018833762 0.09333458
0.08168719 -0.03310372 0.009138879 0.007747712 -0.043601424 -0.21677338 -0.110042356 -0.021600196
-0.13483623 -0.07726049 -0.034577314 0.021934604 0.025958696 -0.07776233 0.02318688 -0.0010811244
0.017433455 -0.0635945 -0.05843789 0.22092877 0.0077612083 -0.06326411 0.18683037 0.026497431
0.020591369 -0.29952657 -0.10821803 -0.032206055 -0.02648497 0.47967654 -0.0041107642 -0.041366287
0.23173082 0.05802302 0.04750031 0.07173648 0.016624128 0.015234386 0.021763839 -0.42757803
-0.076254226 -0.07202719 -0.009288646 0.0095750475 -0.048494812 -0.020277547 -0.19510953 -0.20913957
0.05781222 0.03334692 0.08057855 0.0011471297 -0.655831 -0.018730404 0.0049160165 -0.030409092
3.843852e-05 -0.0139539 -0.09876099 -0.29280767 -0.012295581 -0.18464467 0.039834224 -0.046514012
-0.047897585 -0.21343285 0.02529786 -0.008482582 -0.032239083 0.015627021 -0.079200454 -0.0029499645
-0.22547154 -1.1938137 0.0597399 0.018666603 -0.03462338 0.018814066 -0.10183308 0.18619616
0.020611778 0.19621998 -0.50387216 -0.083192125 0.29219303 -0.029714677 0.036838174 0.071878344
-0.05151256 0.00046724812 0.103084385 0.9474289 0.040006276 -0.02302376 -0.040637497 0.050598543
-0.0035053391 -0.006285734 -0.43367684 0.064761855 -0.0068189916 0.013000692 -0.053702634 -0.046565294
-0.18773519 0.0046218345 0.06106637 -0.30327842 -0.043852493 0.08442237 -0.06742523 0.15414628
-0.017346151 -0.022408534 -0.03582349 0.41731504 -0.09917111 -0.10231148 -0.031409234 0.045761913
-0.11194765 -0.002103061 0.044330563 0.09378435 0.0016231894 -0.07356993 -0.0065437607 0.038303755
0.07601698 0.02462147 0.018146496 0.054517 -0.32298353 -0.16361777 0.03433425 -0.007227107
-0.0077155195 0.020454813 0.051646996 -0.36849347 -0.0043879054 -0.18141325 0.10137129 -0.06372693
-0.04235391 0.046746656 0.05472717 0.019100523 0.17447604 -0.015936336 -0.016796952 -0.035851583
0.07204223 0.064637065 -0.52595824 0.029795272 -0.04269478 -0.2583811 0.11187893 0.050830554
-0.022236966 0.07335133 -0.008501297 -0.024512429 -0.083700866 -0.34298527 0.039298236 -0.37048438
0.007836955 -0.02713027 0.17026146 0.0013807705 0.04372446 -0.032923475 -0.18965319 -0.09683171
-0.12012008 0.016905576 0.016001664 -0.42234975 -0.03935161 0.2618876 -0.093305394 0.03557639
-0.030549878 -0.055577405 -0.46834716 -0.01725028 0.05540614 -0.28849962 -0.07234612 -0.017967412
-0.2747248 0.6562048 0.025703738 0.18700401 0.018169098 -0.14575791 -0.22703144 0.050178748
0.34502354 5.8121903e-05 -0.1132496 0.000541692 0.07085918 0.07358628 0.0019972122 0.0129983
0.28016105 0.105777554 -0.09510942 0.034949396 -0.052328013 -0.06217758 -0.11246166 -0.12916633
-0.08561871 -0.014209458 0.35547674 -0.0072451346 0.002064097 0.17720723 0.053042613 -0.15163231
-0.060158975 -0.06392793 -0.01658291 0.06221159 0.12521929 0.030418837 0.073306546 0.22686666
00000000: 2a7b 41ba 2a34 1ebd 4203 383d 7f1b 563d
00000010: 5e5c cebc ebe2 f5bd eb7f fbbc fdab 1bbd
00000020: e4c9 403c 8ea8 8c3c 7eac b3bc 889a b2bd
00000030: 20b2 e8be 7118 21be 27a7 42be 2b14 32bd
00000040: ceae 123e 5675 53be 92d2 103c a65d 87be
00000050: 7a6c cf3c 34d3 973e 4349 9a3c 3326 bf3d
00000060: 9d4b a73d c497 07bd 3dbb 153c 85e0 fd3b
00000070: 6897 32bd d7f9 5dbe e35d e1bd e5f2 b0bc
00000080: 8212 0abe bf3a 9ebd f1a0 0dbd 33b0 b33c
00000090: 55a7 d43c db41 9fbd 69f2 bd3c 84b4 8dba
000000a0: 9bd0 8e3c d53d 82bd 925c 6fbd 273b 623e
000000b0: bc51 fe3b 9d90 81bd 7650 3f3e 2411 d93c
000000c0: 3baf a83c 8c5b 99be 6aa1 ddbd 7fea 03bd
000000d0: 02f7 d8bc 2a98 f53e 97b3 86bb b26f 29bd
000000e0: d84a 6d3e 8ca9 6d3d af8f 423d 93ea 923d
000000f0: 532f 883c a599 793c 144a b23c 82eb dabe
00000100: 2d2b 9cbd fe82 93bd 682f 18bc a9e0 1c3c
00000110: 7fa2 46bd 191d a6bc cbca 47be af28 56be
00000120: 82cc 6c3d c896 083d 5e06 a53d 495b 963a
00000130: 8ae4 27bf 8170 99bc 8916 a13b 7d1c f9bc
00000140: 0c39 2138 e69e 64bc 3443 cabd e3ea 95be
00000150: 6873 49bc 7e13 3dbe 3629 233d 7a85 3ebd
00000160: 4230 44bd 248e 5abe 753d cf3c 87fa 0abc
00000170: 210d 04bd 3d04 803c d933 a2bd 3154 41bb
00000180: 03e2 66be e3ce 98bf d3b1 743d b4ea 983c
00000190: 3fd1 0dbd f51f 9a3c dd8d d0bd 35aa 3e3e
000001a0: 08da a83c e4ed 483e c4fd 00bf a260 aabd
000001b0: 539a 953e 326c f3bc a0e3 163d f434 933d
000001c0: d6fe 52bd fbf8 f439 e81d d33d b38a 723f
000001d0: 9fdd 233d 539c bcbc 8173 26bd 6b40 4f3d
000001e0: d5b9 65bb 8ff8 cdbb e40a debe dda1 843d
000001f0: d971 dfbb db00 553c 4bf7 5bbd 40bb 3ebd
00000200: a73d 40be c272 973b bb20 7a3d 4f47 9bbe
00000210: ac9e 33bd a3e5 ac3d 3d16 8abd 86d8 1d3e
00000220: 8419 8ebc 1a92 b7bc a7bb 12bd 51aa d53e
00000230: 391a cbbd ae88 d1bd f8a6 00bd d870 3b3d
00000240: cf44 e5bd 82d3 09bb f793 353d 0212 c03d
00000250: 33c1 d43a d5ab 96bd 0b6d d6bb 66e4 1c3d
00000260: caae 9b3d f7b2 c93c f6a7 943c 384d 5f3d
00000270: 195e a5be 6b8b 27be 12a2 0c3d 5ed1 ecbb
00000280: 78d2 fcbb da90 a73c cd8b 533d 2dab bcbe
00000290: 6bc8 8fbb 65c4 39be c09b cf3d 4483 82bd
000002a0: 4b7b 2dbd 6c79 3f3d 9929 603d b378 9c3c
000002b0: d9a9 323e eb8c 82bc c399 89bc 1cd9 12bd
000002c0: e08a 933d 7060 843d 33a5 06bf 3715 f43c
000002d0: b9e0 2ebd 874a 84be c820 e53d b333 503d
000002e0: 4c2a b6bc 3939 963d 0649 0bbc 4ace c8bc
000002f0: 5c6b abbd c49b afbe 30f7 203d 21b0 bdbe
00000300: 9266 003c 4d40 debc 0559 2e3e f8fa b43a
00000310: 6b18 333d c4da 06bd 7234 42be b44f c6bd
00000320: 8401 f6bd 907d 8a3c ec15 833c 3a3e d8be
00000330: 272f 21bd 2216 863e e616 bfbd 8cb8 113d
00000340: bd43 fabc 22a5 63bd 33cb efbe 7650 8dbc
00000350: 8cf1 623d 39b6 93be 342a 94bd 6530 93bc
00000360: bba8 8cbe 0afd 273f a590 d23c fb7d 3f3e
00000370: 5cd7 943c 9041 15be ee7a 68be 3b88 4d3d
00000380: eda6 b03e ebc7 7338 68ef e7bd 5600 0e3a
00000390: 9e1e 913d 67b4 963d a9e3 023b d2f6 543c
000003a0: 4571 8f3e e7a1 d83d bac8 c2bd 1927 0f3d
000003b0: e655 56bd ebad 7ebd 4c52 e6bd 2e44 04be
000003c0: dd58 afbd c9ce 68bc 0c01 b63e 9868 edbb
000003d0: cd45 073b d075 353e 3643 593d 8045 1bbe
000003e0: 4269 76bd a6ec 82bd e2d8 87bc 95d1 7e3d
000003f0: 7c39 003e ed30 f93c be21 963d bc4f 683e

bias f4 [128]
0.0005767313 -0.12867424 -0.2180539 -0.022954311 -0.050311804 0.09707436 -0.15177335 -0.11193845
-0.06506323 -0.24949138 -0.1434934 -0.07043917 -0.14708653 -0.07621719 -0.28011307 0.020452484
-0.12434064 -0.17738836 0.11669284 -0.03469323 -0.02778201 0.08517936 -0.01139213 0.09084558
-0.04627088 -0.2152976 -0.078481294 -0.10754498 -0.1625168 -0.07722039 -0.078549094 -0.04900656
-0.16559738 -0.06386875 -0.074408725 0.1999009 -0.06448183 0.3103485 -0.053229623 -0.035117757
-0.12699251 -0.040095534 -0.081460156 0.9703385 -0.13773283 -0.07181944 0.055421144 -0.041052952
-0.08277808 -0.06687146 -0.17549592 -0.43418467 -0.16510427 -0.14420965 -0.10196503 -0.15028317
-0.06481192 -0.025578275 -0.019559858 -0.30522203 -0.07441918 -0.025874445 -0.044359453 -0.093928546
-0.12911433 -0.1222039 -0.06363704 0.05478384 -0.14907561 0.17103219 -0.06898298 -0.515852
0.028661648 -0.2708757 -0.09986784 -0.11249986 -0.062329214 -0.024824841 -0.053468257 -0.058200903
-0.10494617 -0.09627033 -0.0062325285 -0.32260156 -0.24447414 -0.053206734 -0.034972996 -0.12534629
-0.11673812 -0.03658694 -0.12793256 -0.27200922 0.015038174 0.49915534 -0.26753244 0.41404536
-0.35003027 -0.059626754 -0.09398621 0.055802856 -0.18547182 -0.08858569 -0.0050761537 -0.09928015
-0.08016251 -0.056020476 -0.07699536 0.26615795 0.06165353 -0.046503834 -0.19804135 -0.024950145
-0.10796295 -0.13701192 -0.1909517 -0.11070847 -0.04876383 -0.07605356 -0.14659505 0.087314256
-0.10394584 -0.17641258 -0.18538882 -0.21618652 -0.01704935 -0.18684435 -0.08429302 -0.17446658
00000000: c82f 173a 2ec3 03be 8649 5fbe ae0a bcbc
00000010: c013 4ebd ecce c63d 796a 1bbe fc3f e5bd
00000020: df3f 85bd ab7a 7fbe efef 12be 6942 90bd
00000030: da9d 16be c217 9cbd fb6a 8fbe f88b a73c
00000040: 4ea6 febd 4ba5 35be a8fc ee3d 7d1a 0ebd
00000050: 1997 e3bc 8472 ae3d 0ea6 3abc 3f0d ba3d
00000060: 8986 3dbd f976 5cbe cdba a0bd 8b40 dcbd
00000070: ce6a 26be b925 9ebd 59de a0bd 1abb 48bd
00000080: 5c92 29be 9fcd 82bd 9a63 98bd d2b2 4c3e
00000090: 0d0f 84bd 00e6 9e3e 4e07 5abd a3d7 0fbd
000000a0: 530a 02be 373b 24bd 95d4 a6bd 1b68 783f
000000b0: d609 0dbe 1216 93bd 4801 633d 2427 28bd
000000c0: 8e87 a9bd e7f3 88bd 34b5 33be 744d debe
000000d0: 1811 29be b2ab 13be 0bd3 d0bd d5e3 19be
000000e0: 1dbc 84bd 8889 d1bc ff3b a0bc 1046 9cbe
000000f0: 1569 98bd a5f6 d3bc 42b2 35bd 9c5d c0bd
00000100: 8c36 04be 0a46 fabd 2354 82bd 0565 603d
00000110: 47a7 18be 1023 2f3e f346 8dbd e00e 04bf
00000120: d5cb ea3c 38b0 8abe 8387 ccbd 5466 e6bd
00000130: eb4c 7fbd 775d cbbc 8801 5bbd 1264 6ebd
00000140: 04ee d6bd 6129 c5bd 3d3a ccbb 082c a5be
00000150: 6e57 7abe 4eef 59bd d83f 0fbd c75a 00be
00000160: 6514 efbd 30dc 15bd c100 03be cb44 8bbe
00000170: ac62 763c 4a91 ff3e 03fa 88be c1fd d33e
00000180: 2b37 b3be 2f3b 74bd d87b c0bd 8991 643d
00000190: 53ec 3dbe 6a6c b5bd dd55 a6bb 6453 cbbd
000001a0: 3e2c a4bd ba75 65bd beaf 9dbd db45 883e
000001b0: 6988 7c3d ce7a 3ebd 5acb 4abe 3f64 ccbc
000001c0: ae1b ddbd da4c 0cbe d888 43be 1fbb e2bd
000001d0: 95bc 47bd f8c1 9bbd 031d 16be d1d1 b23d
000001e0: 8ee1 d4bd 80a5 34be 91d6 3dbe 0060 5dbe
000001f0: 14ab 8bbc 2054 3fbe d2a1 acbd 5ea7 32be

weight f4 [4, 128]
0.1408848 0.16536067 0.025075316 -0.0067830915 -0.08306124 0.10912123 0.07522821 -0.031061824
0.039963655 -0.15013649 0.043164942 0.03341371 0.0864579 0.07216809 -0.017378375 0.25654086
0.09936719 0.015987098 -0.015688185 -0.038440082 0.041099768 -0.061971944 -0.024966396 0.018209571
0.050105922 0.0044323257 0.03340456 -0.07472788 0.04189101 -0.0160467 0.077674255 -0.08572991
-0.038336277 -0.028692774 0.06604311 0.47084704 0.0032544255 -0.08378885 0.18893695 -0.02255491
-0.017561344 -0.0014531 0.006526651 0.45590255 0.071099155 -0.04143915 0.11311057 -0.008089708
-0.10160336 -0.03606412 0.061402645 -0.030635992 0.21358642 0.082239315 0.012088667 0.050280817
0.077007264 -0.024810959 0.46553227 0.022876985 0.0056489403 0.0026485834 0.09990372 0.023954114
0.15533337 -0.0008026738 0.03478103 -0.1411302 -0.10258828 0.019700442 -0.07895978 -0.1738693
0.21075155 0.14790022 0.03187287 -0.01166932 -0.02129506 -0.012159959 -0.077609695 0.022176487
0.008603446 0.1731391 0.00087826495 0.1065961 -0.40300193 -0.04693071 0.017786097 0.07200414
-0.0033800602 -0.1763875 0.36683667 -0.2605127 -0.049509365 -0.5527246 -0.71438444 -0.22683018
0.18160391 -0.102194674 0.045684 0.2181066 0.051933948 0.080460906 -0.025396397 0.061923854
0.10502029 0.029540526 0.040599704 0.7157723 0.29044122 0.16787544 0.038437158 -0.026633669
0.03194551 0.24338219 0.050837148 -0.000714181 -0.09869532 -0.030734256 -0.103127845 0.12276874
-0.076955326 -0.08307728 0.07810112 0.3634235 -0.063386686 -0.07146021 0.016014563 -0.034597415
-0.006736914 -0.004076043 -0.004007733 -0.060843844 -0.04713138 -0.14390573 -0.10484581 0.23533072
0.00011308671 0.33669028 0.026203353 -0.01196627 -0.048469666 0.28469527 -0.0028371187 -0.08337912
-0.0023398458 0.043343056 -0.6049115 0.18036051 0.05068781 0.31831893 0.044497952 -0.0745478
-0.056456257 -0.034213454 0.032084137 0.021507679 0.035157204 0.05070142 -0.005284663 0.11099051
0.060773514 0.04046899 0.068783395 0.020601189 0.032395214 -0.08053516 -0.033043664 0.0055159056
0.051734753 0.03881325 -0.06447601 -0.11461084 0.09959508 -0.09691212 -0.007618172 -0.060048215
0.09319301 -0.029106228 0.10205764 0.008256631 0.033070147 0.059047576 -0.06668984 0.04077828
-0.40186146 -0.050265603 -0.0280216 -0.02397391 0.02334482 -0.04879708 -0.014773497 0.0021237647
0.15167503 -0.012377105 -0.0063237874 -0.002457067 -0.07762618 -0.42393738 0.009960283 0.27012676
0.0034955265 0.23789623 -0.13799977 -0.036469255 0.03242929 0.04688988 -0.08077372 0.019815724
-0.04081655 0.1814078 -0.0015148694 0.008028053 0.31932557 0.04041923 -0.02421646 0.02743125
0.055432 0.13844207 0.025440639 0.15712848 -0.014508626 0.20603135 -0.16401987 0.09302384
0.00034761365 -0.15917484 -0.021831786 -0.0039598155 0.048774246 0.04985636 0.0239966 -0.038849417
0.012762285 -0.0224548 -0.056789923 0.08057674 -0.044850007 -0.08351847 0.18621801 -0.033741523
0.09661519 -0.2882202 0.07387936 0.0063657663 -0.0033660652 0.028551642 -0.04417642 -0.022427065
0.01574481 -0.039472923 0.15738384 -0.1101286 -0.1315189 -0.026309507 0.03929262 0.0029849475
00000000: 1b44 103e 4f54 293e c06a cd3c b244 debb
00000010: 031c aabd f47a df3d 3f11 9a3d 5e75 febc
00000020: eeb0 233d 61bd 19be b9cd 303d d0dc 083d
00000030: d710 b13d ddcc 933d 185d 8ebc 5359 833e
00000040: 0681 cb3d 60f7 823c 8284 80bc 5973 1dbd
00000050: 3b58 283d 4bd6 7dbd 5486 ccbc 3d2c 953c
00000060: de3b 4d3d 0b3d 913b 38d3 083d ee0a 99bd
00000070: e895 2b3d 5e74 83bc ae13 9f3d 2a93 afbd
00000080: 8006 1dbd 1c0d ebbc 9c41 873d dd12 f13e
00000090: 3348 553b 7d99 abbd b078 413e 13c5 b8bc
000000a0: cfdc 8fbc f275 beba 84dd d53b 0f6c e93e
000000b0: 6f9c 913d 19bc 29bd 84a6 e73d b28a 04bc
000000c0: 6c15 d0bd f8b7 13bd 5781 7b3d 55f8 fabc
000000d0: 66b6 5a3e 166d a83d 8b0f 463c 42f3 4d3d
000000e0: fcb5 9d3d 5a40 cbbc 3f5a ee3e 8468 bb3c
000000f0: bf1a b93b db93 2d3b 529a cc3d 6b3b c43c
00000100: b60f 1f3e 876a 52ba 8e76 0e3d 6f84 10be
00000110: ce19 d2bd d262 a13c aab5 a1bd cb0a 32be
00000120: 41cf 573e 2873 173e 208d 023d ad30 3fbc
00000130: fa72 aebc 913a 47bc d5f1 9ebd 77ab b53c
00000140: 78f5 0c3c 604b 313e 5d3b 663a 0e4f da3d
00000150: 4556 cebe 6b3a 40bd 26b4 913c e876 933d
00000160: 0084 5dbb ed9e 34be 04d2 bb3e ec61 85be
00000170: 55ca 4abd 5c7f 0dbf e6e1 36bf 2c46 68be
00000180: 60f6 393e 714b d1bd 251f 3b3d 5657 5f3e
00000190: b1b8 543d b0c8 a43d 1b0c d0bc dea3 7d3d
000001a0: e114 d73d f9fe f13c e04b 263d da3c 373f
000001b0: b6b4 943e 8ae7 2b3e 4870 1d3d da2e dabc
000001c0: 4cd9 023d 2e39 793e 9d3a 503d e037 3bba
000001d0: c620 cabd 68c6 fbbc b134 d3bd 2d6e fb3d
000001e0: c19a 9dbd 6c24 aabd 7bf3 9f3d a512 ba3e
000001f0: e1d0 81bd bb59 92bd f930 833c 05b6 0dbd
00000200: 55c1 dcbb 5490 85bb 4d53 83bb 6537 79bd
00000210: d50c 41bd 065c 13be 66b9 d6bd 89fa 703e
00000220: f728 ed38 ab62 ac3e 6aa8 d63c 2d0e 44bc
00000230: 2188 46bd 94c3 913e f4ee 39bb acc2 aabd
00000240: 1958 19bb 7d88 313d 7bdb 1abf 6db0 383e
00000250: 059e 4f3d b3fa a23e 7c43 363d 84ac 98bd
00000260: ad3e 67bd 6823 0cbd a86a 033d df30 b03c
00000270: 0001 103d 4bac 4f3d f72a adbb fe4e e33d
00000280: a6ed 783d d0c2 253d 4fde 8c3d d3c3 a83c
00000290: d8b0 043d 9eef a4bd cb58 07bd c5be b43b
000002a0: d2e7 533d a4fa 1e3d 000c 84bd 17b9 eabd
000002b0: 81f8 cb3d dd79 c6bd dca1 f9bb 1ef5 75bd
000002c0: fadb be3d 2f70 eebc 9903 d13d d246 073c
000002d0: 9074 073d dfdb 713d af94 88bd 2007 273d
000002e0: c9c0 cdbe 4ee3 4dbd 8e8d e5bc ef64 c4bc
000002f0: a33d bf3c 72df 47bd 8a0c 72bc dc2e 0b3b
00000300: b350 1b3e 57c9 4abc c637 cfbb be06 21bb
00000310: 7afa 9ebd 520e d9be 7430 233c 0e4e 8a3e
00000320: 3415 653b 129b 733e d04f 0dbe c960 15bd
00000330: 93d4 043d 9a0f 403d b16c a5bd 9654 a23c
00000340: 412f 27bd f7c2 393e 958e c6ba 1888 033c
00000350: a47e a33e a28e 253d 9961 c6bc 80b7 e03c
00000360: aa0c 633d c2c3 0d3e e368 d03c 4ae6 203e
00000370: 97b5 6dbc e2f9 523e d3f4 27be 4883 be3d
00000380: ea3f b639 bbfe 22be 93d8 b2bc 57c1 81bb
00000390: 81c7 473d 2f36 4c3d 8594 c43c 9120 1fbd
000003a0: e718 513c 21f3 b7bc 8d9c 68bd 6b05 a53d
000003b0: a4b4 37bd bb0b abbd efaf 3e3e 8d34 0abd
000003c0: 2fde c53d 9991 93be 104e 973d eb97 d03b
000003d0: 3499 5cbb 22e5 e93c 55f2 34bd f7b8 b7bc
000003e0: 43fb 803c 5cae 21bd 3b29 213e 1a8b e1bd
000003f0: e4ac 06be 0987 d7bc 4cf1 203d 1c9f 433b

bias f4 [4]
-0.19564041 -0.46467504 -0.3541144 -0.32406414
00000000: f655 48be e3e9 edbe 7c4e b5be bceb a5be
