RLSnake/model/wariant4.pth (torch, 25682 bytes, 6 tensors)

weight f4 [64, 16]
000000 c2 41 bf bd 0e ef b6 be 56 2a 6b 3f 4c 32 76 be
       -0.09338714 -0.3572926 0.91861475 -0.24042624
000010 6d 71 8c 3f 08 3f 25 bf 64 0f a6 be 48 a5 5a bf
       1.0972115 -0.64549303 -0.32433617 -0.8540845
000020 aa 75 7a bf c2 29 a2 3e a3 79 a3 3e 83 d6 c7 3e
       -0.9783579 0.31672484 0.3192874 0.39030847
000030 84 62 a3 3e 76 60 15 bf f7 1b 17 3f d6 1d 87 be
       0.319111 -0.5835031 0.59027046 -0.2638995
000040 d3 41 7e bf c1 ff 50 be b3 48 71 bf 54 5c 17 bd
       -0.9931919 -0.20410062 -0.94251555 -0.036953285
000050 40 d8 d1 3d 5b bd 9b be d0 e0 1b 3e 7a bd a3 be
       0.102463245 -0.30417904 0.15222478 -0.31980497
000060 7a 03 d6 be 4e 99 e9 bd c0 ec 6f 3d a1 8d 29 bf
       -0.41799527 -0.11406194 0.05857539 -0.66231734
000070 2b a1 09 be 22 e4 19 bf 7f c0 86 bd 0c c8 22 3e
       -0.13440387 -0.6011373 -0.065796845 0.15896624
000080 a0 bf 05 3c a6 3a b9 3b 8b be 85 3c 4a af 7c be
       0.008163363 0.0056527434 0.01632621 -0.24676242
000090 5c c3 b7 b9 d8 8c 70 be 80 41 d9 3c 1b a4 bc 3d
       -0.00035050034 -0.23491228 0.02652049 0.09210988
0000a0 e0 4d da bb c8 2f c2 bc dd d0 0e be 0e 42 39 bd
       -0.0066621155 -0.023704425 -0.13946863 -0.04522901
0000b0 e2 5a 29 be e6 fe c2 3d d5 d4 7e bd 2c 9f 1a 3e
       -0.16538575 0.09521274 -0.06221469 0.15099782
0000c0 b1 5f 98 be 3f 15 8c be 70 5f 78 be fc ff 64 bd
       -0.29760507 -0.2735996 -0.24255157 -0.05590819
0000d0 3c b7 80 be ab 92 ff bd ca e8 93 bc 9d 37 61 be
       -0.25139797 -0.124791466 -0.018055338 -0.21993871
0000e0 05 e2 82 be ca 57 18 be af 21 6a 3e 9b 7c e7 be
       -0.25563064 -0.14877239 0.22864412 -0.45212254
0000f0 06 66 11 be d2 64 bd 3d 99 94 ab be 18 be 32 3d
       -0.14199075 0.092477456 -0.3351181 0.04363832
000100 37 86 66 bd 97 ae 66 be 15 26 a3 bd 4b f2 a2 be
       -0.05628034 -0.22527538 -0.07966248 -0.3182548
000110 62 36 93 be cf 81 8f bd 09 a7 8a bc b7 a1 4f bd
       -0.28752428 -0.07007181 -0.016925352 -0.050691333
000120 d2 77 33 3d 97 23 34 bd d5 59 b9 3c 34 5c 40 3e
       0.04381544 -0.043979254 0.022625843 0.18785173
000130 bd 7e 7e 3e 32 e8 83 be 50 6c 81 3d 6d 44 8e be
       0.24853034 -0.25763088 0.06319487 -0.2778658
000140 1d a0 cb be 07 7c 09 3d ce 6d 0a bf 01 05 c9 3c
       -0.39770594 0.033565547 -0.540738 0.024538519
000150 ea 91 3b be 25 8c da be 56 8d 82 be ee 89 bf 3e
       -0.1831738 -0.42685047 -0.25498456 0.3740992
000160 3b 24 2d be 3f fa 03 3e bf 61 ed be 01 da e2 be
       -0.16908352 0.1288843 -0.46363637 -0.4430695
000170 e3 cb f6 be 1b 06 55 3e 63 f6 a8 be 6e 3a f5 be
       -0.48202428 0.2080311 -0.33000478 -0.4789614
000180 c9 29 0b 3f 22 75 35 3e 73 ea 12 be 5d 56 89 bd
       0.54360634 0.17720464 -0.14347248 -0.067059256
000190 8a 2e 5a bf 6b 37 26 3f bf d9 cb be 64 24 6b bd
       -0.8522726 0.6492831 -0.39814565 -0.05740775
0001a0 41 fd 18 bf d8 4d 64 3d 97 11 ee be 1d 65 3d 3f
       -0.59761435 0.0557383 -0.46497795 0.7398241
0001b0 da ca 9b bf 35 8e 4d 3f a4 a8 3a 3f b6 9b 0b bf
       -1.217128 0.80295116 0.72913575 -0.5453447
0001c0 35 a9 4d 3f ac 15 0f bf 97 86 fe 3c 86 10 73 3e
       0.80336314 -0.55892444 0.031070037 0.23736772
0001d0 31 ea 16 bf 77 c2 70 3f 77 c8 c6 3e 59 ee 29 bf
       -0.589511 0.9404673 0.38824818 -0.66379315
0001e0 b5 fc b6 be 44 2b 7e 3d 44 c4 3b 3e 22 f5 f9 3d
       -0.35739675 0.06205298 0.18336588 0.122049585
0001f0 fa 69 5e be 21 24 9c be 8e 98 88 3e cd fe 84 bf
       -0.21720114 -0.30496314 0.2667889 -1.0390259
000200 42 7f 07 bf a4 73 6f be ea 2d e8 bd 0e cf d8 be
       -0.52928555 -0.23383957 -0.113368824 -0.4234547
000210 ca 3a 85 3c ae 9d de be 72 14 e0 bd 6b 21 a3 3c
       0.016263384 -0.43479675 -0.109414 0.019913396
000220 f2 6d 3b 3d 30 03 62 be 3c 06 83 bd d7 8c ad be
       0.04575915 -0.22071528 -0.063976735 -0.33896515
000230 6e 3f a3 be 23 bc fb be 4a 1a 7e 3d f4 04 ff be
       -0.3188433 -0.49166974 0.06203679 -0.49808466
000240 ce 6e 5f 3d ec c9 d9 be 3f 0f 3c be 06 0e 42 be
       0.05454903 -0.42536867 -0.18365191 -0.18950662
000250 91 21 42 be 37 5c e5 bc 9f 72 47 be 28 70 b3 3d
       -0.18958117 -0.027998073 -0.19477318 0.087616265
000260 1d bc b9 bd d8 02 84 bc 1c f0 eb 3c 8b 5e f7 be
       -0.09069083 -0.016114637 0.028801017 -0.48314318
000270 e3 22 7e 3e 58 24 ea bc 04 9d 1b be e5 53 3f 3e
       0.24817996 -0.028581783 -0.15196615 0.18684347
000280 af e4 21 3f d2 d6 81 3e d8 60 e4 3e 65 b3 1c 3f
       0.6323957 0.25359207 0.44605136 0.61211234
000290 b8 6d 2e be ab e1 14 bf f7 f2 04 3f 6e d3 9e 3e
       -0.17034042 -0.5815684 0.51933235 0.31020683
0002a0 eb fd 93 3d 6b 9f c0 3e d3 e1 8b 3d 53 29 a4 be
       0.072261654 0.37621626 0.06830182 -0.32062778
0002b0 5c bb 4f be bf 71 8e be 38 54 43 bf d6 ab 41 bd
       -0.20286316 -0.27821156 -0.7630038 -0.047283016
0002c0 44 6c 96 bd 55 ba 86 bf 89 c0 5e be ea c7 aa be
       -0.07344869 -1.0525614 -0.21753134 -0.33355647
0002d0 da 62 8d 3d 56 60 b5 be 61 da 8f be 22 c1 7b 3f
       0.0690362 -0.3542506 -0.28096297 0.9834157
0002e0 0d 34 ce be 77 3d 34 be ae 90 29 3d 33 f9 a9 bd
       -0.40274087 -0.17601572 0.041397743 -0.08299484
0002f0 a7 9b 0d bd 8e 93 65 bf 0c e4 d1 3d 7e 89 d9 bd
       -0.03457227 -0.89678276 0.102485746 -0.10621928
000300 b1 ad c7 be cc 97 e6 3e ea 52 71 3e 32 5a 74 bf
       -0.38999704 0.45037687 0.23566785 -0.9545013
000310 a5 78 39 3f cf ea 8a 3d 93 4b 29 bf 2b ec ae 3e
       0.72449714 0.067830674 -0.6613094 0.34164557
000320 4a 04 17 bf b1 dd 1c be 68 9b 25 3e cf 12 e9 bd
       -0.5899092 -0.15318944 0.16172564 -0.113805406
000330 2e 8b 09 bf 76 bc c7 be 6e 0a 57 3f 1f c5 b3 be
       -0.53727996 -0.39010972 0.8400029 -0.3511133
000340 b4 6f 74 3d cf 58 89 3c 4c f6 82 be ec 86 5d be
       0.05967684 0.01676598 -0.25578535 -0.216335
000350 a0 74 75 bd 77 10 82 bd 04 e3 5e be 91 15 c3 bd
       -0.059925675 -0.06350797 -0.21766287 -0.09525598
000360 0f 85 30 3d 3f ff dc 3d fb e1 65 3d 90 84 ce bd
       0.043095645 0.10790872 0.056123715 -0.10083878
000370 f1 e7 f0 3d 68 13 f4 3d 3b 3a 01 3c 5a d9 7a 3d
       0.11762989 0.11917764 0.007887418 0.06124244
000380 f9 04 88 bc 62 93 22 3e 26 fd 8a bd a2 c3 9b be
       -0.016603934 0.15876535 -0.067865655 -0.30422693
000390 b6 8f f7 3d 8d 3c 2c be 0b c2 d6 bb 28 21 19 3b
       0.120879576 -0.16819973 -0.0065538934 0.002336571
0003a0 2d 88 2b bd f8 74 34 be aa 5c 6e bd 78 99 ac bc
       -0.041877914 -0.17622745 -0.05819384 -0.021069273
0003b0 17 71 28 be 00 20 6e be 3d 71 95 bd 2e 27 01 3d
       -0.1644939 -0.23254395 -0.07296989 0.031531505
0003c0 0e bf e3 3e 59 6c 45 bf 9f a6 09 3f 14 85 19 bf
       0.444817 -0.7711845 0.5376987 -0.59968686
0003d0 cf af aa be e3 35 82 ba 4c 87 44 bf a0 8e 1f 3f
       -0.33337256 -0.0009934272 -0.76768947 0.62327003
0003e0 93 27 bd 3e a6 35 35 bf ca 54 90 be 4c 23 09 3d
       0.36944255 -0.70784986 -0.2818969 0.033480927
0003f0 71 9c d3 3e 1a b4 0d bf 3e 97 52 be 40 7e 98 be
       0.41330293 -0.5535294 -0.20565507 -0.2978382

bias f4 [64]
000000 b8 02 fa 3d d8 d2 25 be c0 56 dc be 09 78 d9 3c
       0.1220755 -0.16193712 -0.43034935 0.026546495
000010 0b 60 ae be 84 de 19 be 9c b0 6b 3e d9 c1 14 bc
       -0.3405765 -0.15026289 0.2301659 -0.00907942
000020 0a 1b c1 bd 58 03 da be d2 ba fa 3d 69 2a 00 3d
       -0.094289854 -0.42580676 0.122426644 0.031290445
000030 51 db d6 bc 94 88 92 be 62 6f 2b be 36 6e 1b bf
       -0.026227625 -0.28619826 -0.16741708 -0.60715044
000040 f8 44 73 be a2 8b 94 be 91 2e 2d be c7 5e 41 be
       -0.23756778 -0.2901278 -0.16912295 -0.18883811
000050 bc e0 e0 be a0 b9 09 be b4 f5 7d 3d d8 9d 45 be
       -0.4392146 -0.13449717 0.0620019 -0.19298494
000060 b8 10 b6 bd b5 7d 03 bf 66 a5 db be 7d a8 e4 bd
       -0.088899076 -0.5136369 -0.42899626 -0.11164949
000070 f1 4f e2 bd c7 a6 08 be 02 f9 06 be 83 5a 91 be
       -0.11050404 -0.1334487 -0.13180926 -0.28389367
000080 21 9f 40 be f5 b1 4c be a4 55 c5 3e 14 db 6c be
       -0.18810703 -0.1998976 0.385419 -0.23130447
000090 9b af 65 bd 87 76 c1 bd b8 c1 22 be 86 8a 1d be
       -0.056075674 -0.094464354 -0.1589421 -0.15384874
0000a0 3b c6 ea be 51 d3 bc be c3 ff 7e bd 4f 1f 13 3d
       -0.45854363 -0.36879972 -0.062255632 0.03591853
0000b0 01 27 a1 be 99 38 92 be e0 1b 9b be fe 75 8f bd
       -0.3147507 -0.28558806 -0.30294704 -0.07004927
0000c0 4a ce 19 be a9 01 be be 82 a7 8b 3c 73 c7 e1 be
       -0.150201 -0.37110642 0.017047647 -0.4409748
0000d0 7a 7a df be 2a c0 b0 bd b9 48 04 bf ea 30 a7 be
       -0.4364813 -0.086304024 -0.51673466 -0.32654506
0000e0 70 7c aa 3e 5b 33 34 be 3c e8 20 3c d9 ba 44 bf
       0.33298063 -0.17597716 0.009820994 -0.76847607
0000f0 89 88 95 bd 90 27 7a be 18 bf 40 3e 97 61 3f be
       -0.07301433 -0.24429154 0.18822896 -0.18689571

weight f4 [64, 64]
000000 31 bc 1f bd ff d5 1f bd be b2 9c 3d 2e 52 55 be
       -0.038997833 -0.039022442 0.0765128 -0.2083213
000010 3f b7 6f 3d 28 11 eb 3d 61 65 8c be fd bb 85 be
       0.058524366 0.11477882 -0.27421096 -0.26119986
000020 66 89 2c bd 3a d4 5a bd 3b 7e 50 bd 53 c1 09 be
       -0.04212322 -0.05342505 -0.050901633 -0.13452654
000030 4f 49 6b be 80 be 37 3c 31 a0 5c bd 6f 06 89 be
       -0.22977184 0.011214852 -0.053863708 -0.2676272
000040 e4 bd 52 be c4 e2 5c bd 64 2c e1 3d 4c f3 1d 3e
       -0.2058025 -0.053927198 0.10994795 0.15424842
000050 60 3a ae bd da 7e 2c 3e f7 e4 73 bd 18 df 31 bd
       -0.08507228 0.16845265 -0.05954453 -0.04342565
000060 20 84 c2 3d 2c e8 29 3e 9c 21 ec bc 74 08 ca bd
       0.09497857 0.16592473 -0.02882462 -0.098648936
000070 eb 45 e6 bd a1 1b 92 be e1 57 2e be 19 34 90 be
       -0.112438045 -0.28536704 -0.1702571 -0.28164747
000080 34 84 2b 3e 31 17 27 3c 42 60 47 3b d7 5e ae bd
       0.1674965 0.0101984 0.0030422364 -0.08514183
000090 2e 2f d3 be 22 7f 87 be 70 67 7d 3c 99 7d 3d 3e
       -0.41246933 -0.26464182 0.015466556 0.18504943
0000a0 50 b7 6c 3e a9 8e 64 be f9 d2 89 be 21 dd b1 bd
       0.23116803 -0.22320046 -0.26918772 -0.08684755
0000b0 57 89 3c be 19 a4 7b bb a4 97 08 3d 57 62 76 be
       -0.18411766 -0.003839737 0.03334774 -0.24060951
0000c0 54 62 aa bd 80 9b 75 be 3c 0f 8b be 9a eb a4 bd
       -0.08319536 -0.239851 -0.2716006 -0.0805275
0000d0 69 76 36 be eb 30 8e bd 4e 62 70 3a 46 25 df 3c
       -0.17818607 -0.06942924 0.0009169922 0.027239453
0000e0 40 2a 2d be c7 95 0f 3b ec 80 cc 3d 0f 82 8c 3d
       -0.16910648 0.0021909343 0.099855274 0.06860744
0000f0 fb fe 5d be d8 25 42 3d 7d fd 33 be a5 13 a7 bc
       -0.21679299 0.04739937 -0.17577167 -0.02039511
000100 6b 7f 09 be 28 ee ba bc 66 b1 cf bd 4b 59 62 bd
       -0.13427512 -0.02281864 -0.10141258 -0.055260938
000110 b8 ac 0c bd c0 97 00 bd d9 b4 3f 3c cc 1b 9b bd
       -0.034344405 -0.03139472 0.011700832 -0.07573661
000120 b0 1c f5 3c d0 e3 ca 3d a3 a9 22 3b df 62 09 be
       0.029920906 0.09906733 0.002482035 -0.13416623
000130 37 0f 01 bd 80 68 53 bc 5c 10 a1 3d 66 58 12 be
       -0.03150865 -0.012903333 0.078644484 -0.14291534
000140 cf 3f 1d bc 7d d9 64 bd f4 7b 68 bd f5 2e b3 bd
       -0.009597733 -0.055871475 -0.056758836 -0.08749191
000150 95 30 19 be e8 3f 18 bd 8c e6 98 bd dd 7b 74 3d
       -0.14959939 -0.03717032 -0.07465848 0.059688438
000160 38 5b cb bd bc 99 ff 3d dc 12 df bd 01 84 ba bb
       -0.09929508 0.124804944 -0.10892269 -0.0056920056
000170 30 c3 ce 3c 19 0e 39 bd 03 cf 17 bd 06 4b 3b 3d
       0.025239557 -0.04517946 -0.037062656 0.045725845
000180 54 05 20 bc c8 59 e2 3c 93 2a 80 3d da 68 82 3d
       -0.009766895 0.027630702 0.062581204 0.06367655
000190 82 8c 8f bd 48 5d d2 bd 90 0f 16 3d e8 59 76 3d
       -0.070092216 -0.10271698 0.036635935 0.060144335
0001a0 00 3f 96 3b 34 8f 45 3d 9e 15 af bd 33 35 3b bc
       0.004585147 0.048232272 -0.08549045 -0.011426258
0001b0 13 82 86 3d 1e 4d f1 bd 96 3e f7 3d 3d 27 41 3c
       0.065677784 -0.11782287 0.12072484 0.01178914
0001c0 fc d0 19 3d a5 b7 2d bd 52 ec 9f bd 1e cb cc bd
       0.03755282 -0.042411465 -0.078087464 -0.09999679
0001d0 30 59 97 bd 79 49 0e be 3a 91 87 3d 28 d3 70 bd
       -0.07390058 -0.13895215 0.06619497 -0.058795124
0001e0 08 d1 e1 bd 92 b3 ef bd 87 c2 04 be 47 2d 29 3d
       -0.11026198 -0.11704172 -0.12964831 0.041302945
0001f0 35 c5 4e 3c f4 2f 86 3b d3 b5 0d be 10 bd 51 3d
       0.01262026 0.004095072 -0.13838892 0.051205695
000200 1f e7 13 bd 57 9b c0 bd 0c 22 03 be 3a 5f 76 be
       -0.036109086 -0.09404629 -0.12805957 -0.24059764
000210 bf 23 6e 3e c1 a8 8e be 5a 84 40 3e fe 2f 7e be
       0.23255824 -0.27863124 0.18800488 -0.24822995
000220 89 b4 2e 3e 85 17 4c 3e 2a 44 01 be 7b d7 af 3c
       0.17061056 0.19930847 -0.12623659 0.021465054
000230 27 dc d9 3d c0 ca 12 bd 6d e8 9a bd 7d 73 f9 3e
       0.10637694 -0.03583789 -0.07563863 0.48720923
000240 8c 7e 88 be c5 a6 e9 bd 58 8a 3c 3e 24 18 48 3d
       -0.26659048 -0.11408762 0.18412149 0.048851147
000250 8d c6 03 bf 8d e7 b0 3e ca 53 23 3f d5 00 55 be
       -0.5147484 0.3455166 0.63799727 -0.20801099
000260 78 9b 7e be 7d 52 4f 3d 6d 14 95 be bf d8 ae 3e
       -0.24863994 0.050615776 -0.29117146 0.3414974
000270 9e 7f 2a 3f 12 a1 88 3e 30 9d a5 3d e9 b1 7c bd
       0.6660098 0.26685387 0.08086622 -0.061693106
000280 18 1c c3 3e b2 e5 88 3e 01 43 18 be d6 98 fb be
       0.3810737 0.26737744 -0.1486931 -0.49140042
000290 b2 57 9c 3e 56 69 4c 3e 90 aa 19 bd 2d bd bb 3d
       0.30535656 0.19962057 -0.037516177 0.09166942
0002a0 40 3d 51 be 56 92 00 3e f9 dd 38 bd 38 d3 24 3a
       -0.20433521 0.12555823 -0.045133565 0.00062875776
0002b0 f9 d0 ff 3c 2e 3c d6 3b 6c f3 a2 3c e6 b0 2f 3e
       0.031227576 0.0065379357 0.019891463 0.17157325
0002c0 ee 84 ef be 39 15 14 3f 5f ee 0b 3e 02 a1 ae 3e
       -0.46781105 0.57844883 0.1366515 0.34107214
0002d0 0f 6b 09 3f f2 49 72 be 1c a3 04 3e 98 10 d9 bd
       0.53678983 -0.2366102 0.12952846 -0.10598868
0002e0 f8 75 f3 be 72 44 49 bd 2f bb 3c bf 4a 9e 8e 3e
       -0.4755094 -0.04913754 -0.7372312 0.2785514
0002f0 26 89 97 be 4d 3d f8 bc f1 ed 66 be d9 e2 30 be
       -0.29596823 -0.030302668 -0.22551705 -0.17274036
000300 bf 97 80 3e fc 22 92 be e4 7b cb bd 83 4b e2 3a
       0.25115773 -0.28542316 -0.0993574 0.0017264936
000310 f8 21 d7 3d b0 b6 c6 3e 93 61 0b 3f 86 be 30 3f
       0.10504526 0.38811255 0.5444576 0.69040716
000320 03 91 0d be b7 3d a5 3d ed b4 49 be 4e 02 83 be
       -0.13824849 0.08068412 -0.19697924 -0.25587696
000330 f0 57 7d bf aa 84 10 bc c1 93 85 3d 11 75 8f 3e
       -0.98962307 -0.008820692 0.065223224 0.28019002
000340 ca e9 61 be 63 4c 3a 3d 44 d5 94 3d 7b 4d 5a 3c
       -0.2206184 0.045483004 0.0726724 0.013324137
000350 40 18 15 bf 43 0a b2 be 9e 19 12 be af 9c b4 3e
       -0.5824013 -0.34773454 -0.14267585 0.3527579
000360 02 79 82 3f 9d 93 c1 3e b5 d5 c7 bd b3 9b 9b 3d
       1.0193179 0.37807932 -0.09757558 0.07598057
000370 b0 2b 15 3f 1f 18 b9 3d 10 a4 28 3e 94 1d 13 3f
       0.58269787 0.09037804 0.16468835 0.5746701
000380 90 00 8f 3e d3 03 1e bf 11 21 29 be c5 4a 5a 3d
       0.27930117 -0.61724585 -0.1651652 0.053293962
000390 96 00 d2 bd a1 5f 0a bf ba b3 bd bd 06 a8 b8 bd
       -0.10254018 -0.5405217 -0.09262796 -0.09016423
0003a0 d1 f4 4b 3e c0 1c 67 3e 2e 86 e0 bd cf 91 03 3d
       0.19917609 0.22569561 -0.10963093 0.032121476
0003b0 17 f9 58 3e f6 26 f4 bc 66 57 c2 3c 7f 0a d3 3e
       0.2118877 -0.029803734 0.023723315 0.41218945
0003c0 dd 44 79 3e ee 84 5c bd 53 c2 16 bf f9 21 07 bf
       0.24342676 -0.05383771 -0.58890265 -0.52786213
0003d0 71 b6 26 3e 44 36 9c 3e f2 2f 97 be 7f c8 82 bd
       0.16280533 0.3051015 -0.29528767 -0.06385898
0003e0 83 0f a2 be e4 cc 3a be b1 77 82 be 79 25 1b 3f
       -0.3165246 -0.18242222 -0.25481942 0.60604054
0003f0 c9 f1 81 bd 33 4f a7 3e e5 31 94 be a1 88 2d 3e
       -0.06344945 0.32677612 -0.28944317 0.16946651

bias f4 [64]
000000 37 75 36 be 60 9c 34 be a2 69 b7 be 91 38 0e 3e
       -0.17818151 -0.17637777 -0.3582278 0.13888766
000010 3c eb 96 be 29 42 6b bd 6d 59 90 bd e9 55 62 be
       -0.29476345 -0.057436142 -0.070483066 -0.22103085
000020 37 66 ad 3e 99 87 63 bd d4 05 ad bd 36 cd e5 bd
       0.33867046 -0.055549238 -0.08448377 -0.112207815
000030 16 ef b8 be 55 a5 21 be 16 71 52 bd ef a2 23 be
       -0.36119908 -0.15785725 -0.05137738 -0.15980123
000040 79 32 75 bd 98 7d 73 be aa 20 31 bd 6b b8 2c 3f
       -0.059862588 -0.23778379 -0.04324404 0.674689
000050 66 1e 37 be 3f 61 74 be 28 cb 72 be 14 e1 ac be
       -0.1788269 -0.23865221 -0.2371031 -0.3376547
000060 12 cc 49 be de 68 83 be 0b 18 1e be 26 aa b6 bd
       -0.19706753 -0.25665945 -0.15438859 -0.08919172
000070 d6 83 06 3d 48 8b 91 be 81 3d 89 be fd 8a 82 bd
       0.032840572 -0.28426576 -0.26804736 -0.06374166
000080 fd 01 03 be a2 1c 58 be 91 de 11 be 8e 6f 28 3f
       -0.12793727 -0.21104673 -0.14245059 0.6579522
000090 2c 56 ac be 3c 91 7a bc 60 08 83 be cb 72 a4 be
       -0.33659494 -0.015293416 -0.25592327 -0.3211883
0000a0 6c b6 04 3e e4 1e a4 be 32 1c 30 3e 82 82 90 be
       0.12960213 -0.32054818 0.17198256 -0.2822457
0000b0 a4 51 10 3e cb 42 c9 3c 49 a4 0b be 60 5d 6f bd
       0.14093643 0.024567982 -0.13636889 -0.05843866
0000c0 78 0c 98 be d2 0c d0 be 8f fa bd bd c4 81 23 be
       -0.29697013 -0.4063478 -0.09276306 -0.1596747
0000d0 76 4f cf bd 56 66 00 be 66 d8 8f be b2 25 98 3e
       -0.10122578 -0.12539038 -0.28094786 0.2971626
0000e0 66 79 36 be f8 41 4c be 35 aa c2 be b4 28 fa be
       -0.17819747 -0.1994704 -0.38020483 -0.4885918
0000f0 36 dd 50 be 31 16 bf bd ab 29 c9 bd c1 88 7f be
       -0.20396885 -0.093304045 -0.09822401 -0.24954511

weight f4 [4, 64]
000000 84 c5 1c 3e 02 60 f4 bd 16 07 44 be 8e f8 5f 3e
       0.15309721 -0.119323745 -0.19143328 0.2187216
000010 77 4a 0e 3f 20 c8 fc 3a a2 2e 49 3e 6e 76 ca bc
       0.55582374 0.0019285716 0.19646695 -0.024714675
000020 e1 f9 b6 bd c2 2f ab 3d 1f 56 2e 3c 4b c6 19 3b
       -0.08934379 0.083587185 0.01064065 0.002346414
000030 6c 93 87 3d 79 b3 b7 3d 3e fe 34 bd 98 ba 23 3d
       0.06619915 0.089697786 -0.044187777 0.03997287
000040 55 e6 a0 bd e4 fd 34 3e 1e fa 28 be d3 7b 3a be
       -0.07856432 0.17674977 -0.16501662 -0.18211298
000050 14 54 d7 3d 3e fe b1 bd a8 80 d0 3d 42 28 16 bd
       0.105140835 -0.08691071 0.10180789 -0.036659487
000060 4e 8f ae 3e 92 11 9d 3c 17 2d 65 bc 25 7e 08 3e
       0.34093708 0.019173417 -0.013987801 0.1332937
000070 2c 96 37 3e b8 f9 15 3c 7f 28 69 bc 8c d1 81 bc
       0.1792838 0.009153776 -0.014230846 -0.01584699
000080 af b4 7d bd 58 b4 6b be cb ae 96 bc 54 69 71 be
       -0.06193989 -0.23018014 -0.018393895 -0.23575336
000090 7c bb 82 bd 3a 14 e2 bb b7 1a 29 be 5c f0 ec be
       -0.06383416 -0.006899384 -0.16514097 -0.4627713
0000a0 78 90 fe bd ee 3e 6a bc 38 a5 1e be 51 56 e5 3c
       -0.12429899 -0.01429723 -0.15492713 0.02799526
0000b0 23 84 39 3e 0e d2 31 3f 65 37 91 3c e7 fe 05 3e
       0.18116812 0.69461143 0.01772661 0.13085519
0000c0 11 42 f7 3d 92 81 8d 3c 37 19 6e 3e 5e 2d 1e 3d
       0.12073148 0.017273698 0.23251806 0.038617484
0000d0 b4 0e 4d 3d 0c d7 df 3b 8d ff 34 3c dc ce ac bd
       0.05006285 0.0068310555 0.011047256 -0.08437893
0000e0 12 50 25 3d 22 ed 53 3e 28 98 85 3e 6b da 53 be
       0.040359564 0.20695928 0.26092649 -0.20688789
0000f0 14 30 15 be c0 8d 0b bc 57 1b 59 3d 24 77 fc 3d
       -0.14569122 -0.008517683 0.05300459 0.12327412
000100 17 d6 ea 3e 6c 08 b0 bd bd 0b 13 bd 22 47 bc bd
       0.45866463 -0.08595356 -0.035899866 -0.09193255
000110 f8 13 41 3e 1a bc ea 3c 51 47 5b 3e 99 81 b9 bd
       0.18855274 0.028654147 0.21413924 -0.09057922
000120 26 a5 7f be 11 8e db bc 3b 54 81 3c 21 d1 c0 bc
       -0.24965343 -0.026801141 0.015787235 -0.02353722
000130 74 81 d2 3e 1f 90 b5 bd 9d f5 50 bd 36 fe 40 bd
       0.4111439 -0.088653795 -0.051015485 -0.047117434
000140 2a d0 bd 3d 07 f3 12 3d a4 7b 30 3e c9 bb 5c 3e
       0.0926822 0.0358763 0.17234665 0.2155601
000150 08 7b 88 3d 98 bf 16 3d cf 12 b8 bc 1d 86 4f 3b
       0.06664091 0.03680381 -0.022469906 0.003166563
000160 05 e0 f3 3e d7 13 fb 3d 27 d6 c1 3c 77 3c e8 bd
       0.4763185 0.122596435 0.023661686 -0.11339658
000170 b6 cd f1 3e 81 45 1a bc f8 c7 d8 3d 99 e0 b8 bd
       0.47227257 -0.009415985 0.10585016 -0.090272136
000180 e8 d3 ad 3c 6c e6 20 3f 1e f4 2c be 93 1a 58 be
       0.021219209 0.62851596 -0.16889998 -0.21103887
000190 7d 13 93 3d c9 ca c0 be 02 28 d3 bb f8 44 90 bd
       0.071814515 -0.37654713 -0.0064439783 -0.07044405
0001a0 fa 36 30 be 98 e4 f4 3e 4b e5 3f bd b3 12 81 3d
       -0.17208472 0.47830653 -0.04684953 0.06302395
0001b0 ca 46 7d 3e 4e d3 93 3e f0 ae 15 bc 44 7c 85 3a
       0.24734035 0.2887215 -0.009135947 0.0010184129
0001c0 37 2a 33 3e 75 17 9e 3c d5 9e 56 be 02 06 08 3c
       0.17496572 0.019298295 -0.20959027 0.008302214
0001d0 3f 3e 5d 3c 7d d5 00 bf d4 18 ec 3d 14 15 22 bd
       0.01350361 -0.5032576 0.11528173 -0.039570883
0001e0 02 17 7d 3d 74 a9 0c be e0 8b cc 3d e2 29 1d 3f
       0.06178952 -0.13736516 0.099876165 0.61392033
0001f0 64 dc 0f 3c 36 88 97 bc 19 2b 50 3c cd 30 dc 3d
       0.008780573 -0.018497568 0.012705588 0.107514955
000200 2a a7 22 3d 33 bc bc bd 38 92 20 3d 2b 4e 0a bd
       0.0397102 -0.09215584 0.039201945 -0.033765953
000210 b3 77 98 3a bb 80 73 3c 44 5d 86 3e bd f8 2a 3c
       0.0011632353 0.014862235 0.2624303 0.01043528
000220 28 86 99 3e df ec e7 bd 92 fc a6 3b d3 ed f1 3d
       0.29985166 -0.113244765 0.0050960267 0.118129395
000230 5e 67 6f 3e 7d 92 26 bd 68 27 37 3c bc 6e d3 bd
       0.23379275 -0.040667046 0.011178829 -0.10323855
000240 e6 a8 80 3b 2f 82 e7 3c ed 24 d9 3d f8 da 3d 3e
       0.0039263843 0.028260319 0.10602746 0.18540561
000250 86 6a be bd 00 c1 9d 3e df b4 c9 bc 24 03 1e be
       -0.092976615 0.3081131 -0.024622379 -0.15430886
000260 ca 51 e3 bc b4 75 01 3d 00 13 cd 3c 4a f2 aa bc
       -0.027748961 0.03160639 0.025033474 -0.020867486
000270 4a 62 f0 3d 5a e9 6a bd 9d 54 48 3c 26 92 12 3d
       0.11737497 -0.057351448 0.012227205 0.03578391
000280 ab 60 57 3d 64 8a 1f 3e 09 31 06 38 71 f5 fe bd
       0.052582424 0.15580136 3.1993757e-05 -0.12449158
000290 13 d6 1b bd 89 b4 ab bd 6e 0d fe 3d dd cc 55 3e
       -0.038045954 -0.08384044 0.12404905 0.2087893
0002a0 f0 ef a6 bd 55 a5 1a 3c 35 e3 da bd 56 b1 fc bd
       -0.08151233 0.009438832 -0.106878676 -0.12338512
0002b0 40 59 90 3e 48 2e d2 be 01 50 54 3d 67 9c 7b bb
       0.28193092 -0.41050935 0.05183411 -0.0038392784
0002c0 54 0c 0d 3e d9 7f 68 3f 37 c7 af bb 7a cd f8 3c
       0.13774234 0.9082008 -0.0053643244 0.030371416
0002d0 87 a4 50 be 26 e9 b4 3c 3f 49 13 bd 5a df 27 be
       -0.20375262 0.02208383 -0.035958525 -0.16393796
0002e0 d3 41 88 bc 67 b1 28 3e 53 51 eb 3d 0d 13 bd 3d
       -0.01663295 0.16473924 0.11490121 0.09232149
0002f0 14 08 7e bb e9 ea 2b 3c d6 65 42 3d e5 b6 81 3d
       -0.003876214 0.010493019 0.0474604 0.063337125
000300 d2 66 98 3c 0c 86 45 bd 80 16 88 3e d0 d4 92 be
       0.018603716 -0.04822354 0.26579666 -0.28677988
000310 1f 6c ce bb a2 e3 a6 3d 50 63 4b 3d e6 35 c8 bc
       -0.00629951 0.08148886 0.04965526 -0.024439763
000320 4f a7 86 bd 1f f0 92 3d 61 01 eb 3d cc a9 85 3d
       -0.0657488 0.07174706 0.114748724 0.06526527
000330 c4 e1 73 3e 9d 6a 31 3d 76 61 a6 bd 14 61 02 3d
       0.23816592 0.043314565 -0.08124058 0.031830862
000340 be 83 8a 3d e6 0f 3e bc 6a 7a bc 3c a1 ca f8 38
       0.06763409 -0.01160047 0.02300759 0.00011863304
000350 33 fc c7 3c e7 e4 fa 3d 0f 3f 32 3e 5d 5c 5e 3b
       0.02441225 0.12250691 0.17406867 0.0033929565
000360 3d 43 27 3b b2 3d 42 bf 8b 0e 3d 3e 28 9c 86 bc
       0.0025522255 -0.7587539 0.18462579 -0.016431883
000370 3f 25 e1 3d 70 fa 34 be a7 68 91 be d5 09 f6 bc
       0.10993432 -0.1767366 -0.28400156 -0.030033985
000380 92 5b 77 3d b8 92 a5 3c 40 65 74 bd 27 97 f7 3c
       0.060390063 0.020211563 -0.059666872 0.030223442
000390 0e e5 c1 3d d1 ad 05 3e 46 ef c5 bd c2 e7 ed 3e
       0.09467517 0.13054587 -0.096647784 0.4646588
0003a0 e3 53 19 be 71 f1 f8 3e 8e 13 97 be b0 ac 13 3e
       -0.14973406 0.48621705 -0.29507107 0.14421344
0003b0 74 e5 83 bc bf db 96 3e e5 2e c3 bb 3c 72 aa 3d
       -0.016100623 0.29464528 -0.005956518 0.0832257
0003c0 64 2d 87 bc 74 57 d1 bd 4b c2 45 3e 2e 9e 1b 3d
       -0.016501136 -0.102217585 0.19312398 0.03799265
0003d0 ba a6 a5 3c 17 c9 2f bd 6e c0 eb 3c 74 0f e4 bd
       0.020221103 -0.042916384 0.028778281 -0.1113576
0003e0 2c 72 22 bb 27 9e 90 3a 66 b9 ed be 33 74 0e bd
       -0.002478729 0.0011033461 -0.4643051 -0.034778785
0003f0 7d 65 fb bb 17 e7 32 bc 00 c4 ca 3d f3 db b1 3d
       -0.0076720105 -0.010919354 0.09900665 0.0868453

bias f4 [4]
000000 14 e9 dd bc 50 32 e1 bd 4a 4e a5 be 6a 72 a3 be
       -0.02708868 -0.109959245 -0.32286292 -0.31923229
