RLSnake/model/wariant5.pth (torch, 27730 bytes, 6 tensors)

weight f4 [64, 24]
0.09162193 -0.07388808 -0.8596134 0.37195227 -0.4479004 -0.9721733 -0.21414916 -0.12680118
0.009314436 0.81702304 -0.25384104 -0.16721283 0.7311945 0.11482898 -0.99842167 -0.5302479
-0.9491364 0.2532977 0.08991481 -0.5746277 -0.8097051 0.08961011 -0.09718645 0.4210058
0.13989662 -0.5944103 -0.44961825 0.1658057 -0.15529907 0.5795969 -0.8093316 -1.2830743
-0.51229525 -1.0149828 -0.347663 0.034261126 -0.19140986 -0.50994456 -0.38460296 -0.82431966
0.07772696 -0.7884805 0.07753007 0.25846317 -0.03850376 -0.566093 -0.20883338 -1.1378359
0.043816827 0.27082437 -0.17315902 0.12449059 -1.4096057 -0.6832019 -0.5616777 -0.09050313
0.8855834 -0.49784395 0.1628049 0.086527385 0.33135402 1.2121798 -0.8541682 -0.28189692
-1.0775002 -0.4102313 0.2016347 0.108336285 0.22448157 -0.09072524 -0.071605206 0.37146017
-0.41038084 -0.34385142 -0.3562848 0.033121724 0.22963214 -0.18723653 -0.09305537 -0.08631742
-0.06509068 -0.29209805 -0.6078682 -0.13054718 -0.418877 0.1049135 -0.04747074 -0.16597953
-0.12179384 -0.21294047 -0.37490615 -0.47203532 0.2445199 -0.9681996 -0.6589911 0.04145794
0.60666066 -0.22879599 -0.50552166 0.35018957 -0.74927485 0.15554385 -1.3115108 0.37477136
0.41635922 0.69794095 -0.9908966 0.41037458 0.7210477 0.016681056 0.77339876 -0.49487084
0.555594 0.034175985 0.20997533 0.44952962 0.20841925 -0.1208604 0.38620403 0.19991232
-1.1018156 0.34645092 -0.9138753 -0.15080659 -0.5630943 0.34477147 1.1203396 -0.28650868
-0.3681785 -0.009089609 -0.091255695 -0.53538287 0.076448195 -1.0274727 -0.33985004 -0.89679796
0.29679537 -0.6335825 -0.12486639 -0.46941403 -0.5256103 -0.030051183 -0.13318859 -1.1868734
-0.03623004 -0.098966874 -0.06730794 -0.09508582 -0.17891592 -0.079217926 0.018476313 0.011351758
-0.15269743 -0.018849924 -0.049431235 -0.19557586 -0.13983193 0.045074414 0.010586734 0.21437149
-0.09839548 0.0030877495 -0.12993665 -0.17692943 -0.11641351 -0.14156607 -0.1729787 -0.20184697
0.28972346 -0.22788844 0.22674558 0.12756342 -0.8761606 0.1985283 0.088910386 0.8242686
0.40779752 -0.88226247 0.26830152 -0.1825351 0.58313614 -1.0262648 0.054327898 -0.83317
0.39955425 -1.0477653 0.015773237 0.026295595 0.5126755 -0.32639515 0.017629005 0.83638334
0.4815112 0.16757098 -0.68492854 0.11939287 -1.8769022 -0.97986287 -0.2797731 -0.109570295
0.9543067 -1.1679356 0.7609494 -0.08085578 0.57036066 0.14000198 -1.3451949 -0.35791776
-1.1789768 0.8082247 -0.14325377 -0.050651684 0.3773102 0.06719582 -0.05404537 0.016390733
-0.055794656 0.4076674 0.21536851 -1.3216022 -0.15881428 -0.942173 0.3551975 -0.44619942
-0.5764395 0.04653803 0.5677098 -0.5062144 0.054092474 -0.14230141 -0.24974272 -0.12565483
0.5573051 1.5112323 0.05850489 -0.38673937 0.17780174 -0.03866447 0.3376221 0.0120357275
0.5152926 -0.44202548 -0.88128734 0.38475114 0.23888734 0.19521917 -0.30534238 -0.7493674
-0.2684642 -1.1950642 -0.8353043 0.19317532 -0.8579351 0.1883058 0.11965497 -0.62469226
00000000: 47a4 bb3d a252 97bd a00f 5cbf 8770 be3e
00000010: 3453 e5be 59e0 78bf eb49 5bbe 2bd8 01be
00000020: 949b 183c 6c28 513f 74f7 81be d739 2bbe
00000030: 902f 3b3f 752b eb3d 9098 7fbf 54be 07bf
00000040: 9afa 72bf 3cb0 813e 4225 b83d cd1a 13bf
00000050: d548 4fbf 8185 b73d b109 c7bd 128e d73e
00000060: 0f41 0f3e 462b 18bf 5d34 e6be f8c8 293e
00000070: b806 1fbe 7660 143f 5b30 4fbf c73b a4bf
00000080: c825 03bf f5ea 81bf e200 b2be 6555 0c3d
00000090: f200 44be ba8b 02bf aeea c4be 9d06 53bf
000000a0: 502f 9f3d dcd9 49bf 16c8 9e3d 4955 843e
000000b0: 1eb6 1dbd 79eb 10bf 6bd8 55be 9ba4 91bf
000000c0: 4679 333d 7ea9 8a3e 9950 31be ecf4 fe3d
000000d0: f66d b4bf 52e6 2ebf 1cca 0fbf b459 b9bd
000000e0: 98b5 623f 67e5 febe 54b6 263e 4535 b13d
000000f0: 3ca7 a93e b528 9b3f c4aa 5abf cb54 90be
00000100: 87eb 89bf d609 d2be 5479 4e3e 6adf dd3d
00000110: 7fde 653e 28ce b9bd c0a5 92bd 0730 be3e
00000120: 701d d2be 4b0d b0be f66a b6be a5aa 073d
00000130: b024 6b3e efba 3fbe d093 bebd 30c7 b0bd
00000140: 434e 85bd e08d 95be 409d 1bbf 29ae 05be
00000150: 0c77 d6be e4dc d63d ae70 42bd 8af6 29be
00000160: 0c6f f9bd 110d 5abe b3f3 bfbe 9dae f1be
00000170: 6d63 7a3e eedb 77bf a4b3 28bf cdcf 293d
00000180: 1d4e 1b3f 7f49 6abe de69 01bf 0c4c b33e
00000190: 7ad0 3fbf e346 1f3e 96df a7bf 08e2 bf3e
000001a0: 092d d53e 42ac 323f 66ab 7dbf 9e1c d23e
000001b0: 9596 383f b6a6 883c 76fd 453f b65f fdbe
000001c0: 693b 0e3f 1efc 0b3d c603 573e bf28 e63e
000001d0: db6b 553e a885 f7bd 89bc c53e d1b5 4c3e
000001e0: 4b08 8dbf 0462 b13e bbf3 69bf 0b6d 1abe
000001f0: f326 10bf e385 b03e 4a67 8f3f 44b1 92be
00000200: e481 bcbe 95ec 14bc 44e4 babd da0e 09bf
00000210: df90 9c3d 3a84 83bf d300 aebe 8d94 65bf
00000220: 90f5 973e 7632 22bf f3b9 ffbd 0957 f0be
00000230: 668e 06bf e62d f6bc 9762 08be 78eb 97bf
00000240: f365 14bd 25af cabd bfd8 89bd 5bbc c2bd
00000250: bc35 37be 023d a2bd a35b 973c b9fc 393c
00000260: b75c 1cbe 286b 9abc 6878 4abd 0a45 48be
00000270: 1a30 0fbe f39f 383d fb73 2d3c 3384 5b3e
00000280: 9283 c9bd d75b 4a3b 1d0e 05be fd2c 35be
00000290: 356a eebd b2f6 10be 5421 31be f9b0 4ebe
000002a0: a256 943e 965b 69be fe2f 683e fc9f 023e
000002b0: 104c 60bf 014b 4b3e a616 b63d 4403 533f
000002c0: d6ca d03e f4db 61bf d15e 893e 7bea 3abe
000002d0: 6948 153f a55c 83bf ee86 5e3d a14a 55bf
000002e0: 6092 cc3e 2c1d 86bf e036 813c dc69 d73c
000002f0: b43e 033f 441d a7be b46a 903c 381d 563f
00000300: a388 f63e ba97 2b3e 7a57 2fbf 4084 f43d
00000310: 553e f0bf 4bd8 7abf 6b3e 8fbe 6466 e0bd
00000320: 724d 743f ea7e 95bf 94cd 423f b797 a5bd
00000330: 2803 123f ae5c 0f3e 592f acbf ff40 b7be
00000340: b6e8 96bf d0e7 4e3f 1eb1 12be 2478 4fbd
00000350: cd2e c13e f69d 893d ae5e 5dbd dc45 863c
00000360: f088 64bd c8b9 d03e 9089 5c3e 432a a9bf
00000370: 36a0 22be 4032 71bf 72dc b53e 4074 e4be
00000380: 8a91 13bf a99e 3e3d 6e55 113f 4497 01bf
00000390: 1290 5d3d 76b7 11be 8ebc 7fbe a9ab 00be
000003a0: 8cab 0e3f 0f70 c13f d3a2 6f3d b402 c6be
000003b0: a911 363e a35e 1ebd cedc ac3e 8031 453c
000003c0: 37ea 033f 2a51 e2be 0c9c 61bf 1afe c43e
000003d0: e29e 743e 89e7 473e d655 9cbe 8bd6 3fbf
000003e0: 2474 89be ddf7 98bf 81d6 55bf c0cf 453e
000003f0: a2a1 5bbf 3cd3 403e aa0d f53d d5eb 1fbf

bias f4 [64]
-0.5189048 0.011274918 -0.4215266 -0.36487228 -0.17190151 -0.4422234 -0.1902697 -0.775074
-0.14229758 -0.7773991 0.2950877 -0.30455893 -0.26544446 0.55149704 -0.28842157 -0.8421052
-0.72395724 -0.30861697 0.047743946 -0.26923448 -0.45124373 -0.12757775 -0.37494722 -0.69990563
-0.45464885 -0.7360846 0.2608062 -0.7771073 -0.076975904 -0.82283515 -0.7760189 -0.4349992
-0.44177687 -0.48386618 0.17153712 -0.7231081 -0.32756472 -1.2448527 -0.39532363 -0.27739692
-0.65028524 -0.7298904 -0.3840641 0.35570124 0.20455322 -0.39148793 -0.3316242 -0.40102595
0.09649897 0.20943436 0.16151102 -0.5775798 -0.28568926 -0.9238411 -0.29829636 -0.32553604
-0.16603404 -0.54714614 -0.4286417 -0.104960606 -0.13052803 -0.32694745 -0.51587015 0.79950136
00000000: f2d6 04bf 6fba 383c 56d2 d7be 8ad0 babe
00000010: f306 30be 1b6b e2be 0fd6 42be 406b 46bf
00000020: 75b6 11be a103 47bf bc15 973e 26ef 9bbe
00000030: 56e8 87be e92e 0d3f feab 93be 3594 57bf
00000040: 4355 39bf 0b03 9ebe 288f 433d 1ad9 89be
00000050: 6b09 e7be bea3 02be 15f9 bfbe 042d 33bf
00000060: bcc7 e8be 0a70 3cbf 6488 853e 81f0 46bf
00000070: 8ba5 9dbd 53a5 52bf 2da9 46bf 37b8 debe
00000080: 9430 e2be 4fbd f7be 6da7 2f3e 9d1d 39bf
00000090: 90b6 a7be 5557 9fbf dc67 cabe f806 8ebe
000000a0: 1879 26bf 19da 3abf 0da4 c4be 791e b63e
000000b0: 6676 513e 1b71 c8be a6ca a9be 4653 cdbe
000000c0: 41a1 c53d f675 563e 2563 253e 45dc 13bf
000000d0: dd45 92be da80 6cbf 4dba 98be a9ac a6be
000000e0: d404 2abe c511 0cbf ed76 dbbe 96f5 d6bd
000000f0: 24a9 05be a865 a7be 1110 04bf 1fac 4c3f

weight f4 [64, 64]
0.022829635 0.063910395 -0.056954812 -0.13031733 -0.0935636 -0.056957107 -0.06460209 -0.10385456
0.043152377 0.0072094053 -0.11501208 -0.002903292 -0.162042 0.024343133 0.0972297 -0.016398612
-0.07362254 -0.044993322 -0.00881134 -0.12685987 0.030112505 -0.12741001 0.05386821 0.007173416
0.053100877 -0.13557747 -0.061675206 -0.09967742 -0.0898878 -0.09072565 0.012964853 -0.046095613
-0.066757575 -0.05926801 0.016008142 -0.07733529 0.030959576 0.048741776 -0.053645376 -0.027703201
-0.14351478 0.016335137 -0.08879788 -0.112231754 0.06441678 -0.087587 -0.0562087 0.08923238
-0.04212992 -0.059707046 0.06444365 -0.19589849 -0.12523481 0.05725988 -0.0059319655 -0.08576799
-0.093141176 0.007251434 -0.014457573 -0.14547639 -0.058251828 -0.050793767 0.02193258 -0.081137285
0.038415566 0.040149707 0.019676289 -0.0761622 -0.10319979 -0.056724172 -0.07164994 -0.12900282
-0.07967678 -0.10729113 0.037532907 -0.119063355 -0.18060918 -0.19629547 0.07087631 -0.15684325
-0.02335802 -0.08834339 -0.026415527 -0.11050111 -0.0819497 -0.0013441055 -0.2484492 0.051995672
-0.08212444 -0.18624969 -0.07928529 -0.12631509 0.024333214 -0.059592575 0.0201081 -0.15140095
-0.17004472 -0.11601787 -0.18592983 0.042623013 -0.17439833 -0.08155533 -0.046366043 -0.0856057
-0.15091889 -0.23377217 0.09993354 -0.042698514 -0.029571341 -0.124007374 0.1071042 -0.046692852
-0.0061783227 -0.021858633 -0.11431476 -0.109191544 -0.032112967 -0.015852839 0.0763572 -0.13534947
0.053744376 -0.008422322 -0.13780299 0.016855964 -0.049936697 0.0136654675 0.00025911402 -0.0006244917
-0.08657785 -0.17328873 0.011437603 0.015123479 -0.07302426 -0.16950536 -0.03353089 -0.066702366
0.0376755 -0.010811883 -0.02152766 -0.13161196 -0.024861848 -0.031706892 0.024454469 0.014879642
0.027798513 -0.020513633 0.09713656 0.029610086 -0.13771714 -0.20375678 -0.13460067 0.11699547
-0.10793075 -0.15826805 -0.047902144 -0.0012576969 -0.15039401 -0.13728257 -0.13014153 -0.101801895
-0.073301174 -0.20296311 -0.07549648 -0.023273837 -0.2204381 -0.03664183 0.07673859 -0.07466522
-0.14160591 -0.123050764 -0.108204216 -0.021282962 -0.13153479 -0.011625545 -0.11255316 -0.0339861
0.010045935 -0.11884515 0.035761587 -0.09377854 -0.08740537 -0.19199035 -0.103858344 0.055482373
0.027591452 -0.03497162 -0.040442165 -0.11285364 0.012273444 0.120611906 -0.038376 -0.052568804
-0.06988635 -0.16185576 -0.20592202 0.056248855 -0.22550634 -0.09143873 -0.042219233 -0.03146693
-0.38306993 -0.39003593 -0.22332555 -0.2525765 -0.5073544 0.07525212 -0.45290878 -0.088631354
0.21897155 0.16473758 -0.071069464 -0.017152645 0.0013653241 0.013825229 -0.21177396 -0.06328082
-0.13693711 -0.14255229 -0.4829827 -0.19700749 -0.14362942 -0.38966826 -0.18045329 -0.07256026
-0.1292358 -0.13757105 -0.20370585 -0.07843364 -0.16541766 -0.22252637 -0.021131627 -0.24269363
-0.2813181 -0.4227499 -0.17967887 -0.3228767 -0.06704463 -0.10257562 0.01284355 -0.09503459
0.29562056 -0.25435582 -0.08962621 0.04898207 -0.66091764 -0.13051893 0.024910053 0.09416061
-0.24376416 -0.2537774 0.041863848 -0.23727776 -0.16148663 0.064591415 -0.015400404 -0.157958
00000000: 3705 bb3c 74e3 823d 7349 69bd e871 05be
00000010: 469e bfbd db4b 69bd 1a4e 84bd b3b1 d4bd
00000020: 8cc0 303d e03c ec3b 748b ebbd 2845 3ebb
00000030: 57ee 25be 406b c73c 5d20 c73d 6256 86bc
00000040: 6ac7 96bd eb4a 38bd 705d 10bc 8ee7 01be
00000050: 80ae f63c c577 02be eaa4 5c3d fa0e eb3b
00000060: 4e80 593d d2d4 0abe 249f 7cbd ad23 ccbd
00000070: 1817 b8bd 5fce b9bd 896a 543c c1ce 3cbd
00000080: 32b8 88bd 03c3 72bd 8223 833c f761 9ebd
00000090: f09e fd3c 75a5 473d 41bb 5bbd d3f1 e2bc
000000a0: 8af5 12be 44d1 853c aadb b5bd c3d9 e5bd
000000b0: f2ec 833d d060 b3bd 183b 66bd 77bf b63d
000000c0: 6c90 2cbd 608f 74bd 08fb 833d 9d99 48be
000000d0: 8e3d 00be 5689 6a3d ef60 c2bb 21a7 afbd
000000e0: cdc0 bebd 709d ed3b 75df 6cbc c3f7 14be
000000f0: 7899 6ebd 200d 50bd f4ab b33c 4e2b a6bd
00000100: a459 1d3d 0574 243d 2b30 a13c edfa 9bbd
00000110: 695a d3bd 9b57 68bd 34bd 92bd 5119 04be
00000120: 942d a3bd 74bb dbbd 1bbc 193d 7dd7 f3bd
00000130: 9df1 38be ae01 49be 9927 913d 849b 20be
00000140: 5159 bfbc 61ed b4bd 6065 d8bc 684e e2bd
00000150: 3fd5 a7bd b22c b0ba 7869 7ebe 6af9 543d
00000160: dc30 a8bd 3db8 3ebe 5360 a2bd be58 01be
00000170: 7356 c73c 5817 74bd beb9 a43c da08 1bbe
00000180: 3420 2ebe c79a edbd 6464 3ebe 7895 2e3d
00000190: 7a95 32be 7b06 a7bd 52ea 3dbd 0b52 afbd
000001a0: 7b8a 1abe f961 6fbe f5a9 cc3d a3e4 2ebd
000001b0: 993f f2bc 94f7 fdbd 7259 db3d 0141 3fbd
000001c0: 8773 cabb e010 b3bc db1d eabd d19f dfbd
000001d0: e388 03bd d0dd 81bc 2a61 9c3d 0d99 0abe
000001e0: 1023 5c3d c7fd 09bc 3a1c 0dbe 8515 8a3c
000001f0: 6c8a 4cbd 20e5 5f3c b2d9 8739 eeb4 23ba
00000200: ba4f b1bd 9a72 31be c964 3b3c 78c8 773c
00000210: be8d 95bd d092 2dbe b057 09bd 409b 88bd
00000220: a051 1a3d 5324 31bc c65a b0bc 49c5 06be
00000230: 13ab cbbc 16df 01bd bd54 c83c bec9 733c
00000240: b5b9 e33c 350c a8bc 88ef c63d da90 f23c
00000250: b905 0dbe 9ea5 50be c2d4 09be 529b ef3d
00000260: cc0a ddbd 0511 22be 0a35 44bd 4ed9 a4ba
00000270: e300 1abe cd93 0cbe d243 05be 837d d0bd
00000280: ed1e 96bd 90d5 4fbe e69d 9abd c6a8 bebc
00000290: 86ba 61be be15 16bd 1f29 9d3d 14ea 98bd
000002a0: 2401 11be 0a02 fcbd 2c9a ddbd 9b59 aebc
000002b0: 0eb1 06be 1279 3ebc 4582 e6bd 0235 0bbd
000002c0: b597 243c 1665 f3bd be7a 123d f70e c0bd
000002d0: 9601 b3bd 1e99 44be afb3 d4bd 7c41 633d
000002e0: 7807 e23c 673e 0fbd afa6 25bd cf1f e7bd
000002f0: 8e16 493c 6003 f73d 2730 1dbd 6352 57bd
00000300: 9320 8fbd 84bd 25be 39dd 52be 3365 663d
00000310: 22eb 66be 3b44 bbbd 13ee 2cbd 78e3 00bd
00000320: be21 c4be cab2 c7be 74af 64be b551 81be
00000330: fae1 01bf c91d 9a3d a9e3 e7be 5b84 b5bd
00000340: 143a 603e f8b0 283e de8c 91bd b483 8cbc
00000350: adf4 b23a 3783 623c 46db 58be 6099 81bd
00000360: 3e39 0cbe 3af9 11be 8249 f7be 55bc 49be
00000370: 9713 13be 9982 c7be bfc8 38be 799a 94bd
00000380: 6456 04be 6ddf 0cbe 4498 50be d1a1 a0bd
00000390: 3f63 29be f4dd 63be 3c1c adbc ae84 78be
000003a0: ed08 90be ad72 d8be bdfd 37be 1850 a5be
000003b0: b24e 89bd 2b13 d2bd c16d 523c 7fa1 c2bd
000003c0: 945b 973e ed3a 82be f28d b7bd 6ca1 483d
000003d0: e631 29bf c1a6 05be 2b10 cc3c 47d7 c03d
000003e0: 509d 79be 1def 81be 6d79 2b3d f1f8 72be
000003f0: c05c 25be 8148 843d fa51 7cbc bebf 21be

bias f4 [64]
-0.23287277 -0.1053027 -0.08686735 -0.19671567 0.044669833 -0.0048291604 0.49341398 -0.10518486
0.15182151 -0.115003645 -0.07294907 -0.21070305 -0.19376995 -0.30290657 0.7079925 0.37527072
-0.22809531 -0.24287365 -0.12433614 -0.5677264 0.33436292 -0.16109781 -0.25476426 -0.3632815
-0.18488097 -0.22534585 -0.43745238 -0.11456173 -0.025132023 -0.21868709 -0.111731954 0.77555186
0.3613561 -0.37093726 -0.0074582906 -0.32097846 -0.15283458 1.172535 -0.20163274 -0.1121243
-0.22430067 0.9010743 -0.10981874 -0.14087105 0.64842045 -0.10830407 -0.18016864 -0.057345908
-0.190608 -0.135456 -0.17077799 -0.23536965 -0.06866669 -0.19973727 -0.3366471 -0.29958656
0.078981094 -0.20625919 -0.16770357 -0.16123009 -0.13697742 -0.24267209 -0.16541119 -0.11369623
00000000: 3376 6ebe f1a8 d7bd 82e7 b1bd d56f 49be
00000010: b7f7 363d ef3d 9ebb c2a0 fc3e 296b d7bd
00000020: 1977 1b3e 0887 ebbd 5266 95bd 8ac2 57be
00000030: a16b 46be 9216 9bbe ff3e 353f 7c23 c03e
00000040: d191 69be dfb3 78be f2a3 febd 8456 11bf
00000050: 9e31 ab3e d3f6 24be 7670 82be 0800 babe
00000060: 7051 3dbe 10c1 66be c2f9 dfbe 579f eabd
00000070: ace1 cdbc 82ef 5fbe b9d3 e4bd 918a 463f
00000080: ab03 b93e 7deb bdbe ad64 f4bb 4a57 a4be
00000090: ab80 1cbe a015 963f d078 4ebe 6da1 e5bd
000000a0: 13af 65be ceac 663f a6e8 e0bd 8040 10be
000000b0: e2fe 253f 86ce ddbd 217e 38be 8be3 6abd
000000c0: be2e 43be fab4 0abe 6de0 2ebe be04 71be
000000d0: 1fa1 8cbd ed87 4cbe 025d acbe 6963 99be
000000e0: d7c0 a13d 9c35 53be 7cba 2bbe 8019 25be
000000f0: cf43 0cbe 087f 78be 8d61 29be 92d9 e8bd

weight f4 [4, 64]
-0.06269394 -0.014826132 0.07568042 0.21837898 -0.18950313 -0.06686031 -0.32976726 0.006485578
0.03977301 0.058837973 0.13991636 0.24550804 -0.031623825 0.4150435 -0.11453943 -0.15959783
-0.012237078 -0.017907685 -0.21218981 0.21491797 -0.13087198 0.00028213073 0.0834584 -0.048089445
0.22962941 -0.040925827 -0.022371307 -0.025633642 0.042653836 -0.017166518 0.019706575 -0.22540249
0.32586682 0.1534874 0.011552546 -0.34939277 0.027421396 0.10349046 -0.028820544 -0.21286978
0.0449477 -0.1308627 -0.012460877 -0.0015460834 -0.08331521 0.01926253 -0.15860952 -0.054548338
-0.016211487 0.010345487 -0.021884201 -0.4382099 0.016022885 -0.0007490208 -0.0022647285 0.056426253
0.66630965 0.14212342 -0.021040471 0.1298996 0.0135742165 -0.23489565 0.060846876 0.925537
-0.022181397 -0.013741093 -0.0076480093 0.3094052 0.014152553 -0.20349878 0.045614664 -0.015204294
-0.0063747982 -0.06416404 -0.017979559 -0.018588208 -0.03336307 0.18239966 -0.061781682 -0.17708
0.11519042 0.09446747 0.013708188 0.24390408 0.011459183 -0.0311142 0.004756464 -0.024999548
0.07606155 -0.04142629 -0.04641446 0.09259297 0.033705886 -0.09362234 0.46846375 -0.10445994
-0.18556151 0.16710714 -0.009083222 -0.050406184 0.0946407 0.11103023 -0.019992383 0.0688678
0.04028859 -0.21357341 0.029470515 -0.012780105 -0.304718 0.08679388 0.0966524 -0.030334344
0.019823454 0.02206517 -0.095313124 0.48417237 -0.009159081 -0.008672631 -0.0819945 0.07082826
0.020452047 -0.020912178 -0.06772354 -0.036197286 -0.0074039563 0.016153365 -0.007202532 -0.057814732
-0.069070116 -0.04403883 -0.010129845 -0.32779673 -0.005181377 -0.014923352 -0.40418187 -0.026330106
-0.25908816 0.053515766 -0.007146893 0.09870775 -0.06527577 0.38118234 -0.16808297 0.2130938
-0.18194093 -0.0038278021 -0.040523954 0.3438768 0.18386139 -0.0012312102 0.015448665 -0.05012775
0.15586801 0.023757605 0.13238338 -0.01338005 -0.028413754 0.0022582926 0.61730593 -0.24623685
-0.25161856 0.15616305 -0.012561241 0.045852654 0.08465162 0.103425354 -0.0124645755 -0.07731391
-0.049399126 -0.1503506 0.05472089 0.0017422565 -0.24783783 -0.04348436 0.0032411432 -0.04299135
0.07394297 0.016774422 -0.018212914 -0.07919302 0.03494443 -0.014010387 -0.0042202733 0.009624789
-0.33054549 0.115926854 0.24318889 0.010636868 -0.009681976 0.007489994 0.0056496398 -0.040673044
0.074792445 0.0031138049 -0.0937974 -0.38547376 0.032948576 -0.46902308 -0.21221451 -0.09717952
-0.15057288 -0.022923816 -0.005432886 0.19206575 -0.042263635 0.29238588 -0.1653939 0.011446562
-0.19963987 0.63707596 0.22944306 -0.0053083496 -0.08744133 0.0061272876 0.0051543545 -0.008327846
0.7560527 -0.029066756 0.078549325 -0.0002860717 0.022527969 -0.017733699 -0.11503489 0.0085060075
-0.20234111 0.39375806 -0.06590449 0.114169516 0.079583526 -0.12637068 -0.06831274 -0.014742328
0.09256976 -0.5681829 0.023622703 0.1316039 0.37370747 0.00077062467 0.013906296 -0.008637901
-0.003219845 0.1909117 -0.01214819 0.12501332 0.032528065 -0.016713249 -0.010675189 -0.024798764
-0.00092396 0.023759691 0.0629191 0.021202777 0.03795589 -0.001470343 -0.0127231395 -0.0033647805
00000000: ae65 80bd 4ee9 72bc 56fe 9a3d bd9e 5f3e
00000010: 1c0d 42be 0fee 88bd 41d7 a8be f984 d43b
00000020: 06e9 223d 1600 713d 3c46 0f3e 7666 7b3e
00000030: fc87 01bd 9580 d43e a693 eabd 9d6d 23be
00000040: 067e 48bc 23b3 92bc 4948 59be 7513 5c3e
00000050: 4e03 06be f2ea 9339 3dec aa3d 70f9 44bd
00000060: f923 6b3e d7a1 27bd 0844 b7bc a5fd d1bc
00000070: cab5 2e3d cca0 8cbc af6f a13c e9cf 66be
00000080: 04d8 a63e cd2b 1d3e e446 3d3c 9ce3 b2be
00000090: d6a2 e03c cef2 d33d 1019 ecbc 89fa 59be
000000a0: 141b 383d df00 06be b528 4cbc f3a5 caba
000000b0: 2aa1 aabd 74cc 9d3c 896a 22be 146e 5fbd
000000c0: f4cd 84bc 1e80 293c 7f46 b3bc 0c5d e0be
000000d0: 6d42 833c ef59 44ba d76b 14bb 371f 673d
000000e0: 4593 2a3f cd88 113e 115d acbc 6704 053e
000000f0: 6466 5e3c 7c88 70be 933a 793d feef 6c3f
00000100: c3b5 b5bc 5222 61bc 279c fabb 5c6a 9e3e
00000110: 1ce0 673c fc61 50be 71d6 3a3d 6e1b 79bc
00000120: afe3 d0bb 7068 83bd de49 93bc 4c46 98bc
00000130: b7a7 08bd fac6 3a3e ca0e 7dbd 7654 35be
00000140: f4e8 eb3d 2978 c13d 4f98 603c fec1 793e
00000150: 4cbf 3b3c 35e3 febc 1ddc 9b3b dacb ccbc
00000160: 28c6 9b3d 9dae 29bd 171d 3ebd 62a1 bd3d
00000170: 2f0f 0a3d 12bd bfbd 7bda ef3e 18ef d5bd
00000180: d603 3ebe 221e 2b3e cbd1 14bc b776 4ebd
00000190: fcd2 c13d d163 e33d 11c7 a3bc 900a 8d3d
000001a0: a605 253d fdb2 5abe 266c f13c a563 51bc
000001b0: ff03 9cbe fdc0 b13d b2f1 c53d bb7f f8bc
000001c0: cc64 a23c 04c2 b43c 8733 c3bd 71e5 f73e
000001d0: f80f 16bc a717 0ebc bbec a7bd 680e 913d
000001e0: 0d8b a73c 0450 abbc a4b2 8abd 9b43 14bd
000001f0: e39c f2bb 1054 843c 3803 ecbb 24cf 6cbd
00000200: a274 8dbd 0f62 34bd a6f7 25bc f9d4 a7be
00000210: 8ac8 a9bb 1381 74bc edf0 cebe 3cb2 d7bc
00000220: 34a7 84be 5933 5b3d 7c30 eabb 4a27 ca3d
00000230: 4eaf 85bd 552a c33e f11d 2cbe 4335 5a3e
00000240: b94e 3abe dddb 7abb 72fc 25bd 9f10 b03e
00000250: 2946 3c3e 8f60 a1ba 661c 7d3c c152 4dbd
00000260: dd9b 1f3e 4f9f c23c 828f 073e ff37 5bbc
00000270: f6c3 e8bc ddff 133b c307 1e3f 8325 7cbe
00000280: 26d4 80be 35e9 1f3e aacd 4dbc fecf 3b3d
00000290: d45d ad3d acd0 d33d 3838 4cbc c156 9ebd
000002a0: bd56 4abd 82f5 19be 0323 603d 6d5c e43a
000002b0: 33c9 7dbe a81c 32bd 5c69 543b b317 30bd
000002c0: 696f 973d 836a 893c 4033 95bc f32f a2bd
000002d0: e421 0f3d d28b 65bc 384a 8abb 4ab1 1d3c
000002e0: 423d a9be 0f6b ed3d 8206 793e 4246 2e3c
000002f0: 27a1 1ebc a06e f53b 9d20 b93b c798 26bd
00000300: c82c 993d fa10 4c3b da18 c0bd d15c c5be
00000310: 16f5 063d cb23 f0be c34e 59be 0e06 c7bd
00000320: c72f 1abe baca bbbc 5a06 b2bb e2ac 443e
00000330: a21c 2dbd 9ab3 953e 055d 29be 5c8a 3b3c
00000340: 656e 4cbe 6917 233f 1ff3 6a3e aaf1 adbb
00000350: 7114 b3bd 6ac7 c83b dce5 a83b 8571 08bc
00000360: ab8c 413f 681d eebc 78de a03d e5fb 95b9
00000370: 938c b83c 4346 91bc 6a97 ebbd c85c 0b3c
00000380: 8232 4fbe a89a c93e eff8 86bd b5d1 e93d
00000390: b0fc a23d 5167 01be 8de7 8bbd ce89 71bc
000003a0: 3795 bd3d 6f74 11bf 6684 c13c 2cc3 063e
000003b0: 9656 bf3e bf03 4a3a 3cd7 633c fc85 0dbc
000003c0: 0904 53bb 5b7e 433e 3409 47bc 7e03 003e
000003d0: 263c 053d 39ea 88bc fde6 2ebc c726 cbbc
000003e0: e835 72ba afa3 c23c bbdb 803d 72b1 ad3c
000003f0: a377 1b3d 86b8 c0ba b774 50bc a683 5cbb

bias f4 [4]
0.47425258 0.15264478 0.6574856 0.68467444
00000000: 3cd1 f23e ea4e 1c3e fa50 283f d346 2f3f
