RLSnake/model/wariant3.pth (torch, 25170 bytes, 6 tensors)

weight f4 [64, 14]
0	0xbd9e8082	-0.07739355
1	0xbf06853b	-0.52547044
2	0xbf843213	-1.0327781
3	0x3a1a321d	0.0005882101
4	0xbf60ffc0	-0.87890244
5	0xbc6237b6	-0.013807228
6	0xbe42d058	-0.1902479
7	0x3eee2b65	0.46517482
8	0xbe7a0304	-0.24415213
9	0x3cffda08	0.031231895
10	0x3d921a3f	0.07133912
11	0x3ea0a9e6	0.31379622
12	0x3e06621e	0.13123366
13	0xbe569070	-0.20953536
14	0xbd8c6f0e	-0.068571195
15	0xbe99b9f8	-0.30024695
16	0x3d8a66f8	0.06757921
17	0xbe1df2f4	-0.1542471
18	0xbeae7fca	-0.3408187
19	0xbd8d8fc8	-0.0691219
20	0xbeb4202d	-0.35180798
21	0xbdb50c00	-0.088401794
22	0x3d8b5169	0.06802637
23	0xbd8149fa	-0.06312938
24	0xbea1dcaf	-0.3161368
25	0x3d164f76	0.036696874
26	0x3d1e8f3c	0.038710818
27	0xbd597f78	-0.05310008
28	0xbea0c647	-0.31401274
29	0xbe31c1b7	-0.17359053
30	0xbe3ddf04	-0.18542105
31	0xbeadf003	-0.33972177
32	0xbd91a009	-0.071106024
33	0xbe647359	-0.22309627
34	0x3e3394c2	0.17537215
35	0xbf09e352	-0.5386249
36	0xbe3b294e	-0.18277475
37	0xbf42304c	-0.75854945
38	0x3dbbda4b	0.091724955
39	0xbeb82383	-0.35964593
40	0x3ee0eb19	0.43929365
41	0xbdddcd92	-0.10830225
42	0xbf20556f	-0.6263036
43	0x3f3757fa	0.71618617
44	0xbd0ee494	-0.034885958
45	0x3c537cc6	0.012908166
46	0xbe71d358	-0.23615777
47	0x3ee1305c	0.43982208
48	0xbe8e710c	-0.27820623
49	0x3e469fb9	0.19396867
50	0x3f6bed6e	0.92159164
51	0xbf42861b	-0.7598588
52	0xbe3559eb	-0.17710082
53	0xbfa25c07	-1.2684335
54	0xbfa4191a	-1.282016
55	0x3f992994	1.1965814
56	0x3e103733	0.14083557
57	0xbf739bb8	-0.9515948
58	0xbed2553c	-0.41080654
59	0xbf35febd	-0.71091825
60	0x3d8c2160	0.06842303
61	0x3f386f53	0.7204487
62	0xbf382247	-0.71927303
63	0xbf32ab1d	-0.6979235
64	0xbf4516ce	-0.7698792
65	0xbe5b4057	-0.21411262
66	0x3e0dc9fd	0.13846584
67	0x3bc87d8c	0.006118482
68	0xbe0e661b	-0.13906138
69	0xbe6d2b2b	-0.23160999
70	0xbe157246	-0.14594373
71	0xbe8f76bb	-0.28020272
72	0xbdc9e29f	-0.09857678
73	0xbf4cc9c3	-0.79995364
74	0xbf369d29	-0.7133356
75	0xbe792334	-0.24329835
76	0xbf0e5fbc	-0.5561483
77	0xbef60bb6	-0.4805581
78	0x3e741ee5	0.2383991
79	0xbe20747b	-0.15669434
80	0x3e931fed	0.28735295
81	0x3e543bbe	0.20725915
82	0xbf1455ff	-0.5794372
83	0x3ec446da	0.38335305
84	0x3eeb44a1	0.45950797
85	0xbfc3c33f	-1.5293959
86	0x3e489c49	0.19590868
87	0xbee42db2	-0.44566113
88	0xbfa3d33c	-1.2798839
89	0xbebd517d	-0.36976233
90	0xbf3035dd	-0.6883219
91	0x3f939fd7	1.1533154
92	0x3f3164b0	0.6929426
93	0xbf893a79	-1.072097
94	0x3ca2701a	0.019828845
95	0xbea96200	-0.3308258
96	0xbf3e0e35	-0.7424043
97	0xbff21ccb	-1.8915037
98	0xbec18318	-0.3779533
99	0xbef08380	-0.46975327
100	0xbd014202	-0.03155709
101	0xbeeaaeb7	-0.45836422
102	0xbea5d706	-0.32390612
103	0xbdc967a5	-0.09834222
104	0xbe7816a5	-0.24227388
105	0xbeb7a077	-0.35864612
106	0xbec78f96	-0.38976735
107	0xbe07649a	-0.1322197
108	0x3dae1cb6	0.0850157
109	0x3eec1378	0.46108603
110	0xbe47fc12	-0.19529751
111	0x3ea28522	0.31742197
112	0xbe545e6d	-0.20739146
113	0xbc0f4de6	-0.0087466
114	0xbe5e10f6	-0.21686158
115	0xbe0b3b00	-0.13596725
116	0xbf167dcb	-0.58785695
117	0xbeb94bf7	-0.3619077
118	0xbd422ff4	-0.047409013
119	0xbe29eaf1	-0.1659353
120	0x3d0749ee	0.03302949
121	0x3e71e8d9	0.2362398
122	0x3d616af7	0.05503365
123	0x3eafcb23	0.3433467
124	0xbecbb301	-0.39785007
125	0x3dc6b56f	0.097025745
126	0xbdbd2403	-0.09235384
127	0xbe6f9cfd	-0.2339973
128	0xbef01744	-0.4689275
129	0xbd049cfa	-0.032376267
130	0xbe8bd417	-0.2731025
131	0xbe8e9d81	-0.2785454
132	0xbe51a3c4	-0.20472628
133	0x3dfa8327	0.122320466
134	0xbde9d802	-0.11418153
135	0x3c8e2c8c	0.017355226
136	0x3def7322	0.11691882
137	0xbf03c1e1	-0.5146771
138	0x3e96427c	0.293476
139	0x3cf319bb	0.029675355
140	0x3e81e48e	0.25369686
141	0xbf8aa4f7	-1.0831593
142	0xbf17e877	-0.5933909
143	0xbea76e4f	-0.32701346
144	0xbf5a292a	-0.8521906
145	0xbd2e05ef	-0.042486127
146	0xbf923d73	-1.1425003
147	0x3f6a37df	0.914915
148	0x3e295aa4	0.16538483
149	0xbefc9a13	-0.493363
150	0x3f2e634f	0.6812028
151	0xbf9aced9	-1.2094375
152	0x3dfa8ab8	0.1223349
153	0xbfadcb47	-1.357766
154	0xbf3b6d94	-0.7321408
155	0xbf119cff	-0.5688018
156	0xbf482115	-0.7817548
157	0xbf80c3f6	-1.0059803
158	0x3e0a7c0e	0.13523886
159	0x3f36af25	0.71361
160	0xbebc492c	-0.36774576
161	0xbe97c539	-0.29642656
162	0x3e1267ec	0.14297456
163	0xbe623315	-0.22089799
164	0x3e217309	0.15766539
165	0xbdf59169	-0.119906254
166	0x3f88590e	1.0652177
167	0x3f542290	0.8286524
168	0x3f2f6dcc	0.6852691
169	0xbf088b11	-0.533372
170	0xbeee120f	-0.46498153
171	0x3edfec29	0.43734863
172	0xbe86a7c7	-0.2629988
173	0xbe57b525	-0.21065195
174	0xbf075673	-0.52866286
175	0x3f45fa09	0.7733465
176	0xbfd1db2f	-1.6395015
177	0x3f7517be	0.9573935
178	0xba58c4f9	-0.00082690973
179	0xbd124018	-0.035705656
180	0xbec264f4	-0.37967646
181	0x3eec8dc4	0.4620191
182	0xbe2732cd	-0.16327973
183	0xbdf88feb	-0.12136825
184	0x3d483972	0.04888291
185	0x3d86cc2d	0.06581912
186	0x3d3a4c8f	0.04548317
187	0x3eaeb1a3	0.341199
188	0xbeb3c926	-0.35114402
189	0xbe68b1ab	-0.22724025
190	0x3bf9cb03	0.007623078
191	0xba6545d0	-0.00087460596
192	0x3e6f85de	0.2339091
193	0xbda8a969	-0.082354374
194	0xbd4cf135	-0.05003472
195	0x3dea339d	0.11435626
196	0xbea6d08b	-0.3258098
197	0x3f345117	0.70436233
198	0xbefcb6d1	-0.49358228
199	0x3f497a54	0.7870228
200	0xbee8973c	-0.45427883
201	0xbe6e11cd	-0.23248978
202	0x3f4285db	0.759855
203	0xbe0f02b2	-0.13965872
204	0xbe0c023e	-0.1367273
205	0x3f8c8c43	1.0980304
206	0x3cdbe965	0.02684469
207	0xbfa0baa7	-1.2556962
208	0xbf62d854	-0.8861134
209	0xbfa57627	-1.2926682
210	0xbe36afbf	-0.1784048
211	0xbe583f5c	-0.2111792
212	0xbe2b1ad9	-0.1670946
213	0xbe8a9fe3	-0.2707511
214	0x3dda6bc9	0.1066509
215	0xbe261344	-0.16218287
216	0x3e07b3fe	0.13252255
217	0xbcda9669	-0.02668305
218	0xbdea034c	-0.1142641
219	0xbdefcad7	-0.117086105
220	0x3dc027f6	0.09382622
221	0x3e6b77c5	0.22994907
222	0x3e4c8da9	0.19975914
223	0x3e5f3d33	0.2180069
224	0xbe673d0c	-0.22581881
225	0xbf34dfd8	-0.7065406
226	0xbe1e05ae	-0.15431854
227	0xbfa2e673	-1.2726578
228	0x3e19815a	0.1499075
229	0xbf141088	-0.57837725
230	0xbd8851ed	-0.06656251
231	0xbf23f9df	-0.6405315
232	0x3ed39438	0.4132402
233	0xbefcc414	-0.49368346
234	0x3e347dea	0.17626157
235	0x3ec13bbf	0.37740895
236	0xbf3da16f	-0.74074453
237	0x3e9de27e	0.30836862
238	0x3f0d8c25	0.5529197
239	0xbfaf89db	-1.3713945
240	0x3f344de5	0.7043136
241	0xc0006ba2	-2.0065694
242	0xbf3ec99e	-0.74526393
243	0xbf0f888c	-0.5606773
244	0xbf26af61	-0.65111357
245	0x3e2922dc	0.16517204
246	0x3f17ecdd	0.593458
247	0xbee2377b	-0.44182953
248	0x3ec27e9e	0.37987226
249	0xbe46dc16	-0.19419894
250	0xbfa72c18	-1.3060331
251	0xbf8a1d10	-1.0790119
252	0xbfc15b8b	-1.5106062
253	0x3eda1569	0.4259446
254	0xbe1b32e2	-0.15156129
255	0xbee56932	-0.4480682

bias f4 [64]
0	0xbf57fbf3	-0.8436882
1	0xbe095593	-0.1341155
2	0xbe0a45d8	-0.13503206
3	0xbead5dc5	-0.33860603
4	0xbe9b90f3	-0.30384025
5	0xbe923d69	-0.28562477
6	0xbec92ed7	-0.39293548
7	0xbe58feab	-0.21190898
8	0xbeb2968f	-0.34880492
9	0xbe98f0f6	-0.2987134
10	0xbf10977d	-0.5648115
11	0xbd8b2cf3	-0.06795683
12	0xbea15942	-0.3151341
13	0xbeee4427	-0.4653637
14	0xbed6d7c1	-0.41961482
15	0xbead2f3b	-0.33825096
16	0xbf4ee99b	-0.80825204
17	0x3e96bdc7	0.29441664
18	0xbdd53619	-0.10410709
19	0x3ec29067	0.38000795
20	0xbef3a252	-0.47584778
21	0xbe9b82e6	-0.30373305
22	0xbf39aea6	-0.7253212
23	0xbe44f359	-0.19233455
24	0xbd8806f3	-0.066419505
25	0xbeb08c01	-0.34481815
26	0xbf23e5f9	-0.64022785
27	0xbf133dbc	-0.57516074
28	0xbebf802f	-0.37402484
29	0xbc4ef185	-0.012630825
30	0xbf325d51	-0.6967364
31	0xbe9d0097	-0.30664513
32	0x3f86c942	1.0530169
33	0xbeb57f23	-0.3544856
34	0xbf0f5bc8	-0.5599942
35	0xbe929fa9	-0.28637436
36	0xbe83f9ee	-0.2577662
37	0xbddceca0	-0.1078732
38	0xbeae297e	-0.3401603
39	0x3d4254ee	0.047444277
40	0xbe139662	-0.14412835
41	0xbf40a650	-0.7525377
42	0xbf0f7a42	-0.56045926
43	0xbf71678d	-0.9429863
44	0xbe0ee758	-0.13955438
45	0xbda5761b	-0.080791675
46	0xbea5649d	-0.32303324
47	0xbf1031a5	-0.5632575
48	0xbe8d4d07	-0.2759783
49	0xbdf0109b	-0.11721917
50	0xbf302466	-0.6880554
51	0xbe992f4a	-0.2991889
52	0xbefd7bc6	-0.49508494
53	0xbf02f18f	-0.5114984
54	0xbe4aea30	-0.19815898
55	0xbebe70bc	-0.37195385
56	0xbe8dbbe3	-0.2768241
57	0xbe8d7475	-0.27627912
58	0xbee0992e	-0.43866867
59	0xbebfc15c	-0.3745221
60	0xbf03cbd8	-0.51482916
61	0xbe9efee2	-0.31053835
62	0xbe8889a2	-0.26667506
63	0xbf2eee31	-0.683322

weight f4 [64, 64]
0	0xbb0ec405	-0.0021784317
1	0x3cef96db	0.029246738
2	0x3cdc939e	0.026925858
3	0xbe3dd433	-0.18537979
4	0xbdb18ba5	-0.08669213
5	0xbc2bba10	-0.0104813725
6	0xbe5436e6	-0.20724067
7	0xbd08162e	-0.033224277
8	0xbcfc5999	-0.030804442
9	0xbdd2d53e	-0.10294579
10	0xbe202341	-0.15638448
11	0x3d2c0ab7	0.042002406
12	0xbe533516	-0.2062572
13	0x3d3ed167	0.04658642
14	0x3d72cb8e	0.059276156
15	0xbdf44908	-0.11927992
16	0xba8b71b8	-0.0010638749
17	0xbdac7e52	-0.08422531
18	0xbe1556a2	-0.14583829
19	0xbe161d1a	-0.14659539
20	0xbcfa9681	-0.030589344
21	0xbdef63b8	-0.11688942
22	0x3e0e5aff	0.139019
23	0xbdb63aa1	-0.08897901
24	0xbd1d2732	-0.038367458
25	0xbd53693c	-0.05161403
26	0xbbd10c71	-0.006379657
27	0xbc2aa435	-0.010415127
28	0xbde0c11c	-0.10974333
29	0x3d7d44f2	0.06183333
30	0xbe6e9286	-0.23298082
31	0xbd5f5a65	-0.054529566
32	0xbc27193b	-0.0101988865
33	0xbd53f517	-0.051747408
34	0xbe9b4e2d	-0.3033308
35	0xbe0a0e58	-0.13482034
36	0xbd93f74c	-0.072249025
37	0xbe19a165	-0.15002973
38	0xbd1af891	-0.037834708
39	0x3c71aa58	0.014750086
40	0x3cf57fd0	0.029968172
41	0xbc9e0b4b	-0.019292494
42	0x3ce7b31b	0.028283646
43	0xbc320fe1	-0.010868044
44	0x3d9d1675	0.07670299
45	0xbd754ee7	-0.0598897
46	0x3ced7be5	0.028989742
47	0xbc4687cf	-0.01211734
48	0x3decc64f	0.11561262
49	0x3d990a9b	0.07472726
50	0xbd7d735d	-0.061877597
51	0x3d520dc7	0.05128267
52	0xbe1a6f03	-0.1508141
53	0xbdcf1d9d	-0.1011307
54	0xbdbf24f0	-0.09333217
55	0x3d8af6b1	0.06785334
56	0xbde2efb8	-0.11080879
57	0x3d4d3e1c	0.05010806
58	0x3e0e0cd2	0.13872078
59	0x3cb78249	0.022400992
60	0xbd81a006	-0.0632935
61	0x3ca66f7f	0.020316837
62	0xbe0aff2b	-0.13573901
63	0xbd5b877b	-0.053596
64	0xbd5feec8	-0.05467108
65	0xbdb4ede3	-0.08834436
66	0xbda818e2	-0.08207871
67	0xbbe9b507	-0.007132176
68	0xbd5c784e	-0.05382567
69	0xbde588d4	-0.112077385
70	0x3dc55e75	0.09637157
71	0x3d0a67a4	0.033790246
72	0xbd95a367	-0.07306557
73	0x3cbea574	0.023272254
74	0xbd96fc91	-0.07372392
75	0x3d458544	0.048222795
76	0x3d8e4e27	0.069485
77	0x3c132184	0.008980159
78	0xbd7a0da5	-0.06104817
79	0x3db04704	0.08607295
80	0xbcfbcbbf	-0.030736802
81	0x3c461b97	0.012091539
82	0xbe1ba200	-0.15198517
83	0xbc1b3207	-0.009472377
84	0xbdf604d8	-0.120126426
85	0x3dac9d88	0.08428484
86	0xbc27a1c4	-0.010231439
87	0xbe16be5c	-0.14721054
88	0xbcbc5e40	-0.02299416
89	0xbdc51604	-0.0962334
90	0xbd62d436	-0.05537816
91	0x3d923339	0.07138676
92	0x3d39841d	0.04529201
93	0xbd4a6a99	-0.049418066
94	0xbe0dae52	-0.13836029
95	0x3b5527e9	0.003252501
96	0xbda82d97	-0.082118206
97	0xbd813937	-0.06309741
98	0xbd1340a3	-0.035950314
99	0xbdbaba41	-0.09117556
100	0xbd49dd5d	-0.049283374
101	0x3d9564aa	0.07294591
102	0xbd4186c8	-0.047247678
103	0x3da61262	0.08108975
104	0x3d89cee0	0.067289114
105	0x3d9d1ae4	0.076711446
106	0x3dbf99b7	0.09355491
107	0xbdedd38d	-0.11612616
108	0x3d1f3100	0.03886509
109	0x3d262641	0.040563826
110	0x3dae6bcd	0.08516655
111	0xbcfdba40	-0.0309726
112	0x3ca6348f	0.020288734
113	0x3d597ba8	0.053096443
114	0x3db12ff2	0.08651723
115	0xbdc93c12	-0.09825911
116	0xbcd9b2c2	-0.026574496
117	0xbde68863	-0.112564825
118	0xbd3352e3	-0.04378022
119	0xbc4a6070	-0.012352094
120	0xbe0b2dcd	-0.1359169
121	0xbcd100c3	-0.025513059
122	0xbda7bdb0	-0.08190477
123	0xbda7739c	-0.081763476
124	0xbafa4397	-0.001909363
125	0xbdc654e4	-0.0968416
126	0x3b973c5d	0.00461535
127	0x38813e05	6.1627514e-05
128	0x3c27fa03	0.0102524785
129	0xbd9d2ed9	-0.07674951
130	0x3c68172d	0.014165682
131	0xbdbb9ca8	-0.09160739
132	0x3dd4e4e6	0.103952214
133	0xbd9fad94	-0.07796779
134	0xbe0633a5	-0.13105638
135	0xbd85d5bc	-0.06534907
136	0xbdefc8bc	-0.11708209
137	0x3c25360c	0.010083687
138	0xbe0dd14c	-0.13849372
139	0x3d14b0d4	0.03630145
140	0xbcb316e4	-0.021861501
141	0xbd039056	-0.03212007
142	0xbce78719	-0.028262662
143	0xbccce5d0	-0.025011927
144	0xbde282df	-0.11060118
145	0x3cb1e269	0.021714406
146	0xbe10c3e8	-0.14137232
147	0xbdda211e	-0.10650848
148	0xbcc1e635	-0.023669342
149	0x3d2c2cae	0.042034797
150	0x3d752790	0.059852183
151	0xbe050eec	-0.12993973
152	0x3d882295	0.06647221
153	0x3c9a6b31	0.018849941
154	0x3c706da7	0.014674581
155	0xbc21401f	-0.009841948
156	0xbdab7419	-0.08371753
157	0xbdd830c1	-0.10556174
158	0x3a2cdcc7	0.00065941777
159	0xbd0af5f2	-0.033925958
160	0xbc737c4b	-0.014861177
161	0xbe07e487	-0.1327077
162	0x3dad961d	0.084758975
163	0x3dae64c9	0.08515317
164	0xbda0f816	-0.07859819
165	0x3d7db9d3	0.061944794
166	0xbdd0b396	-0.10190503
167	0x3d6c45ef	0.05768388
168	0xbdbbf6b7	-0.091779165
169	0x3d984761	0.074354894
170	0xbdbb6944	-0.09150937
171	0x3d13f311	0.036120478
172	0xbd357ea4	-0.044310227
173	0x3ccbea23	0.024891919
174	0xbb912a7e	-0.0044301143
175	0xbe130807	-0.14358531
176	0x3d63a883	0.055580627
177	0xbd1efd38	-0.038815707
178	0xbd843ab2	-0.06456508
179	0x3cd8bfe0	0.02645868
180	0x3c5957d3	0.013265568
181	0xbdf1ca17	-0.11806124
182	0x3c78c304	0.015183214
183	0x3de983af	0.1140207
184	0xb9ac37a1	-0.00032847843
185	0xbcefd5d7	-0.029276771
186	0xbcf85598	-0.030314252
187	0x3d55c363	0.05218829
188	0xbd9b9b4b	-0.07597979
189	0x3d5d5155	0.054032642
190	0xbe188cda	-0.1489748
191	0xbd915ea8	-0.07098132
192	0x3e2676df	0.16256283
193	0x3e31e9f6	0.17374405
194	0x3d70bf50	0.0587762
195	0xbeaee640	-0.34160042
196	0xbd95d974	-0.073168665
197	0xbe8f605e	-0.2800321
198	0xbecc7606	-0.39933795
199	0xbe4b8055	-0.19873174
200	0xbd4628f4	-0.0483789
201	0x3cd414ac	0.025888763
202	0x39692f75	0.0002223829
203	0x3e642802	0.22280887
204	0xbef356c0	-0.47527122
205	0xbe8a32b3	-0.26991805
206	0x3d88594f	0.06657659
207	0xbe04bb3b	-0.12962048
208	0x3d77844b	0.0604289
209	0xbd9f2c39	-0.07772107
210	0x3e9bc1d7	0.30421326
211	0xbd9dc72f	-0.07704007
212	0x3c9f4d50	0.019446045
213	0xbce779fc	-0.028256409
214	0xbda4a4fe	-0.08039282
215	0xbe48417b	-0.19556229
216	0xbd73a4a9	-0.059483204
217	0x3d25da64	0.040491477
218	0xbea5120c	-0.3224033
219	0xbda9392a	-0.08262856
220	0xbe802253	-0.25026187
221	0xbd653ded	-0.05596726
222	0xbe5c30b5	-0.21502955
223	0x3cefeee8	0.029288724
224	0xbee4f6d6	-0.4471957
225	0xbf0e68a7	-0.55628437
226	0xbdd22ad2	-0.102620736
227	0xbf12b167	-0.57301944
228	0xbce62e8b	-0.028098365
229	0xbe4699b8	-0.19394577
230	0xbc4e4913	-0.012590664
231	0xbdbe0b99	-0.09279556
232	0xbeb88933	-0.36042175
233	0x3d652e5f	0.055952426
234	0xbe2a7c12	-0.16648892
235	0xbdea3ca4	-0.114373475
236	0xbe0230a7	-0.12713872
237	0xbe0c7094	-0.1371482
238	0xbeacb3b1	-0.33730844
239	0xbf07634a	-0.5288588
240	0x3d874c92	0.066064015
241	0xbb1e0fe1	-0.0024118351
242	0x3d31b957	0.043389644
243	0x3d9df197	0.07712095
244	0xbe720595	-0.23634942
245	0xbe1f7596	-0.15572199
246	0xbe2bd88f	-0.1678183
247	0x3ea68645	0.32524315
248	0xbe3b6ba5	-0.18302782
249	0x3e15af84	0.14617735
250	0xbe458ae4	-0.19291264
251	0xbe6c0479	-0.23048581
252	0x3d18c2ed	0.03729527
253	0x3e070685	0.13186081
254	0xbd99a799	-0.0750267
255	0x3d9edd47	0.07757049

bias f4 [64]
0	0xbc800a4a	-0.015629906
1	0xbe45076b	-0.19241111
2	0xbe025a02	-0.12729648
3	0xbe41cb5d	-0.18925233
4	0x3f1206ba	0.57041514
5	0xbddad858	-0.106857955
6	0xbe1f3870	-0.15548873
7	0xbea88c85	-0.32919708
8	0xbd596ba4	-0.05308117
9	0xbd7c0d6e	-0.061536245
10	0xbe4bb233	-0.19892196
11	0xbcd5f3d7	-0.026117248
12	0xbcf45bd6	-0.029828947
13	0xbe4fa02f	-0.20275949
14	0xbe20db35	-0.15708621
15	0xbe15389f	-0.1457238
16	0xbe2beb46	-0.16788968
17	0xbded8259	-0.115971275
18	0xbf0ef28d	-0.55838853
19	0xbe4dc3e6	-0.2009426
20	0xbe3097e8	-0.17245448
21	0x3f5e8fcf	0.86938184
22	0xbf2a2ad6	-0.6647161
23	0x3e1f548f	0.155596
24	0xbdde5ebf	-0.10857915
25	0xbe717058	-0.23578012
26	0xbed5ce28	-0.41758847
27	0xbed68a23	-0.41902265
28	0xbd5868e6	-0.052834414
29	0x3c1da820	0.009622604
30	0xbf366546	-0.7124828
31	0xbeaa78a9	-0.3329518
32	0xbe5af59b	-0.21382754
33	0xbd8936cb	-0.06699904
34	0xbdaf8e14	-0.08572021
35	0xbd1f4d9a	-0.038892366
36	0xbe7cfe74	-0.24706441
37	0xbd316087	-0.043304946
38	0xbaf3a39a	-0.0018588186
39	0xbe330040	-0.17480564
40	0xbe87d194	-0.26527083
41	0xbe00fa8c	-0.12595576
42	0x3f4767df	0.7789287
43	0xbe180c87	-0.14848529
44	0xbd262e61	-0.040571574
45	0xbe2edaf6	-0.17075714
46	0xbe27b10f	-0.16376136
47	0xbe855aa5	-0.2604572
48	0xbcf9bea9	-0.030486422
49	0xbe8b1c30	-0.27169943
50	0xbd85346c	-0.06504139
51	0xbe668e29	-0.22515167
52	0xbd659b7a	-0.056056477
53	0xbe20e2d9	-0.15711536
54	0xbe4f7a38	-0.20261467
55	0xbe8417ba	-0.25799352
56	0xbe165f93	-0.14684896
57	0xbf05cb84	-0.52263665
58	0xbeb1ec44	-0.3475057
59	0xbe183959	-0.14865626
60	0xbe1334c3	-0.14375596
61	0xbdaf7564	-0.08567312
62	0xbe0307fe	-0.12796018
63	0xbea7c5d9	-0.32768133

weight f4 [4, 64]
0	0x3e012417	0.12611423
1	0x3c62bd9c	0.013839152
2	0xbb8311e4	-0.0039999355
3	0x3f104a96	0.5636381
4	0x3d87da50	0.06633437
5	0xbbfdbc15	-0.0077433684
6	0x3cac2fa3	0.021018809
7	0xbd36694c	-0.044534013
8	0xbdd6b698	-0.10484046
9	0x3d11eeb2	0.03562803
10	0xbd1f7361	-0.038928393
11	0x3cf8940e	0.030344035
12	0xbdf28d04	-0.11843303
13	0x3cbfb411	0.023401292
14	0x3cd0bd5b	0.025480917
15	0x3b3c208a	0.0028705918
16	0x3f12d2b7	0.57352775
17	0xbd2d5825	-0.04232039
18	0x3ca1cf9e	0.01975232
19	0x3e13406e	0.14380047
20	0x3c808f31	0.015693279
21	0xbe8198c2	-0.25311857
22	0x3e054c4b	0.13017385
23	0xbe2b8163	-0.16748576
24	0x3d95356f	0.07285582
25	0xbd6549db	-0.055978637
26	0x3d515a51	0.051111523
27	0x3d4cc98a	0.04999689
28	0x3cb4ed87	0.022085918
29	0x3d045759	0.032309864
30	0xbf792fd1	-0.9733859
31	0x3f50b922	0.8153249
32	0x3eb19fc8	0.34692216
33	0x3ce2c796	0.02768306
34	0x3b429ec2	0.0029696678
35	0x3bd86f09	0.0066050333
36	0xbdfa2e1d	-0.12215827
37	0x3d3456ee	0.044028215
38	0x3c0e73c0	0.008694589
39	0x3bd43c31	0.006476902
40	0x3ec35fbf	0.38158986
41	0xbdaab377	-0.083350115
42	0x3eb4840c	0.35256994
43	0xbc341fdb	-0.010993923
44	0x3d72a49a	0.059239008
45	0x3e741e15	0.238396
46	0xbb9cc6e4	-0.004784452
47	0xbce4e217	-0.02793984
48	0x3d8e3f7e	0.06945704
49	0x3ad1095a	0.0015948222
50	0xbd1a39fd	-0.03765296
51	0x3f382d0a	0.71943724
52	0xbe03c30b	-0.12867372
53	0xbe777b6a	-0.24168172
54	0xbd40be51	-0.0470565
55	0x3cee351e	0.029078063
56	0x3ff03c16	1.8768337
57	0xbf7e3548	-0.9930005
58	0x3effd2f9	0.49965647
59	0x3ab66d35	0.0013918044
60	0x3d177621	0.03697789
61	0x3e37b23c	0.17939085
62	0xbe8cf615	-0.27531496
63	0xbc6ef7a4	-0.014585409
64	0xbd9e4c93	-0.07729449
65	0x3d3139db	0.043268066
66	0x3c5a46bf	0.013322531
67	0xbe895ab9	-0.26827028
68	0xbe3c16e2	-0.18368104
69	0xbceb588c	-0.028728746
70	0xbdb49baf	-0.08818757
71	0x3db4e93d	0.08833549
72	0x3d4c5a5d	0.049890865
73	0x3d1a63ec	0.03769295
74	0x3bb8ec00	0.005643368
75	0x3d3a0d01	0.045422558
76	0x3c9e8cbd	0.019354219
77	0xbdb1b1cf	-0.086764924
78	0xbd0f6b21	-0.035014275
79	0x3c83b536	0.016077619
80	0x3db7774c	0.08958301
81	0xbba24b10	-0.004952796
82	0x3ea975c9	0.33097675
83	0x3d388fa1	0.04505885
84	0xbbdd202c	-0.00674822
85	0x3e7c47a9	0.24636711
86	0x3e15ba0d	0.14621754
87	0x3eb33de6	0.35008162
88	0xbdde629c	-0.10858652
89	0x3db61173	0.08890047
90	0x3fae2b54	1.3606973
91	0x3caced60	0.021109283
92	0x3cc275c6	0.0237378
93	0x3e169ae2	0.1470752
94	0xbf38fd77	-0.72261757
95	0xbe6ae0db	-0.22937338
96	0xbcc99276	-0.02460597
97	0x3d8fdea2	0.07024886
98	0x3caad901	0.020855429
99	0xbc04a031	-0.008094833
100	0xbd6b7d0d	-0.057492305
101	0xbd809dbc	-0.062800854
102	0xbc525fb3	-0.012840199
103	0xbe105a41	-0.14096929
104	0x3f3e3ff0	0.7431631
105	0x3daacc15	0.08339707
106	0x3ed99f39	0.4250429
107	0x3d73e4c8	0.059544355
108	0xbd80564a	-0.06266458
109	0xbe48fa33	-0.19626693
110	0x3c4417ba	0.0119685475
111	0x3cf21651	0.029551657
112	0x3d5b59f7	0.053552594
113	0x3dc09937	0.094042234
114	0xbd97978e	-0.07401954
115	0x3d14358d	0.036183883
116	0xbda31af2	-0.07964124
117	0xbe5d1cb2	-0.21592978
118	0x3c24188a	0.010015616
119	0x3eaf7a4a	0.34272987
120	0x3e2e9c8b	0.17051904
121	0x3ef1294d	0.47101822
122	0xbeadacb6	-0.3392083
123	0xbc82b3d5	-0.015954891
124	0x3dcac8ba	0.09901567
125	0xbd39c785	-0.045356292
126	0x3effbc02	0.49948126
127	0x3f14b6e7	0.58091587
128	0xbcefe189	-0.029282348
129	0x3c3bdc36	0.011466077
130	0xbdc1559b	-0.09440156
131	0x3f76f4ce	0.9646729
132	0xbe60b4be	-0.21943948
133	0x3d85d840	0.06535387
134	0x3dc759f0	0.09733951
135	0xbd15e221	-0.036592606
136	0xbab7f3f6	-0.0014034498
137	0x3cef4294	0.029206552
138	0xbc9073a0	-0.01763326
139	0x3dc9a9a8	0.098468125
140	0xbd92ff26	-0.07177572
141	0x3b01124f	0.001969475
142	0x3c476013	0.012168902
143	0x3b01c881	0.0019803348
144	0x3db392be	0.08768223
145	0x3df46845	0.1193395
146	0x3f3e7474	0.74396443
147	0xbc1101be	-0.008850513
148	0xbbef4ffa	-0.007303235
149	0xbed857df	-0.4225454
150	0x3e294d32	0.16533354
151	0x3d8bd92b	0.06828531
152	0x3c3018f5	0.010748138
153	0xbc9a6a75	-0.01884959
154	0x3e2c4d10	0.16826272
155	0xbd9a89e2	-0.0754583
156	0xbd794808	-0.06085971
157	0x3d5d4c62	0.054027922
158	0x3f8748fb	1.0569147
159	0x3ebdcd65	0.37070766
160	0x3cdbacfe	0.026815888
161	0x3d8527e9	0.06501753
162	0x3c9990af	0.018745748
163	0x3c9ef7a3	0.019405192
164	0x3c63bc3a	0.013899857
165	0x3c920f1e	0.017829474
166	0xbdb44c5f	-0.08803629
167	0xbbb9832e	-0.00566139
168	0x3d963271	0.0733384
169	0xbc17274a	-0.009225676
170	0x3e19afdc	0.15008491
171	0x3dda8e78	0.10671705
172	0x3c85a99e	0.016316231
173	0xbab32e4f	-0.0013670417
174	0x3db1f12e	0.086885795
175	0x3d888e61	0.066677816
176	0x3a648c1e	0.0008718389
177	0x3e32e5e9	0.17470516
178	0x3c9ac47a	0.018892515
179	0x3dbfcf7e	0.09365748
180	0x3dad5cfb	0.08465
181	0xbeaa5cca	-0.33273917
182	0xbc830528	-0.01599367
183	0xbd04bdeb	-0.032407682
184	0x3eafeb6f	0.3435931
185	0x3e381f10	0.179806
186	0x3f8ca525	1.0987898
187	0xbe278a0e	-0.16361257
188	0x3d7e43fa	0.062076546
189	0xbccdeafc	-0.025136463
190	0xbe3ee16a	-0.18640676
191	0xbb5cb252	-0.0033675623
192	0xbcf13426	-0.029443812
193	0x3d9363f6	0.071968004
194	0xbd5f4dd0	-0.054517567
195	0x3d10916d	0.03529494
196	0x3d206799	0.0391613
197	0xbda05bf3	-0.07830038
198	0x3d9fd22f	0.07803761
199	0x3da1fe0b	0.07909783
200	0x3d23272b	0.039832275
201	0x3d9c6b46	0.07637648
202	0x3c07b743	0.008283439
203	0xbb000439	-0.0019533767
204	0x3bf3f936	0.0074454797
205	0x3c9d720d	0.019219423
206	0xbd8b8a61	-0.06813503
207	0x3bab86cf	0.0052345763
208	0xb98a5778	-0.0002638658
209	0xbd184b84	-0.037181392
210	0x3f856544	1.0421529
211	0xbc8807a0	-0.016605198
212	0xbcfb168e	-0.030650403
213	0x3e8135dc	0.25236404
214	0xbd07b42f	-0.03313082
215	0xbe263638	-0.1623162
216	0x3d442ca3	0.04789413
217	0xbbbd9aa0	-0.005786255
218	0x3ee8b864	0.4545318
219	0x3cb0fc4f	0.021604685
220	0x3a30118e	0.0006716483
221	0xbcc334b6	-0.023828845
222	0xc000af98	-2.0107174
223	0x3c2f4b9b	0.010699178
224	0x3e64dce0	0.22349882
225	0x3d1f5d40	0.03890729
226	0x3d192db9	0.03739712
227	0xbcdeef61	-0.027213754
228	0xbcdf7a93	-0.027280128
229	0xbdaaa6ad	-0.08332572
230	0xbd840848	-0.06446892
231	0x3dd30f1a	0.10305615
232	0x3e766def	0.24065374
233	0x3e4c0dc8	0.19927132
234	0xbea36f9f	-0.31921098
235	0x3c12b2f7	0.008953801
236	0xbc804efd	-0.015662665
237	0x3e912da7	0.28355142
238	0x3dca8f79	0.098906465
239	0xbe27be45	-0.16381176
240	0x3cb83ab1	0.022488924
241	0xbae1332f	-0.0017181392
242	0x3c61b677	0.013776413
243	0xbc846d7e	-0.016165491
244	0xbce2d5a8	-0.02768977
245	0xbe914038	-0.28369308
246	0xbbe57bca	-0.007003282
247	0xbe8622be	-0.2619838
248	0x3d9b0b94	0.07570568
249	0x3efa480d	0.48883095
250	0x3f3540e1	0.7080212
251	0xbabc1a7b	-0.0014351154
252	0x3e2b7590	0.16744065
253	0xbc97bc72	-0.018522475
254	0x3def4794	0.11683574
255	0xbdad65f1	-0.084667094

bias f4 [4]
0	0x3e6c16a1	0.23055507
1	0xbe383e38	-0.17992485
2	0x3eaea43f	0.34109685
3	0x3ee29c4f	0.4425988
