RLSnake/model/wariant1.pth (torch, 8944 bytes, 6 tensors)

weight f4 [28, 14]
00000000: 84ff dfbd acf2 f4bc d3a6 71be 806e d8bd
00000010: fc29 29bf e09f edbd f4e3 a4bf 1505 85be
00000020: 3674 b1be 8ed9 8ebd 367a b8be 31ac e03e
00000030: 8894 42bf fcfb 4cbd 3b66 83bf 54a8 58bf
00000040: da60 903e fcaa 1bbf cdea 9dbd d961 a8be
00000050: 3864 32bf 4c50 15bf 5a6a 063e fd77 51bf
00000060: 7c20 16bf 9aec 5fbe 0537 46bf bc5f a23e
00000070: c849 5f3f 4185 7e3e 511b 003f b23f fc3e
00000080: 02fd 3cbf 10a7 463f 1310 aabf ff31 343f
00000090: bf6b 963f fcd2 ce3e e1f2 88bf 511b 0a3f
000000a0: 509c d1bf fb23 1e3f 1872 2dbf e82e 6b3f
000000b0: 9f23 eabe 0409 8a3e 9a65 313e 2be2 21be
000000c0: 2da7 c4bf 8159 bdbf 7914 bebf ea76 2d3f
000000d0: 7dc0 91bc 6eb4 f6be 9b05 a9bf dd18 39bf
000000e0: 90da 383e 1833 c1bd 4762 a5be ddaf bbbe
000000f0: 530b 05bf 6ec4 e7bc 3177 3dbe 7d25 953e
00000100: 61df c93d 937f 12bd d942 71be c01b 233f
00000110: a21d 5bbf 2210 cf3e 9a2f 1abf 822e 5abf
00000120: 4e81 7ebe 89a8 2abf 5dfa aa3d 605a 4bbe
00000130: ae18 7b3e fd69 c0be 04f4 5ebe 026d babe
00000140: cfde febe 8f83 b9bd 7ab6 72be 3118 79be
00000150: 13e1 02bd 366f 9f3e 0cae 543e 1e24 74bf
00000160: fae3 70bf bed3 7cbf ebf9 9abf ef5b 3abf
00000170: 5b2e 46be f742 063f 9108 9ebf 9253 a73d
00000180: 1fab 94bf fdd8 2dbf d42c 6a3f 0604 04c0
00000190: 155f a6bf 38f6 643e 3e63 d9be 1375 fabe
000001a0: 9196 80bf 12a8 df3f 39ec ee3e 3f57 993f
000001b0: 022f 9cbe 94d7 7dbe 950d b13e 0f24 a7bf
000001c0: 1263 553f df04 9dbf da17 b7be cee5 c6be
000001d0: 0f6d 89bf 8f94 0bbf 5247 56bf 81a3 7c3e
000001e0: 473f f03e 3b73 d33e c53f c3bd 7177 c7be
000001f0: e1e5 9f3c 618e cdbf a8a8 8dbf f455 ce3e
00000200: e283 61bf 4a4c 8bbe 0e25 41be 383d 46bf
00000210: 451b cd3e cb74 16bf 66ff 4ebf 9d35 3ebe
00000220: 095b 163f 68d7 80be 0fb1 dabd 25c6 43bf
00000230: 5885 0c3f ea58 2abf b84b 16be 19b5 353e
00000240: b5cf 4e3f 295e 6b3e 00ee 44bf acb7 8d3e
00000250: bc36 d43e 27dc 963e e757 2b3d 4728 d0be
00000260: 3e5a d93f a9e2 ba3e 59b0 5e3d cfc3 de3d
00000270: 4fdb a5be d337 2cbe ff4d e43b 75a5 96be
00000280: 9d6c a9be b605 843d 0d6f bf3d 561d f0bd
00000290: a2f1 83be c552 8d3e 325b 27be a73d 08be
000002a0: c904 a03f 9584 563f cceb 693b 2961 98bf
000002b0: e6fc 0bbf 07e5 1c3e 03ed 0d3c 8842 a4bf
000002c0: 79b3 96be 9f83 0f3f d9f5 b6bf aea7 313d
000002d0: ba49 e4bf 469b d6be 0f35 333f 474e 80bf
000002e0: 9b00 52be 568a 1abf a8b8 283b 2dd5 2e3f
000002f0: 48be a4bf dbf2 adbf 6704 d5bf b8b8 d2bf
00000300: 36ad af3e 8cd1 c93d 9992 edbb 636e ddbc
00000310: 0478 3fbf 5731 9d3f 0eaa 92bf 5e83 663f
00000320: 4924 71bf 7c20 b93c 6cc6 11c0 347c b0bf
00000330: b919 37be 376c b53f ff5a 63bf 68f5 60bf
00000340: 74b9 19c0 02ab 18bf b24a 45bf ce8f a53e
00000350: 5f2f 8c3c ef6d 5fbd ca84 11bf b97e 1d3e
00000360: 2c69 d43e d45a 39be a04d 8cbf 61cd c3bc
00000370: 31c5 b1be 3fe7 9fbe 6acf 973f 12a8 12bf
00000380: 9128 3b3f cd13 85bf 62c6 c9be 4071 5bbf
00000390: 742f 24bf 76a4 54bf de1a a7be 86be a23e
000003a0: 481b 2d3e ed8d 57be f3d5 42bc d47f f8bd
000003b0: 5cf4 e23e 164d a33f c6d1 383e 6d30 1c3f
000003c0: 452e b6be f914 19bf 4fa0 103d 2391 613f
000003d0: a687 78bf e0a1 8ebf 193c 7ebf a369 19bf
000003e0: 819d 08be ab83 bebf 4f11 5abf 5202 ce3b
000003f0: 40bf 3a3e 58c6 7d3f 5fd1 5d3e efdc 4f3f
-0.109374076 -0.029900871 -0.23598795 -0.10567951 -0.6607969 -0.11602759 -1.2882066 -0.2598044
-0.34658974 -0.06975089 -0.3603074 0.43881372 -0.7600789 -0.050045 -1.0265573 -0.8463185
0.28198892 -0.60807776 -0.077108 -0.32887152 -0.6968417 -0.5832565 0.13126507 -0.8182371
-0.5864332 -0.218676 -0.77427703 0.31713665 0.87221956 0.2485552 0.5004168 0.49267346
-0.7382356 0.7759867 -1.3286155 0.7038879 1.1751631 0.40395343 -1.0699121 0.5394793
-1.6375828 0.6177365 -0.6775222 0.9186845 -0.45730302 0.26960003 0.17323914 -0.15808932
-1.5363518 -1.479294 -1.4849998 0.67759573 -0.01779198 -0.48184532 -1.3204836 -0.72303563
0.18052125 -0.094335735 -0.32301542 -0.3665761 -0.51970404 -0.028291907 -0.18502499 0.29130164
0.09857059 -0.035766196 -0.23560657 0.6371422 -0.8559209 0.40441996 -0.60228884 -0.85227215
-0.24854013 -0.66663414 0.08348534 -0.19858694 0.24521133 -0.37580863 -0.21772772 -0.3641129
-0.49779364 -0.09058296 -0.23702422 -0.24325635 -0.03195293 0.31139535 0.20769519 -0.9536761
-0.94097865 -0.9876059 -1.2107519 -0.7279653 -0.1935362 0.5244593 -1.2346364 0.08170237
-1.1614722 -0.6790922 0.9147465 -2.0627456 -1.2997767 0.2235955 -0.42458528 -0.48917446
-1.0045949 1.7473166 0.466646 1.197975 -0.30504614 -0.24789268 0.34580675 -1.3057879
0.83354294 -1.2267112 -0.35760385 -0.38847202 -1.0736407 -0.5452356 -0.83702576 0.24671747
0.46923277 0.4129885 -0.095336474 -0.38958314 0.019518794 -1.6059076 -1.1067095 0.40299952
-0.8809186 -0.2720664 -0.18861791 -0.7743716 0.40059868 -0.5877196 -0.8085846 -0.1857514
0.5873266 -0.25164342 -0.106783025 -0.7647422 0.54890966 -0.6654192 -0.14677322 0.17744865
0.80785686 0.22985138 -0.7692566 0.27679193 0.4144801 0.29464838 0.041831877 -0.4065573
1.6980665 0.36501053 0.054367397 0.10877191 -0.32393882 -0.1681817 0.0069673057 -0.2942311
-0.33090678 0.06446402 0.09347353 -0.117243454 -0.2577029 0.2760221 -0.16343382 -0.13304769
1.250146 0.83796054 0.0035693524 -1.1904651 -0.5468277 0.15321742 0.008662465 -1.2832804
-0.29433802 0.5606021 -1.4293777 0.043372802 -1.7835 -0.4191534 0.70002836 -1.0023888
-0.20508043 -0.60367334 0.002574483 0.6829403 -1.2870569 -1.3589739 -1.6641968 -1.6462622
0.34311837 0.09854421 -0.007250142 -0.027030176 -0.74792504 1.2280682 -1.1458147 0.900442
-0.9419599 0.022598498 -2.2777357 -1.3787904 -0.17880906 1.417365 -0.88810724 -0.8787446
-2.4019442 -0.5963594 -0.770671 0.32336277 0.017112432 -0.0545482 -0.56843245 0.15380372
0.4148649 -0.18101054 -1.0961189 -0.023901643 -0.34720758 -0.31231114 1.1860173 -0.57287705
0.73108774 -1.0396668 -0.39409167 -0.8571968 -0.6413491 -0.8306345 -0.32637686 0.31785983
0.16904938 -0.21050234 -0.01189183 -0.12133756 0.44327056 1.27579 0.18048772 0.6101139
-0.35582176 -0.59797627 0.035309132 0.88112086 -0.97081983 -1.114315 -0.9931045 -0.59926814
-0.13341333 -1.4883932 -0.8518266 0.0062868977 0.18237019 0.99130774 0.216619 0.8119649

bias f4 [28]
00000000: d4e5 9bbe 1edd b2be d630 afbe 9e97 fabe
00000010: e3d7 75bf 6260 4bbe d6fd eabe 2980 32bf
00000020: 2f13 a03d 450d 3dbf 22e1 f2bf 8b7f f3be
00000030: ce96 a2be e654 fb3e 3e93 7a3e f8d7 3abf
00000040: d360 1cbf fd84 dabe 33b7 1abf f32f edbe
00000050: def2 6cbf 4788 2dbf 69af f1bd 3262 da3f
00000060: c814 95be 592f efbe 5f63 7abe ab31 b7bf
-0.30448782 -0.34934324 -0.34216946 -0.489438 -0.9603254 -0.19860986 -0.45896786 -0.69726807
0.07816159 -0.7384837 -1.8974955 -0.47558245 -0.3175568 0.4908821 0.24470231 -0.7298579
-0.6108524 -0.42679587 -0.6043579 -0.46325645 -0.92558086 -0.6778607 -0.11801035 1.7061217
-0.29117417 -0.4671581 -0.2445197 -1.4312032

weight f4 [28, 28]
00000000: 7b35 c93c aec7 6ebd e477 73be 6368 1c3e
00000010: 1e87 0abe 2ef5 e7bd f704 bebe 29af b1be
00000020: 926d 083e 96d2 dbbe 4778 11be e075 b83e
00000030: 2b0a f9be e3b5 8cbe ee3f a63d 0a1f c6be
00000040: 6126 d1be 24ce 163d 646b 8bbc 1158 e8bd
00000050: 57e9 00be 9d78 debb 17b4 d63d 1d9a 28bd
00000060: 7358 1cbf 787f cdbe cf2d 92bd 147e 97be
00000070: 7390 39bf d208 433f 0e66 00be 962d 9bbf
00000080: 6b5a 59bf 021e 70be 6398 a83e b662 ef3e
00000090: 4fff db3e ae52 96be ce04 173f 98ad b3bd
000000a0: 1b60 48bf 3b18 0cbf 7b13 7abf e872 2a3e
000000b0: 74cb 143f c269 36bd bbdf 19bf 0a78 0a3e
000000c0: c0e2 6ebf 464b 1b3d 2460 eb3d 6806 b1be
000000d0: 5c3b ca3d 76ee 153f 4f49 34bf 123f 16be
000000e0: 41cc 583e b378 3c3d 8fd2 c1be a837 31bb
000000f0: 62c1 5abe 3fa2 74be 2525 72be 3d02 3cbe
00000100: 8284 96bd 8599 7dbe 912d 04bf 0943 d43d
00000110: 34d7 8ebe 562c 06bf bb4a 9ebe 81ba b8be
00000120: fd5d f1bd 3d22 173f 7468 193f b50c 7a3e
00000130: de9d 083f 2c54 4dbf b337 ac3e c64d 40bf
00000140: 393a aabe 22c9 febe 965b b5bd 93be d43e
00000150: 2b73 163e a73f 973e 73a0 9cbe 6f52 263f
00000160: d00d 46bd 5712 303f ce3f 91bf 894f 6a3f
00000170: 7d3d 34bf d889 203e 29a9 043f 3668 9ebe
00000180: fb4f a23e 56b7 ecbe 03e5 3cbe 2b40 573f
00000190: 3a50 bd3e adc4 14bf f406 27bf 22a6 93bf
000001a0: cf91 1c3e 310d df3d 5316 28bf ef1a cdbe
000001b0: 6f2c 7bbf c6f7 013c 40d8 063f e2a2 d0bf
000001c0: 700a 35bd 153c e8be 2827 16be 567c 11be
000001d0: b907 89be 6e6c 1dbe d508 ebbe 5f15 fdbe
000001e0: c899 76bd 2e22 983e 886c a3bd 8a66 7e3e
000001f0: b5a1 a03d c9a9 0abe bbd2 57bc 6596 67bd
00000200: 2112 07be 5343 80be b745 933d ef90 a0bb
00000210: f8e4 8f3e 2a9d 0bbe 7eea 92be 6a86 ebbd
00000220: d19e 87be f465 a33d 1b46 1bbe 361e c0bd
00000230: fa0f 75be f867 50be 0ec5 25be 65c3 1cbe
00000240: 5b99 c3bb f942 21be 1e1e 01be 185c 1dbd
00000250: a201 7dbe 1bac 763d 137d 58be e207 553c
00000260: 3161 79be d9e8 3d3c ba40 45bd 799e da3b
00000270: 81ee 8abb f9eb a2bd cebc 983c 7dc7 12be
00000280: fdd8 bd3c d8d8 3abc 2fb2 39be 70ca 02be
00000290: 5bc6 12be bb8c 96be 850b c03d fe3c 43bd
000002a0: de9d 083f 1f24 a63f 716b 673e 9570 0640
000002b0: ae60 fd3e 71a4 583f 3f81 423f 81fc de3f
000002c0: cbcd 3e40 87e2 c03f 2528 02bd 52b6 b6be
000002d0: 09c8 0c3f 18c5 8d3f bb9b 983f a51b b3be
000002e0: 3613 383f 4750 253f 2bf7 23bf 012f cb3f
000002f0: dad7 213f dbaf 0b3f e228 0b3e 0d2a 41bf
00000300: 3f84 383f 0133 14bf 1481 e83f fb55 30be
00000310: 41b3 7a3e 853e b83c 5971 b5bf 296e 47bf
00000320: 8f70 4d3e d5b1 b7bc b6b0 70bf 4729 8ebf
00000330: c108 883d 857b 4ebf 41c2 52bc 523f 8abe
00000340: 19fa 09be d1f7 ae3d fe62 e2bd f0b5 b5be
00000350: c173 64bf 2df5 833e 0501 af3e 60aa 59bf
00000360: 19ae b5be 71e6 54be f18b 7fbe 8cb7 8bbf
00000370: f989 843f 9b6f 9abe 2317 dbbe 554c d33e
00000380: 4afc b0bd c078 803e 5714 a1bf e340 813f
00000390: e587 f83e 2db4 93be 93ab cabe 686d aebf
000003a0: 6281 bc3e aea2 0140 2898 01bf 4a6a 773c
000003b0: 88bb 70bf 6a41 87be 064e 853e a359 5a3e
000003c0: e398 893d f3f8 7bbf 6a3c 96bf 4909 f03e
000003d0: 0712 dbbf e4fd b8bd 59fa 0f3e 34f5 b6bd
000003e0: 2d1e 70be 3077 28bf 6b15 053e ba50 ccbd
000003f0: 713b 80bc 0b38 153f 93e4 be3d 1100 953f
0.024561634 -0.0582959 -0.23776203 0.15274195 -0.13528106 -0.11326061 -0.37113163 -0.3470395
0.13323048 -0.42934102 -0.14206038 0.3602743 -0.4864057 -0.2748252 0.08117662 -0.38695556
-0.40849593 0.036817685 -0.017018981 -0.11344922 -0.12589012 -0.0067892806 0.10483568 -0.0411626
-0.6107246 -0.40136313 -0.071376435 -0.29588377 -0.72486037 0.76185334 -0.12538931 -1.2123287
-0.8490359 -0.23448947 0.32928762 0.46754998 0.42968222 -0.29359955 0.58991706 -0.08773345
-0.78271645 -0.5472447 -0.97685975 0.16645396 0.58122945 -0.044534452 -0.6010701 0.13522354
-0.93314743 0.037913583 0.11492947 -0.345752 0.09874603 0.5856699 -0.7042436 -0.14672497
0.21171667 0.046013545 -0.37855956 -0.002704123 -0.21362832 -0.23890017 -0.23646982 -0.18360229
-0.073494926 -0.24765594 -0.5163203 0.103643484 -0.27898562 -0.524114 -0.3091639 -0.3607979
-0.11785505 0.5903662 0.5992501 0.2441891 0.53365886 -0.8020656 0.33636245 -0.7511867
-0.33247545 -0.49762827 -0.08855359 0.41551647 0.1469237 0.2954075 -0.30591163 0.64969534
-0.048353016 0.68777984 -1.1347597 0.9152761 -0.70406324 0.15677583 0.5182062 -0.30938882
0.31701645 -0.46233624 -0.18446736 0.8408229 0.3697527 -0.58112603 -0.65244985 -1.1535075
0.15289997 0.10891188 -0.65659064 -0.4005961 -0.98114675 0.007932609 0.5267372 -1.6299708
-0.044199407 -0.4535834 -0.14663374 -0.14207587 -0.26763704 -0.15373394 -0.45905176 -0.49430367
-0.06020525 0.29713577 -0.07979685 0.24843803 0.07843343 -0.1354133 -0.013172801 -0.05653991
-0.1319051 -0.25051364 0.071910314 -0.00490009 0.28104377 -0.13634172 -0.28694528 -0.11500247
-0.26488355 0.079784304 -0.15163462 -0.09380762 -0.23931876 -0.20352161 -0.16188452 -0.15308912
-0.005969209 -0.15748204 -0.12609145 -0.038417906 -0.24707654 0.060222726 -0.21141462 0.013002368
-0.24353482 0.01159116 -0.04815743 0.0066717234 -0.0042398577 -0.079551645 0.018644717 -0.14333911
0.023174757 -0.011404239 -0.18134378 -0.12772536 -0.14333479 -0.29404244 0.09377197 -0.04766559
0.53365886 1.2979773 0.2259958 2.1006215 0.49487823 0.8462592 0.75978464 1.7420808
2.9813106 1.5069131 -0.031776566 -0.35685974 0.5499273 1.1075773 1.1922525 -0.3498203
0.71904314 0.6457562 -0.64049023 1.587372 0.6321999 0.5456521 0.13589814 -0.7545479
0.7207679 -0.57890326 1.8164392 -0.17220299 0.24482442 0.02249075 -1.4175216 -0.77902466
0.20062469 -0.022423664 -0.9401964 -1.1106347 0.06642295 -0.80657226 -0.012863697 -0.27001435
-0.13474311 0.08543361 -0.110540375 -0.3549037 -0.89239126 0.25772992 0.34180465 -0.85025597
-0.35484388 -0.20791031 -0.24955727 -1.0915389 1.0354606 -0.30163273 -0.4279109 0.41269174
-0.0864187 0.25092125 -1.2584332 1.0097927 0.4854118 -0.288484 -0.39584026 -1.3627138
0.3681746 2.0255542 -0.50622797 0.015101025 -0.9403615 -0.26417094 0.2603609 0.21323256
0.06718614 -0.9842674 -1.1737187 0.46882084 -1.7114877 -0.09032801 0.14060344 -0.089334875
-0.23449011 -0.65806866 0.12996452 -0.09976335 -0.015653344 0.5828864 0.09320941 1.1640645

bias f4 [28]
00000000: 0399 e8be 7601 4bbf 3326 5cbf 5cc6 653b
00000010: a1d3 2cbf 5461 17be 2f69 453f f747 783d
00000020: 441e 44be 8822 a0bf e81a 53be 5163 b3be
00000030: f616 81be 7da3 acbe d491 b2bd 797c 5ebf
00000040: 71c9 9e3d 9dc5 84be ae25 243f d5a0 f8be
00000050: ca55 e1be f0a9 6dbf 560d 5bbf c877 c33e
00000060: 9355 d9be 5c12 28bf 5035 d3be cf71 1fbe
-0.4542924 -0.79299104 -0.8599579 0.0035060858 -0.6751042 -0.14783221 0.7711362 0.060615506
-0.1915217 -1.2510538 -0.20615733 -0.3503671 -0.2521283 -0.33718482 -0.08719221 -0.8690868
0.07753266 -0.25932017 0.64119995 -0.48560205 -0.44010764 -0.9283743 -0.85567224 0.38177323
-0.424481 -0.65653014 -0.41251612 -0.15570758

weight f4 [4, 28]
00000000: 11c0 c53d c51d 78be 6090 f93e bffe 593e
00000010: e09d 2a3f 2bfe d33d 7fe7 dbbd aff9 103e
00000020: 20f8 d2bd 812a 043e 30e7 b7bd 0880 28be
00000030: bd4c 843c 271b 93be 189c 2b3d 6bca 8c3c
00000040: 0055 1b3e 7c13 42ba 1cdb e1bd 9514 5bbe
00000050: db00 443e febe 6dbd 1fa2 6c3d fa87 183d
00000060: 89ed 523d c265 713f 62ea f63c 329e 643e
00000070: 784b 523f a7b3 0340 26e2 68be 7177 5fbf
00000080: 4b0f dd3e eba2 373d 16ff a4bd b7c3 03bd
00000090: 5312 70bc e33e 9ebc 3e24 d13e dc97 e93e
000000a0: b48d 19be b839 ad3d 75eb ce3d 533f 593e
000000b0: 6f19 5f3e efac 2f3e b847 a93e ee21 d93e
000000c0: b4b9 483f 9cc7 15be 967f 19bd 2725 003d
000000d0: 8545 18bd f84c 533e 349b 1dbe dd47 4f3e
000000e0: db8b fc3c 09e6 aa3f 19ba 25be dcb1 03bf
000000f0: 9989 ff3d cb96 383d 42db 89be c8e8 473e
00000100: e54b 4fbd de8b c03e d6e8 a43e 4ce5 913b
00000110: f777 433d f27c 5dbd 8f23 f3bc 6894 71bc
00000120: ce8b 513d 67df c9bb c419 e2bd 1932 94be
00000130: 2064 a9be 1b7e 7f3e 9728 5e3d 0341 0abe
00000140: 1b84 e63c e390 f63f ffc3 243e 2fd9 a9b9
00000150: b7a6 0b3e 96ea 663f c71d d1bd 7d22 d8bd
00000160: 724f 593e a7bc c73d d865 b4be ca1d b1bf
00000170: 92a4 d63e 2e91 d03d f972 b03f 7a68 e03c
00000180: a68c c2bc a4b2 b73c c231 0e3e 3989 8b3e
00000190: 2013 b13e 3846 93bc a860 8cbe 0168 00bd
000001a0: 79f2 b3bc eba3 743f 5ae4 243f 4cb3 963e
000001b0: e6f0 6a3c e883 9c3e 8e19 8c3e c67e af3d
0.096557744 -0.24230106 0.48742962 0.21288584 0.6664715 0.10351213 -0.10737514 0.14157747
-0.10301232 0.12906839 -0.089796424 -0.1645509 0.016149873 -0.28731653 0.04189691 0.017186364
0.15169144 -0.0007403416 -0.1102812 -0.2139457 0.19140951 -0.058043472 0.0577718 0.037239052
0.051496062 0.94295895 0.03014106 0.22325972 0.82146406 2.05784 -0.22742519 -0.8729163
0.4317573 0.044833105 -0.08056466 -0.03216907 -0.014652806 -0.019317096 0.40847963 0.45623672
-0.14995462 0.084582746 0.101035036 0.21215563 0.21787046 0.17155813 0.3306253 0.424087
0.7840836 -0.14626926 -0.03747519 0.03128543 -0.037175674 0.2063483 -0.15391237 0.20242257
0.030828407 1.3351451 -0.16184272 -0.51443267 0.124774165 0.045065682 -0.26925093 0.19522393
-0.050609488 0.3760671 0.3220889 0.004452383 0.04772183 -0.054074235 -0.029680042 -0.014744855
0.05115872 -0.006160665 -0.11040071 -0.2894447 -0.33084202 0.24950449 0.05423793 -0.13501363
0.028139165 1.9262966 0.16090392 -0.00032396006 0.13637815 0.902017 -0.10210758 -0.10553453
0.21221712 0.097527795 -0.3523395 -1.3837216 0.41922432 0.10183941 1.3785087 0.027393568
-0.023748707 0.02242405 0.13886169 0.2725313 0.34584904 -0.017977819 -0.27417493 -0.031349186
-0.021966206 0.9556262 0.64410937 0.29433668 0.014339661 0.30569386 0.27363247 0.08569102

bias f4 [4]
00000000: b6b6 3cbe 1e76 0dbf d5b3 443e 185f 5f3e
-0.18429074 -0.5525836 0.19209225 0.21813619
