RLSnake/model/wariant2.pth (torch, 25170 bytes, 6 tensors)

weight f4 [64, 14]
000000 ca fe 1c bf 46 06 c1 be c0 59 c3 be b7 8f c1 bd
       -0.6132628 -0.377001 -0.3815441 -0.094512396
000010 7b 22 64 be 05 45 c5 bd 5c 64 b8 be e9 38 47 3e
       -0.22278778 -0.09632305 -0.36014068 0.19455303
000020 59 30 8f be 2e 42 dc be b6 3e 4b 3e 1f 5e 01 bf
       -0.27966574 -0.4301924 0.19848141 -0.5053424
000030 c8 24 0d 3f ac a0 c1 be 85 c7 83 3f 84 57 96 bf
       0.5513425 -0.37817895 1.0295264 -1.1745458
000040 8c a8 96 be 2d d3 21 3f 40 f5 41 3f 17 41 78 be
       -0.29425466 0.63212854 0.75764847 -0.2424358
000050 94 3e 9c bf d8 40 6d 3f 33 1f 15 bf 1c 99 bf be
       -1.2206597 0.9267707 -0.5825073 -0.374215
000060 f1 c7 b5 3d b8 81 8a be 57 23 c3 3e 12 8a f2 be
       0.088760264 -0.27052093 0.381129 -0.47370964
000070 6d 15 32 3e 9a 4f a1 be db 51 11 3c ab fa 47 bf
       0.17390986 -0.31506044 0.0088696135 -0.78116864
000080 ed 50 11 3f 6d b9 ea 3d ef 7f 83 3e 28 57 aa be
       0.5676411 0.114611484 0.25683543 -0.3326962
000090 3f 46 94 bd e5 07 5a bf c8 6e 6c 3f 17 31 8d be
       -0.07239961 -0.85168296 0.9235654 -0.27576515
0000a0 b2 5a 93 3f fd 88 39 bf 12 6a a3 bf 56 6f fd 3e
       1.1512053 -0.7247465 -1.2766745 0.49499005
0000b0 2f 64 01 3f ea 72 97 bf 6c 49 01 bf cb 84 0b 3f
       0.50543493 -1.1831944 -0.5050266 0.544995
0000c0 b5 f9 43 3f 02 af 32 bf 6d 31 69 3f 21 08 a4 bd
       0.765529 -0.6979829 0.9109104 -0.08009363
0000d0 91 7c 15 3e 79 b9 a7 be 4b be 2d 3e 93 cc be bf
       0.145983 -0.32758692 0.16967122 -1.4906181
0000e0 88 ed 2e be 3b c2 db bc fc 62 94 be f1 e4 0b be
       -0.17082798 -0.026826015 -0.2898177 -0.13661553
0000f0 8b 95 b1 3d 4f 46 b3 bd 46 0c 24 be 6f 8f 16 bd
       0.08671101 -0.08753645 -0.16020307 -0.036757883
000100 e8 ee 83 be c4 97 0c be c9 7c 89 bd 77 06 85 be
       -0.25768209 -0.13729769 -0.06713254 -0.25981495
000110 28 5b 16 be ea 07 03 3e 34 e6 45 3e 72 64 a3 bf
       -0.14683211 0.12795988 0.19326097 -1.2765028
000120 ea 46 84 bf 99 f0 4f bf 38 9d 6a bf ed 67 05 3e
       -1.0334141 -0.812265 -0.91646147 0.13027926
000130 78 ff 85 bf 47 c2 c1 3e fb 6b 95 3f 04 3f 54 bd
       -1.0468588 0.37843534 1.1673578 -0.05181791
000140 2a 6c ff 3e 23 82 02 be 74 7c 04 bf c6 af 59 bf
       0.4988721 -0.12744956 -0.517524 -0.85033834
000150 67 48 ad be 1b 55 4d bf 26 84 b6 bd fc 22 7a bf
       -0.338443 -0.80207986 -0.08911924 -0.9770963
000160 72 c0 08 bf ae ee 1b bf 35 2c dd be 52 d2 4e bf
       -0.5341865 -0.6091107 -0.4319779 -0.80789673
000170 82 c0 01 bb af 8b 13 bf 0c 6d 40 bf 3c 5c d5 3e
       -0.0019798581 -0.57635015 -0.7516639 0.41671932
000180 22 96 3c bf 09 a8 86 be 01 84 b9 3e 8e 12 ba 3e
       -0.73666584 -0.26300076 0.36233523 0.3634228
000190 c4 6c 24 bf 54 6d 9a 3e bf b9 0e be fc aa 9c 3d
       -0.64228463 0.30161536 -0.13938044 0.076498
0001a0 fe cf 88 bf 40 c4 95 bf ca a8 c2 be fb 99 0c bf
       -1.0688474 -1.1700516 -0.380194 -0.54922456
0001b0 03 cf 0f bf af 4f 3c 3f 24 2f 17 bf 6b 41 a3 3c
       -0.5617525 0.7355909 -0.59056306 0.019928655
0001c0 0a f7 8e be 8f 4d 12 be a2 f1 97 3e a8 0d 56 bf
       -0.2792285 -0.14287399 0.2967654 -0.8361459
0001d0 d1 5e 37 bf 13 0e 14 bf f3 30 38 3f c4 f6 90 bd
       -0.71629053 -0.57833976 0.7194969 -0.07078317
0001e0 69 f1 06 3c e3 70 82 bf 84 3e 86 be 74 fe 55 bf
       0.008236268 -1.01907 -0.2621957 -0.8359139
0001f0 11 01 15 bf 15 f6 6a bf 4d ed 9c 3c f8 b6 ae 3e
       -0.5820475 -0.9178174 0.019156123 0.3412397
000200 ec c2 36 bf 44 26 a8 3f 06 58 95 3e 81 ea ed 3e
       -0.7139118 1.3136678 0.2916872 0.46467975
000210 02 90 c6 be 01 cb de be d4 a1 b7 3d 23 03 56 bf
       -0.38781744 -0.43514255 0.08966413 -0.83598536
000220 90 3e 29 bf 47 9b 7f be 5b 19 ba be c6 6f 13 bf
       -0.6611109 -0.24961577 -0.3634747 -0.5759243
000230 7e e4 ab 3b 22 4f aa 3e 12 ea d2 be ed 73 ef 3e
       0.0052457443 0.332635 -0.41194206 0.46768132
000240 a9 61 8a bd 9d 52 4a bf 0f 98 12 3f 02 7a a5 3e
       -0.067569084 -0.7903231 0.57263273 0.32319647
000250 3d eb 64 bf 86 bc 69 3f 22 1e 09 bf d0 50 bb 3e
       -0.89421445 0.9130329 -0.53561604 0.36585093
000260 45 0b 5e bf 6b 05 3d 3e 38 85 d7 be 08 13 35 bf
       -0.86735946 0.18459098 -0.42093825 -0.70732164
000270 16 a3 24 bf d2 c8 4d 3e f1 2a b2 3e dd 12 49 3e
       -0.6431135 0.20096138 0.34798387 0.19636102
000280 c0 22 1e bf df 35 96 3d 2b 18 f2 be b9 d5 2b bf
       -0.61771774 0.07334494 -0.47284064 -0.6712299
000290 41 d9 4d be db 83 5d 3e 03 2e 21 3f 20 1d 1d be
       -0.20102407 0.2163233 0.62960833 -0.15343142
0002a0 4a 6b 05 be e9 56 fe 3e 54 60 d6 be 10 48 41 3f
       -0.13029209 0.49675682 -0.41870368 0.75500584
0002b0 f4 b7 dc be fc 8a 96 be 97 9f 4c 3f 1e ab 05 bf
       -0.43109095 -0.29402912 0.79931015 -0.5221423
0002c0 24 f8 47 bf c6 84 7e 3f bc 3c 32 bd cf 4c c6 be
       -0.7811301 0.99421346 -0.043514952 -0.38730475
0002d0 89 49 4d be 20 63 cf be 07 f5 9e 3f d1 48 0b 3e
       -0.20047583 -0.40505314 1.2418526 0.13601996
0002e0 f5 f4 ea 3e a1 2f e6 bd 35 e4 94 bf d3 63 04 bf
       0.45890012 -0.11239553 -1.1632143 -0.5171482
0002f0 8d 5a 4d 3f 79 73 b0 3e e8 34 81 3f 3c d6 bc 3e
       0.80216295 0.344631 1.0094271 0.36882198
000300 92 8f 23 3f 0a ac b6 bf ec b8 1b 3f 05 98 00 3f
       0.63890946 -1.4271252 0.60829043 0.50231963
000310 ca e9 0e 3f 60 a1 ef be 1e f8 17 bf 38 bb 0b 3f
       0.55825484 -0.46802807 -0.5936297 0.5458255
000320 2e 27 a5 be ac 83 56 be 3d 50 ee be fe 29 5a 3f
       -0.32256454 -0.20948666 -0.46545592 0.85220325
000330 9d af 60 bf 20 bf 1f 3f 51 aa 8f bf ab fb 89 bf
       -0.87767965 0.6240101 -1.1223851 -1.0779928
000340 e9 69 34 bf 41 4c d0 be 5a 8d 9b be 20 33 a6 3d
       -0.70474106 -0.40683177 -0.3038128 0.0811522
000350 75 54 10 3e 18 7d 59 3e 3a 6d 97 be 01 a4 95 3e
       0.14094718 0.21239126 -0.2957552 0.29226688
000360 f1 1a 06 be c9 fa bd be 13 51 6c bd e8 10 a7 bd
       -0.13096215 -0.37105396 -0.057694506 -0.081575215
000370 e9 a3 9f be ed f2 8f be 1c 5e f9 be 93 d9 23 3e
       -0.3117974 -0.28115025 -0.48704612 0.16000967
000380 c3 17 56 be 82 95 bb bb 13 60 b4 3c bc fe 95 be
       -0.20907502 -0.00572461 0.022018468 -0.2929591
000390 71 31 a3 3d df 46 be 3e ce b8 e4 bd 76 18 09 3e
       0.079684146 0.37163445 -0.11168061 0.13388237
0003a0 63 53 96 be 95 d4 40 3e 97 41 20 3f 65 98 59 bf
       -0.29360494 0.18831094 0.6260008 -0.8499816
0003b0 de f1 3b 3f 30 06 3c bf 3d 2c d1 3e 9e 3d 1e 3e
       0.73415935 -0.7344694 0.40854064 0.15453193
0003c0 4c 4c 95 3e 4e ea 77 3e 7c 30 9f be ae 51 85 bf
       0.29159772 0.24210474 -0.31091678 -1.0415552
0003d0 43 68 65 3f 74 1e 77 3f 30 9b 7c 3f 80 32 b5 3e
       0.89612216 0.9653084 0.986743 0.3539009
0003e0 e1 70 a8 3d 15 59 4d 3f 44 ba 00 3f d3 1a ec 3e
       0.08224655 0.80214053 0.5028422 0.46114215
0003f0 d3 d8 f8 bd 5c 14 ac bd 8f 09 87 3e f4 26 06 3f
       -0.12150731 -0.08402321 0.2637448 0.5240319

bias f4 [64]
000000 39 8f d2 be 07 df e8 3e 95 83 15 be 0d f6 23 be
       -0.41124895 0.45482656 -0.14600976 -0.1601183
000010 c1 50 fd bd 24 3d 8c bd c3 09 a5 bc 58 29 bd be
       -0.12368918 -0.06847599 -0.020146256 -0.36945605
000020 b0 46 60 be b9 df ac 3e 92 92 ea be de 02 19 be
       -0.21901965 0.33764437 -0.4581495 -0.149425
000030 48 28 86 be 55 ea 7f 3e 20 59 43 be 31 da f1 be
       -0.26202607 0.24991734 -0.19076967 -0.4723678
000040 5d c3 a5 bf 89 4f ab bd bd 06 9d 3c 1f 6f 49 3e
       -1.2950245 -0.083647795 0.019168252 0.19671296
000050 15 e7 00 bf 13 20 12 bf 85 13 1a be 9b e1 72 be
       -0.50352603 -0.5708019 -0.15046509 -0.23718874
000060 dd 7d 57 3f 55 77 11 be 0f f6 66 bf 04 88 81 be
       0.8417643 -0.14205678 -0.90219206 -0.25299084
000070 ed 14 43 bd 66 58 9f be 56 b2 7e be f0 d8 b8 be
       -0.04762738 -0.3112213 -0.24872717 -0.3610301
000080 a7 b1 c8 be a6 45 aa be 4c 6f 82 bd 8c 14 61 be
       -0.39198038 -0.33256263 -0.063688844 -0.21980494
000090 f2 3d 68 be 17 23 ee bc a6 c0 48 be 1a 42 12 3d
       -0.2267988 -0.029069467 -0.1960474 0.03570757
0000a0 85 54 f3 bd d2 38 d6 be 12 25 b3 be 5c 57 c7 3e
       -0.11881355 -0.41840225 -0.3498922 0.38933837
0000b0 3d 4b 26 be 3f d1 04 bf 1e 09 a0 be b6 ba a0 bd
       -0.16239639 -0.51881784 -0.31256956 -0.07848112
0000c0 b3 50 61 be 54 39 00 bf d2 05 a6 be 0f fb 93 be
       -0.2200344 -0.50087476 -0.32426316 -0.2890248
0000d0 33 80 0d bc c5 35 89 3d 4e e0 09 bf e5 ff de 3d
       -0.008636522 0.06699709 -0.53857887 0.10888652
0000e0 a3 f0 96 be 97 9d 0d bf 2d 7a e5 be 2c eb 49 be
       -0.29480466 -0.5531859 -0.44819775 -0.19718617
0000f0 92 70 88 be d8 7b c7 bd 3f 9a 00 bf 72 fa 55 be
       -0.26648384 -0.09740418 -0.5023536 -0.20896319

weight f4 [64, 64]
000000 a0 1c 59 3e 0a c5 2c be 45 bd cd bd 28 37 ad 3e
       0.21202326 -0.1687204 -0.10045866 0.33831143
000010 1c 65 1c 3e a5 c0 90 3e da 44 3b 3f 3f 7a 1e bf
       0.15272945 0.28271976 0.73151934 -0.6190528
000020 1e 1c a8 bd d9 f4 90 bf 98 8c 39 3c 6a 3f 0d 3f
       -0.08208488 -1.1324722 0.011325024 0.5517489
000030 36 6f e5 3e bd 57 83 be d4 5c 77 3d a1 49 59 be
       0.4481141 -0.25652876 0.060391262 -0.21219493
000040 03 32 9b be 12 a3 97 be 16 98 bf be 4f 61 d2 bd
       -0.30311593 -0.296166 -0.3742072 -0.102724664
000050 3a da 0e 3e b3 b7 d8 be 44 77 7e 3e 03 e3 86 3e
       0.13950434 -0.4232765 0.24850184 0.2634507
000060 fd 03 25 be 05 40 c6 3e aa c2 30 3e a4 bc d4 bd
       -0.16114803 0.38720718 0.17261758 -0.10387543
000070 07 4a 06 3f 63 cc 08 be fc 17 2c 3e f7 c5 dd 3d
       0.52456707 -0.13359217 0.16806024 0.108287744
000080 ad 7c 2a be d7 1a f1 3e e8 e3 9a 3d bc db 97 be
       -0.16649123 0.4709079 0.07563001 -0.29659832
000090 65 89 d7 3d 75 c9 5f bc ee 1f 52 3f ea 2b e7 3e
       0.10524253 -0.013658871 0.8207997 0.4515069
0000a0 b3 78 35 bd 7f ca 05 3f 03 7f d7 3d 65 bb 09 bf
       -0.04430456 0.5226211 0.105222724 -0.53801566
0000b0 a8 5b fa 3c 76 e1 bf be aa b9 47 3d 83 7f ab be
       0.030561283 -0.374767 0.048761047 -0.3349572
0000c0 a3 85 85 3e 63 e1 8f be 17 f3 d6 bc 35 9b ed 3d
       0.2607852 -0.28101644 -0.026238961 0.11601869
0000d0 78 92 80 bc 53 af 1f bb f0 ae b2 3d a3 e3 79 bd
       -0.015694842 -0.0024365976 0.08724773 -0.061008107
0000e0 78 02 14 bf fa 6f d4 3e ef 1a 37 bd c3 05 09 be
       -0.57816267 0.4149168 -0.04470342 -0.13381104
0000f0 dc b4 16 3e 7c 53 dd 3b be 6f 7b be ac e2 85 3d
       0.1471743 0.006754337 -0.24554345 0.06537375
000100 61 12 45 be 07 30 bb 3c fa 0c 83 3d 19 42 24 be
       -0.19245292 0.02285005 0.063989595 -0.16040839
000110 d9 ca a3 bd 7b 64 91 bd e3 4e e5 bc 6f 65 95 3d
       -0.079976745 -0.07099243 -0.027991718 0.072947375
000120 bf c2 47 3d 2f e6 97 bd 84 31 e0 bd 4f 36 38 bd
       0.04876971 -0.07416951 -0.10946944 -0.044973668
000130 a0 e9 6c 3d fa 2c 33 be 43 08 e6 3c 8a 4e 15 be
       0.05783999 -0.17497626 0.028080111 -0.14580742
000140 1c 4e e7 bc 2a ad 0c be dd f4 7b bd 1f 57 6f bd
       -0.028235488 -0.13737932 -0.061512817 -0.058432695
000150 91 06 9d 3d 7d 80 8a 3d b1 87 ea bd 2b d5 9e bc
       0.07667268 0.067627884 -0.11451662 -0.019388756
000160 46 68 df 3c 00 b9 92 3d 84 65 b6 3b ac 72 92 3d
       0.027271401 0.07164192 0.005566301 0.07150778
000170 8c a4 45 3c b2 41 cb bd 19 bb 2a bd 0f c1 34 3c
       0.012063157 -0.0992464 -0.041682336 0.011032357
000180 33 69 03 bd b3 c4 01 3e 12 54 e4 bd bf 59 a8 bd
       -0.032082748 0.12672691 -0.11148848 -0.08220243
000190 29 b7 a5 bd 34 cb 60 3d 87 ee 89 bd 52 2c 14 3d
       -0.08091576 0.05488129 -0.067349486 0.03617508
0001a0 78 0e 63 be f8 d1 7e 3c 04 39 97 bd 9a 4b 12 bd
       -0.22173488 0.01555299 -0.07383922 -0.03571663
0001b0 0c 4c 65 bd 4f 4b 52 be 98 48 94 bb 85 40 b0 bb
       -0.055980727 -0.2053654 -0.0045252554 -0.005378785
0001c0 2f ae 11 3d c7 b5 b4 3d 4c 16 f9 bb b0 a9 87 3d
       0.035566505 0.08823734 -0.007601535 0.06624162
0001d0 27 33 33 3c 83 93 06 bd 49 43 06 3d 40 c3 8d bc
       0.010937489 -0.032855522 0.032779012 -0.017305017
0001e0 08 92 32 be 79 62 de bd e7 6b aa bd c0 8a 73 bd
       -0.17438519 -0.10858626 -0.08321362 -0.059458494
0001f0 b8 10 93 3d 41 3b db 3d 39 a6 e2 bd e0 cd 60 bc
       0.07180923 0.10704661 -0.11066861 -0.013720959
000200 19 05 b2 bd a0 15 23 bd 5b 05 74 bd 2a 5f ea bd
       -0.086923786 -0.039815545 -0.05957542 -0.11443932
000210 33 ec 11 3d ae 23 cc 3d c4 6e 73 bd 6c b5 a2 3d
       0.035625648 0.09967743 -0.059431806 0.0794476
000220 bc d4 df ba 44 c7 33 bd 4e 0e 5f bb 77 b8 3c bc
       -0.001707695 -0.043891206 -0.0034035626 -0.011518589
000230 9d 6f 67 ba c7 f8 19 bb 8a e6 88 bd 1c 7c 57 3d
       -0.00088285824 -0.002349423 -0.06684597 0.052608594
000240 40 d8 89 bd 88 bb 3d be 1b e1 65 3d d7 54 08 be
       -0.067306995 -0.18528569 0.05612288 -0.13313614
000250 e0 bb 1d 3c bd f3 8e bd bc 0b ea bd de cd b2 3d
       0.009627312 -0.06980083 -0.114280194 0.08730672
000260 ec e3 77 bd d0 79 56 bd aa 39 6f 3d 58 54 12 bd
       -0.060520098 -0.052362263 0.058404602 -0.035724968
000270 28 2e 1d bd 90 ce d5 3c 7d ae c9 bd 62 bb ea 3d
       -0.038374096 0.026099473 -0.09847734 0.11461522
000280 b0 16 09 be da 63 78 3d 5c 11 d0 bd cf 81 28 be
       -0.13387561 0.0606421 -0.10159561 -0.16455768
000290 b0 3d a8 3d 32 1f f5 bd 60 d3 02 bd 4c b3 6a 3d
       0.08214891 -0.11968841 -0.031939864 0.057299897
0002a0 ca 67 bb bd b2 0c d5 3c b0 3f 12 bd 8c 30 86 3b
       -0.091506556 0.02600703 -0.03570527 0.0040951427
0002b0 52 83 94 3d 78 29 cf bd c4 63 2b bd d8 ae 10 bd
       0.0725161 -0.101153314 -0.04184319 -0.035322994
0002c0 ac 1e 86 bd dc 93 c0 3d 30 51 de bd 60 cc 26 3c
       -0.06548819 0.09403202 -0.10855329 0.010180563
0002d0 40 6c 6f bc 20 d3 c0 bb f0 42 d4 bd 61 96 40 bd
       -0.014613211 -0.005884543 -0.1036433 -0.047018413
0002e0 60 a7 b5 3c c0 91 30 3c f9 25 2a 3d 7c e0 65 bd
       0.022174537 0.010776937 0.04154012 -0.056122288
0002f0 12 90 f4 bd 18 60 fd 3d 30 a8 06 3c 5c 78 e2 3d
       -0.11941542 0.12371844 0.00821881 0.11058113
000300 93 21 99 be 0f e7 8b be 72 4e 44 bf 49 5b 02 3f
       -0.29908428 -0.2732472 -0.766822 0.5092054
000310 21 8f 0e 3e 89 96 38 3f 7f 72 21 3f ce 21 69 bf
       0.13921787 0.721047 0.6306533 -0.91067207
000320 71 6f d6 3d 25 f8 e8 be ad e2 c6 3e f4 1d 61 3d
       0.104704745 -0.4550182 0.38844815 0.054960206
000330 5c 1d 28 be a2 04 c0 be c8 10 f4 3d 9f c7 76 3e
       -0.1641745 -0.37503535 0.11917263 0.24099587
000340 48 41 bd be e9 07 87 3e 89 44 3d bf 74 02 c6 be
       -0.36963868 0.26373222 -0.739327 -0.38673747
000350 44 1f 60 3e 63 5a e2 3e b7 73 f0 be 3b c5 60 be
       0.21886927 0.44209585 -0.46963283 -0.21950237
000360 5a e0 2b 3e 82 9a 6f 3d cb 42 97 be 26 7d 82 3d
       0.16784802 0.05849696 -0.29543146 0.063715264
000370 07 cb 16 3f 6c 50 03 bf 7e 88 dc 3d b7 4b 5e bd
       0.58903545 -0.5129459 0.10768221 -0.054271426
000380 fb 80 08 bf bc 9c 78 3e 73 56 99 be 4e 2b 5c 3f
       -0.5332181 0.2427854 -0.29948768 0.8600358
000390 eb 62 d5 bb eb 1d 93 bd ad a1 f1 be c0 20 d8 3d
       -0.006512036 -0.07183441 -0.4719366 0.105531216
0003a0 78 ce ed bd 82 b4 73 3f 54 af 0b be 3f 76 e8 be
       -0.116116464 0.9519731 -0.13641101 -0.45402715
0003b0 b9 b3 10 bb c1 0a 9c 3d 7a 4a 98 bd 0b 14 89 be
       -0.002207978 0.07619239 -0.0743608 -0.26773104
0003c0 68 f7 a4 3f 75 2a 6e 3e 39 9e 70 bc 67 84 90 3c
       1.2888002 0.23258384 -0.014686161 0.01764126
0003d0 76 27 eb 3d 57 df 82 be 09 a7 a9 bd 1a 20 39 3f
       0.11482136 -0.2556102 -0.082838126 0.7231461
0003e0 ec 15 80 bf b8 39 6a 3e 91 2b fb 3e 17 21 98 be
       -1.000669 0.2287358 0.49056676 -0.29712746
0003f0 33 95 ac 3d 42 a7 ad ba 20 88 6e 3e 3c 65 78 3d
       0.08426895 -0.0013248699 0.23294115 0.06064342

bias f4 [64]
000000 84 ec 96 be d8 fa b9 bd 04 70 22 be f2 2c 17 3f
       -0.29477322 -0.09081048 -0.15863043 0.59052956
000010 c4 58 68 be 29 3d f1 bd 57 02 d5 bd 33 14 53 be
       -0.22690111 -0.117792435 -0.10400837 -0.20613174
000020 ad 1f df be f8 1a ce 3d 2c 43 41 be 91 38 32 be
       -0.43578854 0.10063738 -0.1887328 -0.17404391
000030 48 78 92 be 19 1a c9 bd ea 7b 22 be f7 18 67 be
       -0.28607392 -0.09819431 -0.15867582 -0.22568117
000040 8b 6d 2a be b2 8b 9e bd de fa 8a bd 5f 50 02 be
       -0.1664335 -0.077414885 -0.0678613 -0.12725972
000050 e5 d7 48 3f 5c a7 8f be 94 4d a4 be b7 98 78 bf
       0.7845443 -0.28057373 -0.32090437 -0.97108024
000060 7a b2 93 bd 04 bb 59 be 37 ce bc be 3c 9c 03 be
       -0.07211776 -0.21262747 -0.3687608 -0.12852567
000070 c3 39 d8 bd 08 79 2d bf a3 57 2a be 85 3b 69 be
       -0.10557892 -0.67762804 -0.16634993 -0.22776611
000080 4a 62 13 be ff ee 3b be 88 17 c1 3e 34 8d 14 be
       -0.14392963 -0.18352889 0.37713265 -0.1450699
000090 3d 80 24 bd 79 2a ec be a9 2f 4a be 36 6c 3f be
       -0.04016136 -0.46126154 -0.19744743 -0.18693623
0000a0 f1 00 ec be 1e 6d 6c be 27 08 c8 bd 7a 09 a5 be
       -0.46094468 -0.230885 -0.0976718 -0.32233793
0000b0 63 60 41 be 0b 47 2a be fa af 4e 3b 57 46 18 bd
       -0.18884425 -0.16628663 0.0031537996 -0.037176456
0000c0 8c c3 4e be b6 50 49 be 73 fe e1 be e3 a1 1e be
       -0.20191783 -0.19659695 -0.44139442 -0.15491442
0000d0 a6 d1 5d 3d 1e 4c 3c be fd 4e d5 bd 7e 6d d1 bd
       0.054155014 -0.18388411 -0.104154564 -0.10225962
0000e0 45 13 82 be 09 5a 97 bd 5f 3d 25 be 17 b4 a4 bd
       -0.25405326 -0.0739022 -0.16136692 -0.08042162
0000f0 f0 7f f1 bc a5 0a 74 be 91 4e 70 bd 1a 05 2f be
       -0.02947995 -0.23832186 -0.058668677 -0.1709179

weight f4 [4, 64]
000000 1e 87 74 3b 61 cd c2 3a 04 2f 49 3d cd 6e fd bd
       0.0037311981 0.0014862233 0.049117103 -0.12374649
000010 ca cb e4 3d ea 18 1a 3c be 97 ad bd 84 61 1f be
       0.11171682 0.009405354 -0.08476208 -0.15564543
000020 ce 9b b0 bd e9 41 ba bc 40 25 5e 3c db 13 97 bd
       -0.086234674 -0.022736507 0.013558686 -0.07376834
000030 cd 32 59 3e d3 7c 27 3d cf 98 de bb e6 a6 7e 3d
       0.21210785 0.040890526 -0.0067931185 0.062170886
000040 a0 ce 6f bd 28 49 c4 bd 27 7c cd 3d ba 10 10 3d
       -0.058546662 -0.09584266 0.10033446 0.0351722
000050 20 f3 3c 3e 07 0f 6e bd d2 3d 2c bc 55 30 d4 be
       0.1845212 -0.0581198 -0.010512786 -0.41443124
000060 df e1 a7 3d 28 37 8b bd 4f 11 81 3d be 7e 3c bd
       0.08197378 -0.067976296 0.063021295 -0.04601931
000070 6c 4d 65 3a 8d 66 4e 3e b5 80 9f be 9f f8 08 bd
       0.00087471935 0.20156308 -0.31152883 -0.03344023
000080 dd f7 d1 bc c6 9c bd 3b 23 d3 1f bd c0 fa 84 bc
       -0.025630886 0.005786511 -0.039019715 -0.016232848
000090 40 da ba 3c d5 d9 94 bd c1 48 59 3c 74 9f a8 bc
       0.022809148 -0.07268111 0.013261975 -0.020583846
0000a0 aa 8e 33 bd 0f ca 9f 3c 17 fb e0 bc 30 9a 8a be
       -0.043837227 0.019505529 -0.027463479 -0.2707076
0000b0 f7 f7 89 3e 26 27 22 3d b9 0d 33 3c 19 76 63 be
       0.26946995 0.039588116 0.010928565 -0.2221302
0000c0 54 69 8f 3e 29 c8 c4 3d 0b 78 3b 3d cc a6 52 be
       0.28010046 0.0960849 0.04576878 -0.2057144
0000d0 92 6d 8a 3e 64 83 5b 3e 9d 26 ea bc dd 97 34 bd
       0.2703672 0.2143684 -0.028582865 -0.04409014
0000e0 ed 8f ca 3d 19 10 18 bd 2e 2e 29 bb 1a ef 88 bc
       0.09890733 -0.037124727 -0.0025814879 -0.016715575
0000f0 cc 6e 9d 3c f0 4b f0 be 02 66 81 3d b8 4e 92 bc
       0.019217871 -0.46932936 0.063182846 -0.017859802
000100 4c a6 00 3e 6a c5 07 3e 62 ff 57 3c 53 ef a6 3d
       0.12563437 0.13258901 0.013183447 0.08151116
000110 c3 04 09 3c 16 c2 ba 3d 6c dd 10 be 12 87 e2 bb
       0.008362952 0.0911905 -0.14146966 -0.0069130743
000120 d9 e1 de bc 43 b4 f3 3d 9c c3 be bc 9b c8 e0 3e
       -0.027207302 0.118996166 -0.023286633 0.4390305
000130 d3 2a 70 3e 04 ef e5 be 10 92 f3 bb dd 5a b6 3c
       0.23453836 -0.44908917 -0.0074331835 0.022260124
000140 86 89 18 3e 48 87 84 bd 6b 57 da bb ce 67 1d 3d
       0.14896211 -0.06471115 -0.006663253 0.038429074
000150 2e 96 e0 bc 5c c0 c4 bb 68 5c d0 bd 86 e9 8e 3f
       -0.027415361 -0.0060043763 -0.10173875 1.1165016
000160 18 f7 09 3e 1a 9d 8b 3d cd ce 9e 3d c8 30 d8 3d
       0.13473165 0.06817074 0.07754288 0.10556179
000170 16 56 31 bc b1 45 d7 3c 3a da 39 be 12 a3 05 3e
       -0.010823747 0.026278349 -0.18149653 0.13050488
000180 1a 7b a7 3d a1 1d 01 3e b0 eb 8f 3e 9b c2 73 bd
       0.08177777 0.12608959 0.28109503 -0.059511762
000190 9a 52 8f 3d 65 3b 34 be e4 51 bf bd 79 c3 47 bc
       0.06998177 -0.17600782 -0.09341791 -0.0121926
0001a0 0e 0c b9 3d be 4e 51 bd 20 7d 5d 3d 32 66 70 3f
       0.090355024 -0.051100485 0.054074407 0.9390594
0001b0 39 f1 65 bd 28 21 b4 bc 95 bb 17 bc 62 8a 8e be
       -0.05613825 -0.021988466 -0.009261032 -0.27839953
0001c0 cd 07 85 3c 6b 69 30 3d f8 24 ec 3e 39 2c 5e bc
       0.016239071 0.043069284 0.46121955 -0.013560348
0001d0 6b a3 c5 3c 2f d0 fb be 1a 8a b9 bd e9 08 20 3d
       0.024125775 -0.4918227 -0.09059544 0.039070997
0001e0 19 a4 cb 3c e0 9a 88 3d 6a 58 b9 bc 22 9f c0 bd
       0.024858521 0.06670165 -0.022625167 -0.09405352
0001f0 8f 78 1d bc 19 b2 58 3f 5a c4 12 bd c0 0a 75 3d
       -0.009611263 0.84646755 -0.035831787 0.059824705
000200 2d 20 0f bd 3f cf 10 3e 7a a9 d1 bd ad 45 48 3e
       -0.034942795 0.14141558 -0.10237403 0.19557829
000210 b8 fc 14 bc 5d 8e a6 bc 49 36 90 bc 99 cf ed bd
       -0.009093456 -0.020331556 -0.01760401 -0.11611862
000220 27 f1 df 3e 6e 1f 0d 3d 59 23 ff bc 42 38 0e 3d
       0.43738672 0.0344538 -0.031144785 0.03472162
000230 7d 89 5f 3d 28 db 80 bc c1 33 d5 bd 53 58 0f 3b
       0.05457448 -0.015729502 -0.10410262 0.0021872714
000240 c9 30 4d 3d 8e e2 b4 3a 32 69 7c 3e 95 31 f1 3c
       0.050095353 0.0013800429 0.24649504 0.029442588
000250 be 64 d0 bd ec ce 2d bc 04 e8 86 3e f9 99 1b 3f
       -0.10175465 -0.010608416 0.2634889 0.6078182
000260 37 13 e5 bd a1 d9 d9 3a 4c d5 c9 3b b4 34 18 3b
       -0.111853056 0.0016620645 0.00615946 0.0023224773
000270 d9 5f 8a 3b a9 e4 09 3e b0 b8 b4 bc ea 02 00 3e
       0.0042228517 0.13466133 -0.022060722 0.12501112
000280 7d 68 2b 3d fa 2b a7 3c e4 31 04 bd 32 31 71 3c
       0.041847695 0.020406712 -0.032274142 0.014721202
000290 91 9b 61 3c 87 67 61 bc 26 67 e5 bc bb 30 a7 3d
       0.01377 -0.013757593 -0.028003287 0.081635915
0002a0 32 35 d1 3e 70 e6 7c 3e 61 be 9e bd 5c 16 0a 3e
       0.40860897 0.2469728 -0.07751156 0.13485092
0002b0 f8 72 65 3e b4 2d 66 3c f7 a7 78 bc 8d 7c 3d be
       0.22407138 0.014048982 -0.015176765 -0.18504544
0002c0 46 80 fd 3b 20 35 85 3d 66 38 b0 bc 34 1b 8b bf
       0.0077362387 0.065042734 -0.021511268 -1.0867677
0002d0 ea 2d 40 3f 29 d4 c9 bc ba c3 b3 3d 73 b9 9d 3c
       0.7507006 -0.024637299 0.08777566 0.019253468
0002e0 d6 0d 97 3c 8c 56 c6 bd 01 44 9c bc 72 87 02 3b
       0.018439215 -0.09684476 -0.019075396 0.0019917157
0002f0 25 89 eb 3b 02 86 5e bd f6 a1 9a 3d 30 56 c5 3a
       0.0071879798 -0.05432702 0.07550423 0.0015055593
000300 af 94 c0 3a 95 0f 0d bd 4d 2c c5 3a 47 0a 60 be
       0.0014692749 -0.03443869 0.001504311 -0.2187892
000310 6a 4d 59 bc e4 83 f1 3c 14 17 9a 3b 0f 46 bb bc
       -0.013263086 0.029481836 0.004702458 -0.022860555
000320 79 4f a2 3e 31 11 16 3d 50 aa 43 bc c6 01 0e 3e
       0.31701258 0.03663749 -0.011942461 0.13867864
000330 66 70 fe 3c 4c 3a 74 bc 90 b4 f2 bd a2 8b 0d 3d
       0.031059455 -0.014906477 -0.11850846 0.034556992
000340 dd 87 95 3d 58 cf a1 bc 4a ae 13 3f 78 db 26 3d
       0.073013045 -0.01975219 0.5768782 0.040736645
000350 31 0f fe be 3c 30 26 3d 02 c6 eb 3d d4 13 fa 3e
       -0.49620965 0.040573344 0.11512376 0.48843253
000360 1d 9c 82 3d 12 89 14 3e f8 b9 47 3c 80 90 15 bd
       0.063774325 0.14505413 0.0121903345 -0.03651476
000370 45 6d 33 bd 1a d3 73 3e 91 e3 34 be d0 61 b7 3d
       -0.04380538 0.23810998 -0.17664935 0.08954203
000380 66 ae 3e bd 36 88 73 bc e7 d1 2d be cc 57 14 bd
       -0.046553038 -0.014864018 -0.16974603 -0.036216542
000390 59 4d f0 3a 92 d2 ca bc b1 66 a0 3c 97 b9 6a 3a
       0.0018333598 -0.02475861 0.019580217 0.00089540466
0003a0 8b a4 f7 bd 23 fe 7d 3d 42 4a b1 bc ff 89 88 3e
       -0.12091931 0.06200994 -0.021641854 0.26667783
0003b0 5d 73 6a 3f 24 3f b1 bc 84 56 be ba 9f 4d 09 be
       0.9158228 -0.021636553 -0.0014521633 -0.13408516
0003c0 86 5f 9b bd 52 7e 71 bc b6 8c 2e 3f 5e 57 c0 3f
       -0.07586579 -0.01473959 0.6818346 1.5026662
0003d0 30 6e f5 3d 30 77 7b 3e 94 b1 d5 bc a5 0b 0d bd
       0.11983907 0.24557185 -0.026085652 -0.034434933
0003e0 b8 cc 00 3e 49 70 94 bd 63 33 3b bc 19 f7 f7 3c
       0.12578094 -0.07247979 -0.011425826 0.030269193
0003f0 b2 29 8a 3c d5 96 96 3e 9a 9b 68 bd f8 92 d0 ba
       0.016865585 0.2941195 -0.05678902 -0.0015912941

bias f4 [4]
000000 6f 52 83 3e 50 c2 5c 3e c6 69 08 3e 07 48 65 3e
       0.2564883 0.215585 0.133216 0.22390758
