RLSnake/model/z_mapa_wiecej_przeszkod_i_neuronow.pth (torch, 336854 bytes, 6 tensors)

weight f4 [256, 63]
00000000: 3069 9dbd 442a afbd a0c2 9a3c 1084 6ebb
00000010: 25da ff39 9834 073d 04ce c73c 27a8 b53c
00000020: 9c0e aabc e632 8ebd 9ab8 e0bd fca3 a4bd
00000030: 861c c0bd 54e5 033d 44e0 92bd 2eca 87bd
00000040: 8435 7e3d e47c 783d c8e9 10bd 5c2f d9bc
00000050: c4da e63d 008b d73b 406b b43c 245e 58bd
00000060: 648e febc 6854 423d d1f2 e6bd e087 2cbd
00000070: 6a56 31bd 6031 24bb 9e5b f0bd 9ee1 ca3d
00000080: ea9d b6bd 59a2 c1bd 2c9f af3d 9e03 8bbd
00000090: e04a 833b 90b3 72bc de30 8e3d 7cf1 e4bd
000000a0: 9cf0 243d c018 8bbd 4629 01bd 7737 f3bd
000000b0: 1c44 c4bc ae8e ae3d 8a30 883d 600a d1bc
000000c0: 44ad 383d 84bc 98bc d047 e0bd dafa 36bd
000000d0: 9c85 db3d c8a2 c23d 683b aebd f20a 92bd
000000e0: f6dd 87bd 209e 283d 2e30 edbd 6867 5cbc
000000f0: 0099 1f3a bc34 593d fc11 87bd 64a4 b2be
00000100: 916e 3a3b 502e 10bf 5d0a b9be f971 86be
00000110: ab75 16be 82c7 063e 708a 1bbe 404d bebe
00000120: 3cce 37bd 29a4 983e bd7d afbe 0077 47bd
00000130: ec6f acbc 406e 7e3b 5292 883d 52ad 10bd
00000140: d019 7cbd d8cd ad3c 9825 33bc a42b cb3d
00000150: 0cbb 403d a02c dd3c 7e8a e23d d090 0dbc
00000160: 328d 48bd 9085 0b3d 8e47 ed3d 7e1b d03d
00000170: 202a c5bb fe42 af3d f0bc f0bc b05e 18bd
00000180: 3dac dcbd a0ec 35bd c61e 98bd f4bb 70bd
00000190: f035 edbb 6f1c f9bd f869 f83d 04fc ee3d
000001a0: 5029 d53d a574 d1bd 80ec 003c e1c5 e2bd
000001b0: e4a9 343d 2e6f 2ebd f84a a23c 36e8 40bd
000001c0: 1a6b d43d 20b5 a8bc 2343 8ebd f006 213c
000001d0: 58d7 063d 7c38 363d 22b4 b5bd e048 bb3c
000001e0: 76f2 a83d 78b6 443d 0233 d1bd 6c5b 86bc
000001f0: 10e6 00bd 60dd 5a3c e9dc 01bd 9425 6ebd
00000200: e0a3 e0bd 4a69 8ebd 675a 61bd e0c2 1abe
00000210: 2507 053e e754 a6bc 8398 403e 3bb1 45bc
00000220: 40c9 2b3e 511d a4bd 9474 fc3d 10c6 493d
00000230: 08f7 59bc e43e 3b3d 1446 3b3d 620a 0abd
00000240: f66e e2bd d317 e6bd f439 60bd 6635 b43d
00000250: d81e 673d 6c83 83bd 97f4 febd 08f6 c43c
00000260: d019 003e 8c36 85bd 2003 2cbd f816 e43d
00000270: de6e fb3d 531e 93bd 7c09 8b3d 00f9 8cbd
00000280: c09a b63b 0e5f ccbd a079 43bc dc63 213d
00000290: 80f4 f5bc 6850 943d 3403 203d 6c71 74bd
000002a0: e03f 1b3d 0041 2cbc 00e7 8d3a 1893 2fbd
000002b0: f090 da3d b468 df3d da04 fc3d b708 eebd
000002c0: 24f4 34bd ea1b a43d 048f 43bd 2870 af3c
000002d0: 697c ecbd 104b f2bc d84e f3bd 02b1 c43d
000002e0: 3393 dcbd b245 b33d 7a89 e43d c0fa 933c
000002f0: e47d ca3d 5f7f 70bd d17a 78bd 92d4 eebd
00000300: c304 85bd 8c3c dc3d f35d 683d afb4 823d
00000310: be79 a03d 1299 94bd af09 b33c 0dc7 3a3d
00000320: 18b4 cebc 92bf 89bd da9c ae3d eca4 83bc
00000330: 5ca1 613d ecdc 21bd 060f 88bd d899 f03d
00000340: bcb6 883d a9e0 f4bd 763c d73d 804e 97bd
00000350: 3a04 e83d fc10 57bd 40bc 93ba ea9e 10bd
00000360: b8be d43d c429 9fbc b050 af3d 6465 b0bd
00000370: 28c0 12bc 00b5 823b 60e3 223c 382f 3bbd
00000380: 7063 babd 58a1 a2bd e8a7 c9bc 26a3 453d
00000390: 487e 99bd 92b2 d43d 4004 d1ba 2ab6 833d
000003a0: 8349 f2bd fc36 fc3d 003c e3b9 706d a53c
000003b0: 085b b8bd 7076 92bb eb45 bbbd 2a86 a7bd
000003c0: 6804 9fbc 480d de3c 080a bb3d 0c1b af3d
000003d0: c439 35bd 26b4 c5bd 309a 2c3c 2044 d3bd
000003e0: 9e30 8ebd 0c3c 413d fab2 96bd 2868 cf3c
000003f0: ddae 51bd b749 93be f095 0bbe 77d8 74be
-0.076860785 -0.085529834 0.018891633 -0.0036394633 0.0004879992 0.03300914 0.024390228 0.022174908
-0.02075892 -0.06943302 -0.1097271 -0.0803909 -0.093804404 0.032201126 -0.071716815 -0.066303596
0.062062755 0.06066598 -0.0353792 -0.02651184 0.11272195 0.0065778494 0.022023797 -0.052824154
-0.031073757 0.047443777 -0.11276782 -0.042121768 -0.0432953 -0.0025053844 -0.117362246 0.09906314
-0.089168385 -0.094547935 0.085752815 -0.06787799 0.0040067285 -0.014813319 0.069429144 -0.11178872
0.040268525 -0.0679183 -0.031533502 -0.118758135 -0.023958258 0.08523308 0.06649883 -0.025517642
0.045087114 -0.018644579 -0.10951197 -0.044672824 0.10718843 0.09503704 -0.085074246 -0.07130994
-0.066341326 0.041166425 -0.11581455 -0.013452388 0.00060881674 0.053028807 -0.06595227 -0.34891045
0.002844725 -0.5632067 -0.3614072 -0.2625883 -0.14693324 0.13162044 -0.15189528 -0.37168312
-0.044874415 0.29812744 -0.34275618 -0.04869747 -0.021049462 0.0038823038 0.066685334 -0.03532154
-0.061548054 0.021216318 -0.010934256 0.09920433 0.04705338 0.026998818 0.110615715 -0.008640483
-0.04896278 0.034062922 0.115859136 0.10161494 -0.0060169846 0.085576996 -0.029386967 -0.037199676
-0.10775039 -0.044415116 -0.074277446 -0.058772996 -0.007239096 -0.121636264 0.12129587 0.11669162
0.1040827 -0.10227326 0.007868886 -0.11072899 0.044107333 -0.042586498 0.019811139 -0.047096454
0.103719905 -0.02059418 -0.06946399 0.009828314 0.03292021 0.04448746 -0.08872248 0.022861898
0.08249371 0.04802558 -0.10214807 -0.016401015 -0.031469405 0.013358444 -0.031704817 -0.058141306
-0.10968757 -0.06953676 -0.055017855 -0.15113401 0.12991007 -0.020304156 0.18808179 -0.012066181
0.1677599 -0.08013404 0.12326923 0.049261153 -0.013303526 0.045714274 0.04572113 -0.033701308
-0.1105632 -0.11235013 -0.05474277 0.087992474 0.0564259 -0.06421551 -0.124489956 0.024043098
0.12509847 -0.065045446 -0.041995168 0.111371934 0.122770056 -0.07183518 0.067889184 -0.068834305
0.005572647 -0.09979068 -0.011930853 0.039401874 -0.030023813 0.07241899 0.039065555 -0.05967848
0.037902713 -0.010513544 0.001082629 -0.04286489 0.10672176 0.109086424 0.12305613 -0.11622756
-0.044178143 0.08013137 -0.047743812 0.021415785 -0.11547167 -0.029576808 -0.118802726 0.09604074
-0.107702635 0.08753528 0.11159034 0.018063903 0.09887293 -0.05871522 -0.060664 -0.11661638
-0.06495049 0.10753736 0.056730222 0.06382119 0.078357205 -0.07255758 0.021855203 0.045599986
-0.02523236 -0.06725992 0.08526011 -0.016069852 0.055085525 -0.03951733 -0.066434905 0.11748093
0.06675479 -0.11956913 0.10509579 -0.073880196 0.11328931 -0.052506432 -0.0011271313 -0.035307802
0.10387939 -0.019429095 0.08560312 -0.08613089 -0.008956946 0.003988862 0.009941906 -0.04569933
-0.091009974 -0.0794093 -0.024616197 0.048251294 -0.07494789 0.10385622 -0.0015946701 0.064312294
-0.118304275 0.12315175 -0.00043341517 0.020193785 -0.09001738 -0.0044696853 -0.09144195 -0.08179887
-0.01941128 0.027105942 0.09132773 0.08550081 -0.044244543 -0.09653501 0.010534808 -0.10315728
-0.06942867 0.047176406 -0.07358356 0.02531822 -0.051192153 -0.28767177 -0.13631415 -0.239107

bias f4 [256]
00000000: 83af 2cbe ee46 88be 1730 85be a08b 3ebe
00000010: 3a68 cbbe 20b7 03be ed1e 55be f22f 7dbd
00000020: 81ec f9bd be5e 22be f497 a4bd 92b7 99bd
00000030: bf5a 2fbe b3f8 08be 117a 1dbd 9707 103e
00000040: b411 a2bd 3caf c8bd da66 b5bd 0198 07be
00000050: 07db 6ebd 80d8 c4bd 9d0b 17be 4633 31be
00000060: 684f 0fbe 1312 acbd ac7d 37be e0b1 40bd
00000070: 11ec 41be 933b a9bd 6182 05be c6e3 0abe
00000080: ff3c 17be e7da 5abd 5b02 89be 62eb a4bd
00000090: f2d2 b2bd 36ce 2bbe 665d 3cbe 2c06 56bd
000000a0: cac9 0abe 1915 4fbe 4f1e 28be 030d 37be
000000b0: 7399 4fbe 530a 3cbe 5d80 10be 8568 9dbd
000000c0: c44e e6bd 82ad fcbd 387b 06be 1ca9 c8bd
000000d0: ab9d fbbd 5d09 bdbd f5d3 acbd 2bd2 9eba
000000e0: 4fbd 70bd 8851 80bd a6dc 183c 1401 35be
000000f0: c5cf 99bd 2cfb e23c 8332 92be aad3 81bd
00000100: e139 c1be b54c d7bd 2e41 57be 9753 53be
00000110: fabc 1dbe 029e 5fbd ceb6 d4bd 1d67 26bc
00000120: ccba 2fbe 3810 febd 8e49 f2bd 3e0b 063d
00000130: ec2e 2fbe bcf3 aebd 04fb 22bd 7c9e 0cbf
00000140: 581b b9bd 604b 3ebd 0efb 96bd 96c5 a8bd
00000150: 1396 88be 9310 93be c357 bdbd 8973 eabc
00000160: 809a 27be 3d9f 10bc 64e4 35be 1f6d 44bd
00000170: d1e6 25be eb26 aebd 8917 61be f661 18be
00000180: aac5 83bd b485 ddbd a5e1 41be a82a ecbd
00000190: 142f 24be 64c1 3fbe 805b 6dbe 26f3 1dbe
000001a0: b206 89be 8691 1dbc 255b 23be 5f50 bebd
000001b0: 0cbc 08be f751 2dbe 661f 60bc 26a8 793e
000001c0: 0d0a 22be 4f8a 57bc 07be 0ebe 3890 34be
000001d0: dc34 38be ec59 22be b115 0cbe 62b3 d3bd
000001e0: 4e90 34be 34b0 84bd 4b4a 3bbe 25a3 cdbd
000001f0: 0092 ffbd 66a1 e6bd c892 62be a3f1 acbd
00000200: 7354 eabd 2c84 2ebd 37dd d1bd 8b5f 1ebd
00000210: c8df 03be d818 4dbd 898a 8ebe 01e2 1ebe
00000220: 433d e0bd 20aa 8bbe 0cf9 8bbe a8ca d9bd
00000230: d757 64bd da63 85bd e244 8bbd 0db2 b0bb
00000240: d5ee 6fbe 7c68 c6bd 85e8 203e bfeb 3abe
00000250: 22cb a2bc bce5 06be 61e0 b2bd 6aca 06be
00000260: 18ac 37be c3d7 debc c3b8 d5bd 3abf b1bd
00000270: 9e45 e0bd 79a1 91bd 5948 8dbe 2962 88bd
00000280: d886 09be 960c 09be 019c 1ebe 1f62 b5bd
00000290: ede6 9dbb ceaf 4bbe 81c5 9ebd 1a51 94bd
000002a0: 7312 0b3c ca39 14be aa8a 5b3d 177e 413e
000002b0: b165 49be eeb7 a5bd 42bb 27be e087 e93b
000002c0: 613f 0bbe 00d5 7abd 51b1 10bc b4ab a5bd
000002d0: 5c38 51bd 982b 81be b8c8 67be 0ca4 53be
000002e0: d81c 1bbc 2956 69bd 5e81 80be 931d 253d
000002f0: ee73 b0bd f677 3abe 3dd1 c7bd dae4 68bd
00000300: ab50 c2bd ec91 2dbe 0b5a 35be fc83 363d
00000310: 2938 c4bd 6fa4 c93c 74dc 58be f6a2 3f3d
00000320: fc8e 0abe b2d8 0abe 13d2 13be 554f e2bd
00000330: 95d9 5ebe 537c febd 72c9 7fbd f736 12be
00000340: 181b dabd 0f34 07bd d201 81bd 5293 e83c
00000350: a4db 28be c279 f9bd e7a4 79bd 821c 02be
00000360: 4575 10bd ede7 1abe 5ecc 81be b132 05be
00000370: 0bcc 07be 7d2f 52be d8b3 24be cbd9 e7bd
00000380: f0d7 50bd a89a 2dbe 6fd9 62be ba72 a5bd
00000390: 2717 63be d299 89be 8481 cc3d 324e ddbd
000003a0: 3be1 14be fad7 d039 a5ee a2bd 099d 37bd
000003b0: d628 15be b6ff 03be e607 8dbe ec1a 203d
000003c0: b240 1cbe fb2a 843d a8ce c73c 2dae 0abe
000003d0: 7fa8 4dbe 6951 49be d1e4 69be 8203 dfbd
000003e0: 66d4 90bd 3ac7 47be 8850 8cbe 4d72 7ebe
000003f0: b681 e33c ba0d b4bc f519 43be 0bc4 343c
-0.16863827 -0.26616615 -0.26013252 -0.1860795 -0.39727956 -0.12862825 -0.20812578 -0.061813302
-0.12203313 -0.15856454 -0.08036795 -0.075057164 -0.1712446 -0.13376121 -0.03844649 0.14065395
-0.07913533 -0.09799048 -0.08857508 -0.13241579 -0.05831435 -0.096116066 -0.14750524 -0.17304716
-0.13995135 -0.08401885 -0.17919034 -0.047044635 -0.18937708 -0.08263316 -0.13038017 -0.13563451
-0.14769362 -0.053431418 -0.2675961 -0.08052708 -0.08731641 -0.16777882 -0.18395004 -0.05225198
-0.13553539 -0.20222892 -0.16417812 -0.17876057 -0.2027338 -0.18363313 -0.14111467 -0.07685951
-0.11245492 -0.123377815 -0.13132942 -0.0979788 -0.12285932 -0.092303015 -0.08438865 -0.0012117078
-0.05877429 -0.06265551 0.00932995 -0.17676193 -0.07510332 0.027707659 -0.28554162 -0.063392
-0.3773947 -0.105126776 -0.21020958 -0.20637356 -0.1540412 -0.054594047 -0.1038643 -0.01015642
-0.17161101 -0.12405437 -0.11830436 0.032725565 -0.17107743 -0.085425824 -0.03979017 -0.5492933
-0.090384185 -0.046458602 -0.07372104 -0.082408115 -0.26676998 -0.28723583 -0.09245255 -0.028619545
-0.16367531 -0.008827028 -0.17762905 -0.04795563 -0.1620133 -0.08503517 -0.21981634 -0.14881119
-0.06434186 -0.108165175 -0.18933733 -0.115315735 -0.16033584 -0.18726116 -0.23179436 -0.15424785
-0.2676292 -0.009617215 -0.15952738 -0.09292673 -0.13352984 -0.16925798 -0.013679361 0.2438055
-0.15824147 -0.013155534 -0.13939677 -0.1763314 -0.17988914 -0.15854615 -0.1368015 -0.10336949
-0.17633173 -0.064789206 -0.1829006 -0.10040883 -0.12479019 -0.11261253 -0.22126305 -0.08444526
-0.11441889 -0.042606518 -0.102472715 -0.038665336 -0.12878335 -0.05007252 -0.2784007 -0.15515901
-0.10949185 -0.27278233 -0.27338445 -0.10634357 -0.055747833 -0.06513186 -0.06800248 -0.005392319
-0.23430951 -0.096878976 0.15713699 -0.18253992 -0.019872252 -0.13173574 -0.08734203 -0.13163152
-0.17936742 -0.027202493 -0.10435631 -0.08679052 -0.109507784 -0.071108766 -0.2759426 -0.066593476
-0.13430345 -0.13383707 -0.15489198 -0.08856606 -0.0048187883 -0.19891283 -0.07752515 -0.072420314
0.008488285 -0.1447517 0.053599037 0.18895756 -0.19667698 -0.080917224 -0.16380027 0.0071267933
-0.13598396 -0.06123829 -0.008831338 -0.080893904 -0.05107914 -0.25228572 -0.22635162 -0.20668048
-0.009467326 -0.056966934 -0.250987 0.040311407 -0.08615862 -0.18209824 -0.09756706 -0.056858875
-0.094880424 -0.16950196 -0.1771013 0.044559464 -0.09581024 0.02461454 -0.21177846 0.04678627
-0.13531107 -0.13559225 -0.14435606 -0.11050288 -0.21762688 -0.12426057 -0.062447973 -0.1427878
-0.10649699 -0.03300863 -0.06299175 0.02839056 -0.16490036 -0.121814266 -0.06094828 -0.12706187
-0.035268087 -0.15127535 -0.25351232 -0.13007618 -0.1326143 -0.20525928 -0.1608423 -0.113208376
-0.050987184 -0.16953528 -0.22153257 -0.08078523 -0.221768 -0.26875168 0.09985641 -0.1080593
-0.14539044 0.00039833767 -0.07955674 -0.044827495 -0.14566359 -0.12890515 -0.2754509 0.039088175
-0.15259054 0.064535104 0.024390534 -0.13543005 -0.20083807 -0.19659962 -0.22841193 -0.10889341
-0.07071762 -0.19509593 -0.2740519 -0.2484829 0.027771812 -0.021979202 -0.1905287 0.011033068

weight f4 [256, 256]
00000000: 7ede 4c3d e507 b2bd 7d30 7abb ea57 a3bd
00000010: c941 5c3d 3f6e 1cbd 956d f7bc de63 42bd
00000020: 2435 9b3d 09d7 18bd 3a61 723d f407 73bd
00000030: 6875 c7bd 3649 0abd ae67 b6bd 9830 94bd
00000040: 81bf 8f3c 62fd 92bc 72f0 07be 14c1 ef3c
00000050: 6426 bd3c 97e4 fb3d 82c5 403c c4e6 3dbd
00000060: 5512 893b b08d 8a3d 6241 393d 95dd cdbc
00000070: 02d7 b73d 9b01 0a3e 3289 4cbd 89c1 1ebc
00000080: f6ac a73c 137c 5cbd 27f7 15bd 478f bbbc
00000090: 091d 9d3b b8b6 af3d 42b7 45bc 0f9e 9e3c
000000a0: bb22 8ebc f8e0 66bd f8ca ad3c f4d3 68bd
000000b0: 4233 87bd b5ba 24be 1a8d 07bc 44ae bdbd
000000c0: 8c1f aebc e611 963d 6144 cebc ecf0 7c3c
000000d0: b113 973d f65f 693d e69d 48bd 7069 9dbd
000000e0: 404a 08be 281b babd 6455 a0ba a9b2 843e
000000f0: c16d 54bc 7fc9 c0bd b306 863d 1d87 b3bd
00000100: 7e5d 0ebe fc56 77bd 771d 28bd 7416 923b
00000110: 8019 2f3c 05e2 a4bc 52b4 6b3d 6ba3 013c
00000120: b3d4 53bd 60fc 85bd c4cf dbbd 054b 8cbd
00000130: 2461 ea3c b72b 463c 1db5 5bbe 6806 d8bb
00000140: bbdc 0f3d 8575 d03c f60f 08be ecf7 053e
00000150: 8aeb 32bd 77b6 203e 4db4 bb3b 2bfa 07bd
00000160: dacf 713d 2842 0bbd c2b1 12bd 0fca 04be
00000170: 1206 4ebd e7e4 a6bd eaca af3d 1ffb 09bc
00000180: 49ea 8239 c87f 09bd 2687 a23b 7f6f a5bd
00000190: 8723 823d c091 54bd 20fa 353d 7e40 6a3d
000001a0: 1bea db3b 9516 94bc 3c2c 553c 9628 0e3d
000001b0: ccc2 023d 4c29 513d f199 c5bd d7ac 23be
000001c0: 68fa 8bbc 1e41 483c 7353 023d 59be 0cbe
000001d0: 94af 90be 7369 9dbd f12b 69bd c603 30bd
000001e0: d80a 423d a3c8 d739 0412 a1bb 75f5 8c3d
000001f0: 098f e63b bf57 863c bbba 1fbe 0208 1bbd
00000200: d406 06bd f4a4 d43c bd4a 2abd 209e 3ebc
00000210: c852 d2bd a5be 4c3d 12f4 e13d e1eb c83d
00000220: 0a05 e0bd a429 dbbd f59c 05be e094 6a3c
00000230: 3e79 243d 45ba 793d f5c7 533d 6624 823d
00000240: 2283 c2bc 3165 03bc ecf7 64bd 11aa 26be
00000250: 2f62 89bd df6f 6fbd 434d 68bd 75fc 95bc
00000260: d5bc 74bd ed50 79bb 547d b5bc e700 6dbd
00000270: 6224 d83c 390e f33c fa1d ebbd f42d 1b3d
00000280: 2a6d 793d 6f90 273d 7d6c 303d 7ec0 733d
00000290: 427d 103d cc37 4a3c d27c 8d3c 0b6f 78bd
000002a0: d085 dabd 0074 f3ba 1f1f 863b f9ad 69be
000002b0: d25e aebc 70ed 0c3d 3ff3 2abd 59ee cabc
000002c0: 20c7 87bd e518 3cbb 8367 4b3d 34e8 7e3d
000002d0: 793d debd e54e cbbd 32b3 a23c 44a5 c03c
000002e0: b790 cf3b 442c 3a3e 5fb3 8bbd 679c 07be
000002f0: efb4 773d e571 783c d45e 763c 0724 66bd
00000300: 2dba 25bd 0b07 0cbd e223 6a3d ea9a 13be
00000310: 1acf d53d 767e 373c 76d1 cd3c fa37 d03c
00000320: 588c ebbb 6c70 623d 6e31 de3c 563a 4fbd
00000330: 2389 a1bd f89c 393d 357b 12bd 328a 3d3d
00000340: cac8 51bd 94c1 833c 3e58 bdbd b2f5 adbd
00000350: e778 333d 6d80 2abd 2bcd 843d 4aa0 46be
00000360: 8619 a43b 4fdc 3d3d 06b0 90bc c321 383d
00000370: e03d aabc 2ec8 8b3d f1bb 8cbc e498 3c3d
00000380: 0864 a03c 6843 82bd 4fa3 823d 27a2 273c
00000390: 7024 153d 261a 27be e429 8ebd d315 a1bc
000003a0: 67e4 73bd 684e fc3c d376 283d cbb8 013d
000003b0: 6187 313e 7e8e b6bd 79df 24bd 201e d63c
000003c0: 72bd c5bb 8682 9dbb d8e8 623c b113 23bd
000003d0: 4ec9 b7bd deed cf3d fa76 433c 9f37 b3bd
000003e0: 6b08 f1bc 9a96 c7b8 0c73 35bd 6227 32bd
000003f0: 9823 273d 929c 983c fadc 343e 877a bcbd
0.050016873 -0.08692912 -0.0038175874 -0.07975753 0.053773675 -0.038191076 -0.03020362 -0.047458522
0.07578495 -0.03731445 0.059174754 -0.059333757 -0.0973919 -0.033761226 -0.08906494 -0.07235831
0.01754737 -0.017943088 -0.13275316 0.029266872 0.023089595 0.122994594 0.0117658395 -0.046362653
0.0041830936 0.06765306 0.04522837 -0.025130073 0.08976556 0.13477175 -0.049935527 -0.009689697
0.020468216 -0.053829264 -0.036612656 -0.022895468 0.004794721 0.08579773 -0.012067618 0.019362478
-0.017350545 -0.05636689 0.021214947 -0.05684276 -0.066015735 -0.16086848 -0.008273387 -0.09261754
-0.021255277 0.073276326 -0.02517909 0.0154383 0.07376803 0.05697628 -0.04897871 -0.07686126
-0.13309574 -0.09087211 -0.001223248 0.25917557 -0.0129656205 -0.09413432 0.065442465 -0.08766005
-0.13902852 -0.06038569 -0.041043725 0.004458243 0.010687232 -0.020127306 0.057545014 0.007912497
-0.051716518 -0.06542277 -0.107329875 -0.06850246 0.028610773 0.012095383 -0.21455808 -0.0065925606
0.035122614 0.025446663 -0.13287339 0.13082856 -0.04368166 0.15694605 0.0057282806 -0.033197563
0.059036113 -0.03399864 -0.035814054 -0.12967704 -0.050298758 -0.081491284 0.08583625 -0.008421688
0.00024970088 -0.033569127 0.0049599586 -0.08077907 0.063544326 -0.05189681 0.04442799 0.05719041
0.006711257 -0.018077174 0.013011035 0.034706675 0.031924054 0.051064774 -0.096485026 -0.15983902
-0.017087176 0.012222556 0.031817865 -0.13744487 -0.28258955 -0.076861285 -0.05692667 -0.04297235
0.047373623 0.00041157482 -0.0049154777 0.06882755 0.007036094 0.016399262 -0.15598576 -0.037849434
-0.032721356 0.025957562 -0.041575182 -0.01163438 -0.102696955 0.0499865 0.11032881 0.09810615
-0.10938461 -0.10701302 -0.13048156 0.014317721 0.040154688 0.060968656 0.051704366 0.06354599
-0.02374417 -0.008019731 -0.0559005 -0.16275813 -0.0670818 -0.058456298 -0.056714308 -0.018308857
-0.059750397 -0.003804262 -0.022154488 -0.05786219 0.026384536 0.029669868 -0.11480327 0.03788562
0.060895123 0.040909227 0.043072212 0.059509747 0.035275705 0.012342405 0.017271433 -0.060652774
-0.10670054 -0.0018573999 0.0040930654 -0.22820272 -0.021285448 0.034406126 -0.041735884 -0.024771856
-0.06629777 -0.0028701362 0.049659263 0.062233165 -0.10851569 -0.09927157 0.019860838 0.023516305
0.00633439 0.18180948 -0.06821322 -0.13243257 0.060475286 0.015163873 0.015037257 -0.056186702
-0.040460754 -0.034186404 0.057163127 -0.14414564 0.10439892 0.011199584 0.025124293 0.025417317
-0.007188361 0.055282995 0.02712318 -0.050592743 -0.07887485 0.045315713 -0.03576203 0.04627437
-0.051216878 0.016083516 -0.092453465 -0.08494128 0.043816473 -0.041626383 0.06484445 -0.19397083
0.0050079254 0.04635268 -0.01766206 0.044954073 -0.020781457 0.068252906 -0.017179461 0.046044245
0.019578949 -0.06360513 0.06378805 0.010231531 0.036411703 -0.16318569 -0.06941584 -0.019663727
-0.059543993 0.030799106 0.041128945 0.031670373 0.17336799 -0.08913897 -0.040252183 0.026137412
-0.0060345465 -0.0048068194 0.01384946 -0.0398137 -0.08973943 0.101527914 0.011930222 -0.08750843
-0.02942296 -9.517111e-05 -0.04429917 -0.04349459 0.04080543 0.018629346 0.17662421 -0.09203058

bias f4 [256]
00000000: 5d06 25be 388e 4dbe af25 b2be 6b06 47bd
00000010: 1698 2ebe 0b5f 53bd 4da7 c6bd 41d8 9fbe
00000020: 3edb bbbe 7f8c eebc 539e adbd 45a3 99bd
00000030: 794e babd 702a 0fbe fb20 6bbe 7d5b 07be
00000040: fde3 76bd 153a 85bb 56c1 acbd 791f f9bd
00000050: 6ac5 a7bd a7e6 65bd 6fb7 febc eeaf 98bd
00000060: 86bc 60bd 487f bcbd 5517 d4bd 423a 86be
00000070: 4b40 843d 9a96 f0bc 9282 85bd 3664 eebd
00000080: 5a5f 70bd 5b58 bd3c 6f24 0ebd b80c 83bd
00000090: c14d 6abd 2f49 dfbd f4b2 80bd 714b 8bbd
000000a0: 9258 e3bb d538 5bbe 2872 4bbd 468b 15be
000000b0: ff7e eebd 51e6 8dbd 8c47 c2bd 1907 ebbd
000000c0: 4d3e 32be 3e3e b7bd 1ed7 77be dfa8 06be
000000d0: 65f5 65be fa9e 7cbe b6bc 8bbd b24b 80bd
000000e0: 0ffa 6dbd dc2c 75bd b26a cabd fc24 43be
000000f0: 0556 e9bd 800c 0ebe 248a 3fbc 8a9a 8cbd
00000100: 3a83 ae3e 537d 8abd 7f83 b7bd 78e3 1ebd
00000110: c0f3 60be 2bd2 bebd 22df 26bd 585e 80be
00000120: f65f 9f3d bfb2 b5be 0d2f 9ebd 74f6 40bd
00000130: 7504 e8bd 1c8e 96bd 0fc5 ebbd 99a4 2cbe
00000140: b12d a7be 6019 34be a4e9 f4bd 4dec 5cbd
00000150: 333c 78be 5f1f 30bd 7a19 cabd 625f 40be
00000160: 312e 45bd 0e0e 2abd 9050 e1bc 0ff3 08be
00000170: ccc6 7cbc c26a 53be 57b9 74be 5c5c d3bd
00000180: 9fdf 90be 5e75 0bbe d30b b0be 2cbd b4bd
00000190: db2c 44be 30c8 3ebe d4cc 0cbd 2e17 44bd
000001a0: 70dd 43be a384 a5bd 3dcb 0ebd 028d 02be
000001b0: dce8 f3be c5b9 8bbd f6fb ecbc f585 c4bd
000001c0: 45d8 a5bd 2e58 10bd b023 92bd 69a7 d5bd
000001d0: 980f e9bd 18f9 50be 0281 45bd 8892 27be
000001e0: b602 30be e3ec 89be 2fba f4bd 7f1d 5cbd
000001f0: 01ef fabd 834d 86bd bd0d 05bc 70ab 7fbd
00000200: a984 05be a6a7 81be a8d1 933e 2200 cdbd
00000210: 0eab a8bd 4d3a 6fbd 33c7 9dbd d3c5 4cbe
00000220: 74d2 ccbc d603 97bd 478a cabd 3af9 eabc
00000230: d4fb b8be fb6b b6bd 24c2 c1bd 590d f0bc
00000240: 41bf 73bd 2b98 33bd b18c fdbd 7bb3 febd
00000250: d905 0b3e dbbf dabd 542e 83bd b577 5fbe
00000260: 5647 a8bd ba54 90bd cf64 c2bd 92af a1be
00000270: 3f63 6abd f64c 6cbd 0c2e eebd 4d8d ba3e
00000280: aa11 dfbd 1575 fbbc 109a bb3e 8dd9 94bd
00000290: 5081 02bd a3c5 0fbe 6f28 25be 727b 1ebd
000002a0: 2a09 47be e96d 2cbd ef09 24be 0972 8cbe
000002b0: 663f 0cbd 5251 b3be fe76 abbe bca0 34bd
000002c0: 8c37 02be ca7c d7bd 1961 3abd 64ed c7bd
000002d0: 770b 70be d5e7 18bd eace d0bd b48d 50be
000002e0: 3bd9 23be e791 90bd 81b9 a1bd 086b a6bd
000002f0: a92d 86be 351c b1be 809d cbbd b64e a4bd
00000300: 681e e3ba 3a8f 47bd 5465 65be 6f23 19bd
00000310: afab 0ebe cdfe 31be 9c2d 96bd 7198 3bbd
00000320: c989 14bd d35a 77bd 6154 a63e 0520 87bd
00000330: d3d1 37be 2a2a e6bd b90e 8ebd 8cd3 96bd
00000340: 9995 96bd 8068 3abd 5744 a7bd 5d4c 9fbe
00000350: 2a37 90bd c5c8 46bd f2cd 31be dfa5 60bd
00000360: 1f5f 733c 30e7 60bd a248 f9bd a4af febd
00000370: 4936 8cbc be71 6ebd 4dfd afbd 6219 1ebe
00000380: 74b8 81be a63f f2bd 3313 5fbe c4e8 8ebe
00000390: 57c7 aabd 0f14 6abd 415f 49ba 7d7a 8abd
000003a0: c958 2abd a2e6 edbd 5f5c b9bd 621c babd
000003b0: add4 8dbe 2c05 263c 2940 41bd 9b0e c5bd
000003c0: 67b4 3ebd 2b26 8abe 2f22 6ebe 75bd 85bd
000003d0: 0c43 46be cc34 64bd e1b7 84bd 80d0 afbd
000003e0: f825 d6bd 793f 37be d57f 2fbe e038 e8bd
000003f0: 1dfc 4bbd 8d41 42bd 2613 bebc fd69 bfbd
-0.16115709 -0.20073783 -0.34794375 -0.048590105 -0.17050204 -0.051604312 -0.09699879 -0.31219676
-0.36690706 -0.029119728 -0.084774636 -0.07501844 -0.09096999 -0.13981032 -0.229618 -0.13218494
-0.06027602 -0.004065762 -0.084353134 -0.12164206 -0.081919506 -0.05612817 -0.031093327 -0.07455431
-0.05486729 -0.092039645 -0.10356013 -0.26216322 0.064575754 -0.029368687 -0.06519045 -0.116402075
-0.058684684 0.02311342 -0.034702715 -0.0639891 -0.05720306 -0.109026305 -0.062841326 -0.06801499
-0.0069380486 -0.21408398 -0.049669415 -0.1460391 -0.11645316 -0.06928695 -0.09486303 -0.11475963
-0.17406578 -0.08947419 -0.24203154 -0.13150357 -0.22456892 -0.2467002 -0.06823103 -0.06264438
-0.058099803 -0.059857234 -0.09883632 -0.19057077 -0.1139336 -0.13871956 -0.01169065 -0.068654135
0.34084493 -0.06762185 -0.08960628 -0.03879115 -0.21967983 -0.0931743 -0.04074014 -0.2507198
0.07781975 -0.35487935 -0.07723818 -0.047110036 -0.11328975 -0.07351324 -0.11512195 -0.16859664
-0.32652047 -0.17587805 -0.11958626 -0.05393629 -0.24241714 -0.042998668 -0.098681405 -0.18786386
-0.048139755 -0.04151731 -0.027504236 -0.1337397 -0.015428256 -0.20646194 -0.23898827 -0.103203505
-0.2829561 -0.13618991 -0.3438402 -0.08825144 -0.19157736 -0.18631053 -0.034375027 -0.04787367
-0.1912744 -0.08081939 -0.034861792 -0.12749103 -0.47638595 -0.06822542 -0.028928738 -0.09595863
-0.08097891 -0.035240345 -0.07135713 -0.104323216 -0.113799274 -0.20407522 -0.048218735 -0.16364491
-0.17188534 -0.26938543 -0.11949574 -0.053739067 -0.122526176 -0.06557753 -0.008120951 -0.062419355
-0.13038887 -0.25323218 0.28870893 -0.10009791 -0.08235751 -0.05840521 -0.0770401 -0.19997339
-0.025002696 -0.073737785 -0.098896556 -0.028683294 -0.3612963 -0.089073144 -0.094608575 -0.02930324
-0.059508566 -0.04384629 -0.123803504 -0.12436577 0.1357645 -0.10681125 -0.06405321 -0.21823008
-0.08216731 -0.0704741 -0.09491884 -0.31579262 -0.057223555 -0.057690583 -0.116298765 0.3643593
-0.10892041 -0.030695478 0.36640978 -0.07268057 -0.031861603 -0.14040236 -0.16128705 -0.038691945
-0.1943709 -0.042097006 -0.16019414 -0.27430752 -0.03424015 -0.3502298 -0.3348922 -0.0440986
-0.12716502 -0.105218485 -0.045502756 -0.097620755 -0.23441873 -0.037330467 -0.10195716 -0.20366555
-0.16000836 -0.07059079 -0.0789671 -0.08125883 -0.2620671 -0.34591833 -0.0994215 -0.080228254
-0.0017327787 -0.048720576 -0.22401935 -0.037387308 -0.1393268 -0.17382355 -0.07332918 -0.045799676
-0.036264215 -0.06038935 0.3248625 -0.06597904 -0.17951135 -0.11238511 -0.06936402 -0.07364568
-0.07352752 -0.045509815 -0.08167332 -0.31112948 -0.07041772 -0.048531312 -0.17363718 -0.054845687
0.014854222 -0.054907978 -0.12172057 -0.124358445 -0.017115729 -0.05821394 -0.08593235 -0.1543937
-0.2533604 -0.11828546 -0.21784668 -0.2791196 -0.08338802 -0.057148036 -0.00076817354 -0.06761644
-0.04158858 -0.11616255 -0.090508215 -0.09087445 -0.2770132 0.010133069 -0.04718033 -0.096219264
-0.046558764 -0.26982245 -0.23255228 -0.06530277 -0.19361514 -0.055714414 -0.064803846 -0.0858469
-0.10456461 -0.17895307 -0.17138608 -0.11338973 -0.04980098 -0.047425795 -0.02320249 -0.093463875

weight f4 [4, 256]
00000000: 611a 8d3d 88a6 183c 0774 ffba 255c 463c
00000010: 6225 d2bc 56e8 0fbd f4e4 513d bcf2 383d
00000020: 608d 7a3d c627 fe3c 957b dcbc 0128 93bc
00000030: b013 3e3d 16a1 623d 70fd e33c daea e23c
00000040: feca 4fbd 8c06 57bb c0f9 933d 908b b13c
00000050: e18e 1ebd 48ef 80bc e5e3 e9bc e3c8 123e
00000060: 7517 b4bd eb82 2fbd ae0e 923c fe1f d0be
00000070: e4c5 17bc 492d a2ba 4cc7 7b3d 3909 863d
00000080: 7e70 233c 58b7 b63d 1c84 0bbd e66d bebc
00000090: 296d 523c 25fe 7cba 9434 703b 9f11 db3a
000000a0: 6162 c1bc 050c 62bc c67b 293c 9542 23bd
000000b0: 9d61 3f3c 1109 6239 0798 3e3d 17d8 ff3d
000000c0: 28f4 0d3e c776 443b ccf0 e0b9 9e5c 5b3c
000000d0: 32da b83d 1145 7dbc 27a1 883d af82 12bd
000000e0: af64 05bb 45a1 353d 241a 283c f3e3 223c
000000f0: de9f 363c c84b 5a3c 7e38 0fbd 349f 723c
00000100: e7c4 0cbe 47a1 3fbc 0899 903c 938b 2d3d
00000110: 0dc7 523d 66b1 0fbd ac17 313d cb65 6d3e
00000120: f830 1abd 5b2b 05bf 3825 f63c 98b1 233c
00000130: 074b a1bb b163 33bd d90a 163d 1334 b53e
00000140: 0e53 af3d bf6a 9cbd 2638 273e fc04 c43c
00000150: f94a 073f ddfd 5a3d a34b 013d 2561 4cbd
00000160: 0af0 a8bc a47d 2a3d 8284 cebc 3746 cf3d
00000170: 62ab 1cbd 4547 143e 9133 0f3e 63f9 253d
00000180: 3e84 a63e e88c 35bd 6566 a2bf 33fe ccbb
00000190: c466 b23d 51e4 3a3e 49a8 233d b25d ab3c
000001a0: 01c0 c13d aa5f 013c 8ecb 2cbc a790 adbe
000001b0: 4e97 6d3e 8fa1 3e3c 079a 7ebc 69d2 7a3d
000001c0: c508 8a3d ce85 adba 0386 7f3c 579e 1c3d
000001d0: aead 38bc d8b3 c33c f309 aebc dc66 153e
000001e0: a64c a23c 7adc 993d 81ef 5b3d de27 973c
000001f0: ba5c b43d e562 e23c 53da 773b 41e0 09bd
00000200: eaef c2bc 9ff8 f4bf 6fbe bbbd 0d0e 4bbd
00000210: d69c 6dbc 5969 8c3b b1a4 253c 9473 b73e
00000220: f5b9 813b fa7b 0f3d e689 dabd 48fa c4bd
00000230: 7d77 55bf df54 9ebc 3c6c 9cbc f40d e73b
00000240: e45c 4b3b a36a f43a 8adf 813d 4adf db3c
00000250: 9d86 833e 7033 c93c 09e6 363c 3f37 053e
00000260: 178c 8e3d 9cdb dbbb fe14 35b9 0fe0 5d3e
00000270: 86be 423d 3eee 423d 2ec5 bebc d3be acbd
00000280: 58cc b13b 7da4 013d 456e fabd 0045 9b39
00000290: fc6a 483b 1099 fb3e 73e7 aa3d 6362 81bc
000002a0: 32b0 72bd edab 9ebc 6358 2a3d d602 adbc
000002b0: 0908 f03b 3844 853e 84f4 c9be 9af3 02bc
000002c0: 730a f43b dff6 f83c eabc 093d e0ca 20bc
000002d0: 3f8d a73e 3eee c23d 6a79 a93c 407a 643c
000002e0: 1be0 eb3c c012 dd3c fe1e b33b 514d 8bbd
000002f0: b29c 3cbe e0e5 00be c826 9a3c 16a4 713d
00000300: 256b 76bc 3a87 a0ba b061 433c ff7c 3cbc
00000310: 345c f63b e1a0 903d 1df5 a3bb eff2 a33c
00000320: af39 813c 51b4 123d 5b2a 0f3e fcf9 cabc
00000330: 9545 a7ba b9e1 b53d 5aca 7d3c 8e34 07bd
00000340: d4b1 10bd 43cd 92bb fcab 28bd b41a 05bc
00000350: 737e 92bc bcac e63b 1d87 013c 6205 40bc
00000360: 109c c0bc 3bbb af3c c519 9b3e 26d6 bb3d
00000370: b00e d8bc feb3 213c f3f3 febc d670 03bc
00000380: 1446 b13b 8d33 3e3d a1b7 673d f690 a2bf
00000390: 2cd0 cabc f90d e73c 37f3 9b3c a5be e4bc
000003a0: 3f58 c0bc 2765 bdbb 4e4b cbbf dccf 37bd
000003b0: f3ee 8bbd 64f9 56be 9b30 80bb 9a74 3b3d
000003c0: c946 5c38 4ffa ef3d c33d 6e3c f2c7 7e3b
000003d0: 92bf ea3d 3d50 3f3d e8f1 703c e213 d83c
000003e0: 4d85 283c 01c0 cc3c a641 da3d ca57 063c
000003f0: 1eb9 15bd 2a43 83bc b62e b83c f9a0 143d
0.06889797 0.009317048 -0.0019489535 0.01210693 -0.025652591 -0.035133682 0.051243737 0.045153365
0.061169982 0.031024825 -0.026914397 -0.017963411 0.046405494 0.055329405 0.02783081 0.027699877
-0.050730698 -0.0032810299 0.072253704 0.021672994 -0.03871048 -0.015739098 -0.028551051 0.14334445
-0.087935366 -0.042849462 0.017829265 -0.40649408 -0.009263489 -0.0012373115 0.06146936 0.06544728
0.009975551 0.08921689 -0.034061536 -0.023245763 0.012843409 -0.00096509076 0.0036652433 0.0016713626
-0.023606481 -0.013796811 0.010344451 -0.03985842 0.011680988 0.00021556417 0.046531703 0.12492388
0.1386267 0.0029978023 -0.00042904017 0.013388781 0.090259925 -0.015458361 0.06671362 -0.03576916
-0.0020354202 0.04434325 0.010260139 0.009942043 0.011146514 0.013323732 -0.034965985 0.014808465
-0.13746987 -0.011696166 0.017651096 0.042369436 0.05145936 -0.03508129 0.043235466 0.23183362
-0.037644356 -0.5201928 0.030047044 0.009991072 -0.004922274 -0.043796245 0.03663144 0.35391292
0.08560763 -0.07637548 0.16330013 0.023928158 0.52848774 0.05346476 0.031566273 -0.04989733
-0.020622272 0.041623726 -0.025209669 0.10120814 -0.03824938 0.14480312 0.13984515 0.040521037
0.32522768 -0.04432383 -1.2687498 -0.006255889 0.08711007 0.18251158 0.03995541 0.0209187
0.0946045 0.007896343 -0.010546578 -0.33899423 0.2320225 0.011635198 -0.015539653 0.06123582
0.06739954 -0.001323873 0.015595916 0.038236942 -0.011271877 0.023889467 -0.021244979 0.14590019
0.01981194 0.07512756 0.053695206 0.018451627 0.08806749 0.027635047 0.003781934 -0.03366113
-0.02379604 -1.9138373 -0.09167182 -0.049573947 -0.014502725 0.0042850194 0.010110066 0.35830367
0.0039589354 0.035030343 -0.10670833 -0.0961805 -0.8338545 -0.019327579 -0.019094579 0.007051224
0.003103071 0.0018647503 0.06341465 0.026839871 0.2568864 0.02456066 0.011163243 0.13009356
0.06960314 -0.006709529 -0.00017269325 0.21667503 0.04754498 0.047590487 -0.023287382 -0.08434834
0.005425971 0.03165101 -0.122280635 0.00029615313 0.0030581346 0.49140215 0.08344927 -0.015793985
-0.059250064 -0.01936909 0.0415882 -0.021119516 0.0073251766 0.2602861 -0.39444363 -0.007992649
0.0074475347 0.030391155 0.033627428 -0.009813994 0.3272495 0.09518097 0.020687778 0.013945162
0.028793385 0.02698648 0.005466341 -0.06801856 -0.1841915 -0.1258769 0.01881732 0.058994375
-0.015040194 -0.0012247332 0.011925146 -0.011504411 0.0075183157 0.07061935 -0.005003585 0.0200133
0.015774576 0.035816494 0.13981001 -0.024777405 -0.0012761826 0.08880944 0.015490139 -0.033009104
-0.03532584 -0.0044800355 -0.041179642 -0.008124042 -0.017882561 0.0070396345 0.007905749 -0.011720033
-0.023511916 0.021451583 0.30293098 0.09171705 -0.026374191 0.009869574 -0.031122183 -0.008022508
0.0054099653 0.04643588 0.056571607 -1.2700489 -0.024757467 0.028204905 0.019036872 -0.027922938
-0.023479579 -0.0057798806 -1.5882356 -0.044875965 -0.06832685 -0.20993572 -0.003912044 0.045765497
5.251801e-05 0.117176645 0.014541092 0.00388765 0.114623204 0.04670738 0.014706112 0.026376668
0.010285688 0.024993898 0.10657053 0.0081996415 -0.036553495 -0.016023237 0.022483211 0.036286328

bias f4 [4]
00000000: 3baa 45be 53f5 c9bd 94d1 83be 683d 8dbe
-0.19303219 -0.09861245 -0.25745833 -0.27585912
